// -----// IR Dump Before Inliner (inline) ('builtin.module' operation) //----- //
#loc = loc(unknown)
module {
  tt.func public @matmul_kernel_with_block_pointers_0d1d2d3d4d5d(%arg0: !tt.ptr<f16, 1> {tt.divisibility = 16 : i32} loc(unknown), %arg1: !tt.ptr<f16, 1> {tt.divisibility = 16 : i32} loc(unknown), %arg2: !tt.ptr<f32, 1> {tt.divisibility = 16 : i32} loc(unknown), %arg3: i32 {tt.divisibility = 16 : i32} loc(unknown), %arg4: i32 {tt.divisibility = 16 : i32} loc(unknown), %arg5: i32 {tt.divisibility = 16 : i32} loc(unknown)) attributes {noinline = false} {
    %0 = tt.get_program_id x : i32 loc(#loc)
    %1 = tt.call @cdiv____0cconstexpr_4096__1cconstexpr_256_() : () -> i32 loc(#loc)
    %2 = tt.call @cdiv____0cconstexpr_4096__1cconstexpr_256_() : () -> i32 loc(#loc)
    %c4_i32 = arith.constant 4 : i32 loc(#loc)
    %3 = arith.muli %2, %c4_i32 : i32 loc(#loc)
    %4 = arith.divsi %0, %3 : i32 loc(#loc)
    %c4_i32_0 = arith.constant 4 : i32 loc(#loc)
    %5 = arith.muli %4, %c4_i32_0 : i32 loc(#loc)
    %6 = arith.subi %1, %5 : i32 loc(#loc)
    %7 = tt.call @minimum__i32__1cconstexpr_4__2cconstexpr_PROPAGATE_NAN_d_NONE_(%6) : (i32) -> i32 loc(#loc)
    %8 = arith.remsi %0, %7 : i32 loc(#loc)
    %9 = arith.addi %5, %8 : i32 loc(#loc)
    %10 = arith.remsi %0, %3 : i32 loc(#loc)
    %11 = arith.divsi %10, %7 : i32 loc(#loc)
    %c256_i32 = arith.constant 256 : i32 loc(#loc)
    %12 = arith.muli %9, %c256_i32 : i32 loc(#loc)
    %c4096_i64 = arith.constant 4096 : i64 loc(#loc)
    %c4096_i64_1 = arith.constant 4096 : i64 loc(#loc)
    %c4096_i64_2 = arith.constant 4096 : i64 loc(#loc)
    %c1_i64 = arith.constant 1 : i64 loc(#loc)
    %c0_i32 = arith.constant 0 : i32 loc(#loc)
    %13 = tt.make_tensor_ptr %arg0, [%c4096_i64, %c4096_i64_1], [%c4096_i64_2, %c1_i64], [%12, %c0_i32] {order = array<i32: 1, 0>} : <tensor<256x32xf16>, 1> loc(#loc)
    %c256_i32_3 = arith.constant 256 : i32 loc(#loc)
    %14 = arith.muli %11, %c256_i32_3 : i32 loc(#loc)
    %c4096_i64_4 = arith.constant 4096 : i64 loc(#loc)
    %c4096_i64_5 = arith.constant 4096 : i64 loc(#loc)
    %c4096_i64_6 = arith.constant 4096 : i64 loc(#loc)
    %c1_i64_7 = arith.constant 1 : i64 loc(#loc)
    %c0_i32_8 = arith.constant 0 : i32 loc(#loc)
    %15 = tt.make_tensor_ptr %arg1, [%c4096_i64_4, %c4096_i64_5], [%c4096_i64_6, %c1_i64_7], [%c0_i32_8, %14] {order = array<i32: 1, 0>} : <tensor<32x256xf16>, 1> loc(#loc)
    %16 = tt.call @"zeros____0cconstexpr_(constexpr_256_, constexpr_256_)__1cconstexpr_fp32_"() : () -> tensor<256x256xf32> loc(#loc)
    %c0_i32_9 = arith.constant 0 : i32 loc(#loc)
    %c4096_i32 = arith.constant 4096 : i32 loc(#loc)
    %c32_i32 = arith.constant 32 : i32 loc(#loc)
    %17 = arith.bitcast %c0_i32_9 : i32 to i32 loc(#loc)
    %18 = arith.bitcast %c4096_i32 : i32 to i32 loc(#loc)
    %19 = arith.bitcast %c32_i32 : i32 to i32 loc(#loc)
    %20 = llvm.mlir.undef : i32 loc(#loc)
    %21:3 = scf.for %arg6 = %17 to %18 step %19 iter_args(%arg7 = %16, %arg8 = %13, %arg9 = %15) -> (tensor<256x256xf32>, !tt.ptr<tensor<256x32xf16>, 1>, !tt.ptr<tensor<32x256xf16>, 1>)  : i32 {
      %25 = tt.load %arg8 {boundaryCheck = array<i32: 0, 1>, cache = 1 : i32, evict = 1 : i32, isVolatile = false} : !tt.ptr<tensor<256x32xf16>, 1> -> tensor<256x32xf16> loc(#loc)
      %26 = tt.load %arg9 {boundaryCheck = array<i32: 0, 1>, cache = 1 : i32, evict = 1 : i32, isVolatile = false} : !tt.ptr<tensor<32x256xf16>, 1> -> tensor<32x256xf16> loc(#loc)
      %cst = arith.constant 0.000000e+00 : f32 loc(#loc)
      %cst_16 = arith.constant dense<0.000000e+00> : tensor<256x256xf32> loc(#loc)
      %27 = tt.dot %25, %26, %cst_16 {allowTF32 = true, maxNumImpreciseAcc = 0 : i32} : tensor<256x32xf16> * tensor<32x256xf16> -> tensor<256x256xf32> loc(#loc)
      %28 = arith.addf %arg7, %27 : tensor<256x256xf32> loc(#loc)
      %c0_i32_17 = arith.constant 0 : i32 loc(#loc)
      %c32_i32_18 = arith.constant 32 : i32 loc(#loc)
      %29 = tt.advance %arg8, [%c0_i32_17, %c32_i32_18] : <tensor<256x32xf16>, 1> loc(#loc)
      %c32_i32_19 = arith.constant 32 : i32 loc(#loc)
      %c0_i32_20 = arith.constant 0 : i32 loc(#loc)
      %30 = tt.advance %arg9, [%c32_i32_19, %c0_i32_20] : <tensor<32x256xf16>, 1> loc(#loc)
      scf.yield %28, %29, %30 : tensor<256x256xf32>, !tt.ptr<tensor<256x32xf16>, 1>, !tt.ptr<tensor<32x256xf16>, 1> loc(#loc)
    } loc(#loc)
    %c256_i32_10 = arith.constant 256 : i32 loc(#loc)
    %22 = arith.muli %9, %c256_i32_10 : i32 loc(#loc)
    %c256_i32_11 = arith.constant 256 : i32 loc(#loc)
    %23 = arith.muli %11, %c256_i32_11 : i32 loc(#loc)
    %c4096_i64_12 = arith.constant 4096 : i64 loc(#loc)
    %c4096_i64_13 = arith.constant 4096 : i64 loc(#loc)
    %c4096_i64_14 = arith.constant 4096 : i64 loc(#loc)
    %c1_i64_15 = arith.constant 1 : i64 loc(#loc)
    %24 = tt.make_tensor_ptr %arg2, [%c4096_i64_12, %c4096_i64_13], [%c4096_i64_14, %c1_i64_15], [%22, %23] {order = array<i32: 1, 0>} : <tensor<256x256xf32>, 1> loc(#loc)
    tt.store %24, %21#0 {boundaryCheck = array<i32: 0, 1>, cache = 1 : i32, evict = 1 : i32} : !tt.ptr<tensor<256x256xf32>, 1>, tensor<256x256xf32> loc(#loc)
    tt.return loc(#loc)
  } loc(#loc)
  tt.func private @cdiv____0cconstexpr_4096__1cconstexpr_256_() -> i32 attributes {noinline = false} {
    %c16_i32 = arith.constant 16 : i32 loc(#loc)
    tt.return %c16_i32 : i32 loc(#loc)
  } loc(#loc)
  tt.func private @minimum__i32__1cconstexpr_4__2cconstexpr_PROPAGATE_NAN_d_NONE_(%arg0: i32 loc(unknown)) -> i32 attributes {noinline = false} {
    %c4_i32 = arith.constant 4 : i32 loc(#loc)
    %0 = arith.minsi %arg0, %c4_i32 : i32 loc(#loc)
    tt.return %0 : i32 loc(#loc)
  } loc(#loc)
  tt.func private @"zeros____0cconstexpr_(constexpr_256_, constexpr_256_)__1cconstexpr_fp32_"() -> tensor<256x256xf32> attributes {noinline = false} {
    %cst = arith.constant 0.000000e+00 : f32 loc(#loc)
    %cst_0 = arith.constant dense<0.000000e+00> : tensor<256x256xf32> loc(#loc)
    tt.return %cst_0 : tensor<256x256xf32> loc(#loc)
  } loc(#loc)
} loc(#loc)


// -----// IR Dump Before Canonicalizer (canonicalize) ('tt.func' operation: @cdiv____0cconstexpr_4096__1cconstexpr_256_) //----- //
#loc = loc(unknown)
module {
  tt.func public @matmul_kernel_with_block_pointers_0d1d2d3d4d5d(%arg0: !tt.ptr<f16, 1> {tt.divisibility = 16 : i32} loc(unknown), %arg1: !tt.ptr<f16, 1> {tt.divisibility = 16 : i32} loc(unknown), %arg2: !tt.ptr<f32, 1> {tt.divisibility = 16 : i32} loc(unknown), %arg3: i32 {tt.divisibility = 16 : i32} loc(unknown), %arg4: i32 {tt.divisibility = 16 : i32} loc(unknown), %arg5: i32 {tt.divisibility = 16 : i32} loc(unknown)) attributes {noinline = false} {
    %0 = tt.get_program_id x : i32 loc(#loc)
    %1 = tt.call @cdiv____0cconstexpr_4096__1cconstexpr_256_() : () -> i32 loc(#loc)
    %2 = tt.call @cdiv____0cconstexpr_4096__1cconstexpr_256_() : () -> i32 loc(#loc)
    %c4_i32 = arith.constant 4 : i32 loc(#loc)
    %3 = arith.muli %2, %c4_i32 : i32 loc(#loc)
    %4 = arith.divsi %0, %3 : i32 loc(#loc)
    %c4_i32_0 = arith.constant 4 : i32 loc(#loc)
    %5 = arith.muli %4, %c4_i32_0 : i32 loc(#loc)
    %6 = arith.subi %1, %5 : i32 loc(#loc)
    %7 = tt.call @minimum__i32__1cconstexpr_4__2cconstexpr_PROPAGATE_NAN_d_NONE_(%6) : (i32) -> i32 loc(#loc)
    %8 = arith.remsi %0, %7 : i32 loc(#loc)
    %9 = arith.addi %5, %8 : i32 loc(#loc)
    %10 = arith.remsi %0, %3 : i32 loc(#loc)
    %11 = arith.divsi %10, %7 : i32 loc(#loc)
    %c256_i32 = arith.constant 256 : i32 loc(#loc)
    %12 = arith.muli %9, %c256_i32 : i32 loc(#loc)
    %c4096_i64 = arith.constant 4096 : i64 loc(#loc)
    %c4096_i64_1 = arith.constant 4096 : i64 loc(#loc)
    %c4096_i64_2 = arith.constant 4096 : i64 loc(#loc)
    %c1_i64 = arith.constant 1 : i64 loc(#loc)
    %c0_i32 = arith.constant 0 : i32 loc(#loc)
    %13 = tt.make_tensor_ptr %arg0, [%c4096_i64, %c4096_i64_1], [%c4096_i64_2, %c1_i64], [%12, %c0_i32] {order = array<i32: 1, 0>} : <tensor<256x32xf16>, 1> loc(#loc)
    %c256_i32_3 = arith.constant 256 : i32 loc(#loc)
    %14 = arith.muli %11, %c256_i32_3 : i32 loc(#loc)
    %c4096_i64_4 = arith.constant 4096 : i64 loc(#loc)
    %c4096_i64_5 = arith.constant 4096 : i64 loc(#loc)
    %c4096_i64_6 = arith.constant 4096 : i64 loc(#loc)
    %c1_i64_7 = arith.constant 1 : i64 loc(#loc)
    %c0_i32_8 = arith.constant 0 : i32 loc(#loc)
    %15 = tt.make_tensor_ptr %arg1, [%c4096_i64_4, %c4096_i64_5], [%c4096_i64_6, %c1_i64_7], [%c0_i32_8, %14] {order = array<i32: 1, 0>} : <tensor<32x256xf16>, 1> loc(#loc)
    %16 = tt.call @"zeros____0cconstexpr_(constexpr_256_, constexpr_256_)__1cconstexpr_fp32_"() : () -> tensor<256x256xf32> loc(#loc)
    %c0_i32_9 = arith.constant 0 : i32 loc(#loc)
    %c4096_i32 = arith.constant 4096 : i32 loc(#loc)
    %c32_i32 = arith.constant 32 : i32 loc(#loc)
    %17 = arith.bitcast %c0_i32_9 : i32 to i32 loc(#loc)
    %18 = arith.bitcast %c4096_i32 : i32 to i32 loc(#loc)
    %19 = arith.bitcast %c32_i32 : i32 to i32 loc(#loc)
    %20 = llvm.mlir.undef : i32 loc(#loc)
    %21:3 = scf.for %arg6 = %17 to %18 step %19 iter_args(%arg7 = %16, %arg8 = %13, %arg9 = %15) -> (tensor<256x256xf32>, !tt.ptr<tensor<256x32xf16>, 1>, !tt.ptr<tensor<32x256xf16>, 1>)  : i32 {
      %25 = tt.load %arg8 {boundaryCheck = array<i32: 0, 1>, cache = 1 : i32, evict = 1 : i32, isVolatile = false} : !tt.ptr<tensor<256x32xf16>, 1> -> tensor<256x32xf16> loc(#loc)
      %26 = tt.load %arg9 {boundaryCheck = array<i32: 0, 1>, cache = 1 : i32, evict = 1 : i32, isVolatile = false} : !tt.ptr<tensor<32x256xf16>, 1> -> tensor<32x256xf16> loc(#loc)
      %cst = arith.constant 0.000000e+00 : f32 loc(#loc)
      %cst_16 = arith.constant dense<0.000000e+00> : tensor<256x256xf32> loc(#loc)
      %27 = tt.dot %25, %26, %cst_16 {allowTF32 = true, maxNumImpreciseAcc = 0 : i32} : tensor<256x32xf16> * tensor<32x256xf16> -> tensor<256x256xf32> loc(#loc)
      %28 = arith.addf %arg7, %27 : tensor<256x256xf32> loc(#loc)
      %c0_i32_17 = arith.constant 0 : i32 loc(#loc)
      %c32_i32_18 = arith.constant 32 : i32 loc(#loc)
      %29 = tt.advance %arg8, [%c0_i32_17, %c32_i32_18] : <tensor<256x32xf16>, 1> loc(#loc)
      %c32_i32_19 = arith.constant 32 : i32 loc(#loc)
      %c0_i32_20 = arith.constant 0 : i32 loc(#loc)
      %30 = tt.advance %arg9, [%c32_i32_19, %c0_i32_20] : <tensor<32x256xf16>, 1> loc(#loc)
      scf.yield %28, %29, %30 : tensor<256x256xf32>, !tt.ptr<tensor<256x32xf16>, 1>, !tt.ptr<tensor<32x256xf16>, 1> loc(#loc)
    } loc(#loc)
    %c256_i32_10 = arith.constant 256 : i32 loc(#loc)
    %22 = arith.muli %9, %c256_i32_10 : i32 loc(#loc)
    %c256_i32_11 = arith.constant 256 : i32 loc(#loc)
    %23 = arith.muli %11, %c256_i32_11 : i32 loc(#loc)
    %c4096_i64_12 = arith.constant 4096 : i64 loc(#loc)
    %c4096_i64_13 = arith.constant 4096 : i64 loc(#loc)
    %c4096_i64_14 = arith.constant 4096 : i64 loc(#loc)
    %c1_i64_15 = arith.constant 1 : i64 loc(#loc)
    %24 = tt.make_tensor_ptr %arg2, [%c4096_i64_12, %c4096_i64_13], [%c4096_i64_14, %c1_i64_15], [%22, %23] {order = array<i32: 1, 0>} : <tensor<256x256xf32>, 1> loc(#loc)
    tt.store %24, %21#0 {boundaryCheck = array<i32: 0, 1>, cache = 1 : i32, evict = 1 : i32} : !tt.ptr<tensor<256x256xf32>, 1>, tensor<256x256xf32> loc(#loc)
    tt.return loc(#loc)
  } loc(#loc)
  tt.func private @cdiv____0cconstexpr_4096__1cconstexpr_256_() -> i32 attributes {noinline = false} {
    %c16_i32 = arith.constant 16 : i32 loc(#loc)
    tt.return %c16_i32 : i32 loc(#loc)
  } loc(#loc)
  tt.func private @minimum__i32__1cconstexpr_4__2cconstexpr_PROPAGATE_NAN_d_NONE_(%arg0: i32 loc(unknown)) -> i32 attributes {noinline = false} {
    %c4_i32 = arith.constant 4 : i32 loc(#loc)
    %0 = arith.minsi %arg0, %c4_i32 : i32 loc(#loc)
    tt.return %0 : i32 loc(#loc)
  } loc(#loc)
  tt.func private @"zeros____0cconstexpr_(constexpr_256_, constexpr_256_)__1cconstexpr_fp32_"() -> tensor<256x256xf32> attributes {noinline = false} {
    %cst = arith.constant 0.000000e+00 : f32 loc(#loc)
    %cst_0 = arith.constant dense<0.000000e+00> : tensor<256x256xf32> loc(#loc)
    tt.return %cst_0 : tensor<256x256xf32> loc(#loc)
  } loc(#loc)
} loc(#loc)


// -----// IR Dump Before Canonicalizer (canonicalize) ('tt.func' operation: @minimum__i32__1cconstexpr_4__2cconstexpr_PROPAGATE_NAN_d_NONE_) //----- //
#loc = loc(unknown)
module {
  tt.func public @matmul_kernel_with_block_pointers_0d1d2d3d4d5d(%arg0: !tt.ptr<f16, 1> {tt.divisibility = 16 : i32} loc(unknown), %arg1: !tt.ptr<f16, 1> {tt.divisibility = 16 : i32} loc(unknown), %arg2: !tt.ptr<f32, 1> {tt.divisibility = 16 : i32} loc(unknown), %arg3: i32 {tt.divisibility = 16 : i32} loc(unknown), %arg4: i32 {tt.divisibility = 16 : i32} loc(unknown), %arg5: i32 {tt.divisibility = 16 : i32} loc(unknown)) attributes {noinline = false} {
    %0 = tt.get_program_id x : i32 loc(#loc)
    %1 = tt.call @cdiv____0cconstexpr_4096__1cconstexpr_256_() : () -> i32 loc(#loc)
    %2 = tt.call @cdiv____0cconstexpr_4096__1cconstexpr_256_() : () -> i32 loc(#loc)
    %c4_i32 = arith.constant 4 : i32 loc(#loc)
    %3 = arith.muli %2, %c4_i32 : i32 loc(#loc)
    %4 = arith.divsi %0, %3 : i32 loc(#loc)
    %c4_i32_0 = arith.constant 4 : i32 loc(#loc)
    %5 = arith.muli %4, %c4_i32_0 : i32 loc(#loc)
    %6 = arith.subi %1, %5 : i32 loc(#loc)
    %7 = tt.call @minimum__i32__1cconstexpr_4__2cconstexpr_PROPAGATE_NAN_d_NONE_(%6) : (i32) -> i32 loc(#loc)
    %8 = arith.remsi %0, %7 : i32 loc(#loc)
    %9 = arith.addi %5, %8 : i32 loc(#loc)
    %10 = arith.remsi %0, %3 : i32 loc(#loc)
    %11 = arith.divsi %10, %7 : i32 loc(#loc)
    %c256_i32 = arith.constant 256 : i32 loc(#loc)
    %12 = arith.muli %9, %c256_i32 : i32 loc(#loc)
    %c4096_i64 = arith.constant 4096 : i64 loc(#loc)
    %c4096_i64_1 = arith.constant 4096 : i64 loc(#loc)
    %c4096_i64_2 = arith.constant 4096 : i64 loc(#loc)
    %c1_i64 = arith.constant 1 : i64 loc(#loc)
    %c0_i32 = arith.constant 0 : i32 loc(#loc)
    %13 = tt.make_tensor_ptr %arg0, [%c4096_i64, %c4096_i64_1], [%c4096_i64_2, %c1_i64], [%12, %c0_i32] {order = array<i32: 1, 0>} : <tensor<256x32xf16>, 1> loc(#loc)
    %c256_i32_3 = arith.constant 256 : i32 loc(#loc)
    %14 = arith.muli %11, %c256_i32_3 : i32 loc(#loc)
    %c4096_i64_4 = arith.constant 4096 : i64 loc(#loc)
    %c4096_i64_5 = arith.constant 4096 : i64 loc(#loc)
    %c4096_i64_6 = arith.constant 4096 : i64 loc(#loc)
    %c1_i64_7 = arith.constant 1 : i64 loc(#loc)
    %c0_i32_8 = arith.constant 0 : i32 loc(#loc)
    %15 = tt.make_tensor_ptr %arg1, [%c4096_i64_4, %c4096_i64_5], [%c4096_i64_6, %c1_i64_7], [%c0_i32_8, %14] {order = array<i32: 1, 0>} : <tensor<32x256xf16>, 1> loc(#loc)
    %16 = tt.call @"zeros____0cconstexpr_(constexpr_256_, constexpr_256_)__1cconstexpr_fp32_"() : () -> tensor<256x256xf32> loc(#loc)
    %c0_i32_9 = arith.constant 0 : i32 loc(#loc)
    %c4096_i32 = arith.constant 4096 : i32 loc(#loc)
    %c32_i32 = arith.constant 32 : i32 loc(#loc)
    %17 = arith.bitcast %c0_i32_9 : i32 to i32 loc(#loc)
    %18 = arith.bitcast %c4096_i32 : i32 to i32 loc(#loc)
    %19 = arith.bitcast %c32_i32 : i32 to i32 loc(#loc)
    %20 = llvm.mlir.undef : i32 loc(#loc)
    %21:3 = scf.for %arg6 = %17 to %18 step %19 iter_args(%arg7 = %16, %arg8 = %13, %arg9 = %15) -> (tensor<256x256xf32>, !tt.ptr<tensor<256x32xf16>, 1>, !tt.ptr<tensor<32x256xf16>, 1>)  : i32 {
      %25 = tt.load %arg8 {boundaryCheck = array<i32: 0, 1>, cache = 1 : i32, evict = 1 : i32, isVolatile = false} : !tt.ptr<tensor<256x32xf16>, 1> -> tensor<256x32xf16> loc(#loc)
      %26 = tt.load %arg9 {boundaryCheck = array<i32: 0, 1>, cache = 1 : i32, evict = 1 : i32, isVolatile = false} : !tt.ptr<tensor<32x256xf16>, 1> -> tensor<32x256xf16> loc(#loc)
      %cst = arith.constant 0.000000e+00 : f32 loc(#loc)
      %cst_16 = arith.constant dense<0.000000e+00> : tensor<256x256xf32> loc(#loc)
      %27 = tt.dot %25, %26, %cst_16 {allowTF32 = true, maxNumImpreciseAcc = 0 : i32} : tensor<256x32xf16> * tensor<32x256xf16> -> tensor<256x256xf32> loc(#loc)
      %28 = arith.addf %arg7, %27 : tensor<256x256xf32> loc(#loc)
      %c0_i32_17 = arith.constant 0 : i32 loc(#loc)
      %c32_i32_18 = arith.constant 32 : i32 loc(#loc)
      %29 = tt.advance %arg8, [%c0_i32_17, %c32_i32_18] : <tensor<256x32xf16>, 1> loc(#loc)
      %c32_i32_19 = arith.constant 32 : i32 loc(#loc)
      %c0_i32_20 = arith.constant 0 : i32 loc(#loc)
      %30 = tt.advance %arg9, [%c32_i32_19, %c0_i32_20] : <tensor<32x256xf16>, 1> loc(#loc)
      scf.yield %28, %29, %30 : tensor<256x256xf32>, !tt.ptr<tensor<256x32xf16>, 1>, !tt.ptr<tensor<32x256xf16>, 1> loc(#loc)
    } loc(#loc)
    %c256_i32_10 = arith.constant 256 : i32 loc(#loc)
    %22 = arith.muli %9, %c256_i32_10 : i32 loc(#loc)
    %c256_i32_11 = arith.constant 256 : i32 loc(#loc)
    %23 = arith.muli %11, %c256_i32_11 : i32 loc(#loc)
    %c4096_i64_12 = arith.constant 4096 : i64 loc(#loc)
    %c4096_i64_13 = arith.constant 4096 : i64 loc(#loc)
    %c4096_i64_14 = arith.constant 4096 : i64 loc(#loc)
    %c1_i64_15 = arith.constant 1 : i64 loc(#loc)
    %24 = tt.make_tensor_ptr %arg2, [%c4096_i64_12, %c4096_i64_13], [%c4096_i64_14, %c1_i64_15], [%22, %23] {order = array<i32: 1, 0>} : <tensor<256x256xf32>, 1> loc(#loc)
    tt.store %24, %21#0 {boundaryCheck = array<i32: 0, 1>, cache = 1 : i32, evict = 1 : i32} : !tt.ptr<tensor<256x256xf32>, 1>, tensor<256x256xf32> loc(#loc)
    tt.return loc(#loc)
  } loc(#loc)
  tt.func private @cdiv____0cconstexpr_4096__1cconstexpr_256_() -> i32 attributes {noinline = false} {
    %c16_i32 = arith.constant 16 : i32 loc(#loc)
    tt.return %c16_i32 : i32 loc(#loc)
  } loc(#loc)
  tt.func private @minimum__i32__1cconstexpr_4__2cconstexpr_PROPAGATE_NAN_d_NONE_(%arg0: i32 loc(unknown)) -> i32 attributes {noinline = false} {
    %c4_i32 = arith.constant 4 : i32 loc(#loc)
    %0 = arith.minsi %arg0, %c4_i32 : i32 loc(#loc)
    tt.return %0 : i32 loc(#loc)
  } loc(#loc)
  tt.func private @"zeros____0cconstexpr_(constexpr_256_, constexpr_256_)__1cconstexpr_fp32_"() -> tensor<256x256xf32> attributes {noinline = false} {
    %cst = arith.constant 0.000000e+00 : f32 loc(#loc)
    %cst_0 = arith.constant dense<0.000000e+00> : tensor<256x256xf32> loc(#loc)
    tt.return %cst_0 : tensor<256x256xf32> loc(#loc)
  } loc(#loc)
} loc(#loc)


// -----// IR Dump Before Canonicalizer (canonicalize) ('tt.func' operation: @zeros____0cconstexpr_(constexpr_256_, constexpr_256_)__1cconstexpr_fp32_) //----- //
#loc = loc(unknown)
module {
  tt.func public @matmul_kernel_with_block_pointers_0d1d2d3d4d5d(%arg0: !tt.ptr<f16, 1> {tt.divisibility = 16 : i32} loc(unknown), %arg1: !tt.ptr<f16, 1> {tt.divisibility = 16 : i32} loc(unknown), %arg2: !tt.ptr<f32, 1> {tt.divisibility = 16 : i32} loc(unknown), %arg3: i32 {tt.divisibility = 16 : i32} loc(unknown), %arg4: i32 {tt.divisibility = 16 : i32} loc(unknown), %arg5: i32 {tt.divisibility = 16 : i32} loc(unknown)) attributes {noinline = false} {
    %0 = tt.get_program_id x : i32 loc(#loc)
    %1 = tt.call @cdiv____0cconstexpr_4096__1cconstexpr_256_() : () -> i32 loc(#loc)
    %2 = tt.call @cdiv____0cconstexpr_4096__1cconstexpr_256_() : () -> i32 loc(#loc)
    %c4_i32 = arith.constant 4 : i32 loc(#loc)
    %3 = arith.muli %2, %c4_i32 : i32 loc(#loc)
    %4 = arith.divsi %0, %3 : i32 loc(#loc)
    %c4_i32_0 = arith.constant 4 : i32 loc(#loc)
    %5 = arith.muli %4, %c4_i32_0 : i32 loc(#loc)
    %6 = arith.subi %1, %5 : i32 loc(#loc)
    %7 = tt.call @minimum__i32__1cconstexpr_4__2cconstexpr_PROPAGATE_NAN_d_NONE_(%6) : (i32) -> i32 loc(#loc)
    %8 = arith.remsi %0, %7 : i32 loc(#loc)
    %9 = arith.addi %5, %8 : i32 loc(#loc)
    %10 = arith.remsi %0, %3 : i32 loc(#loc)
    %11 = arith.divsi %10, %7 : i32 loc(#loc)
    %c256_i32 = arith.constant 256 : i32 loc(#loc)
    %12 = arith.muli %9, %c256_i32 : i32 loc(#loc)
    %c4096_i64 = arith.constant 4096 : i64 loc(#loc)
    %c4096_i64_1 = arith.constant 4096 : i64 loc(#loc)
    %c4096_i64_2 = arith.constant 4096 : i64 loc(#loc)
    %c1_i64 = arith.constant 1 : i64 loc(#loc)
    %c0_i32 = arith.constant 0 : i32 loc(#loc)
    %13 = tt.make_tensor_ptr %arg0, [%c4096_i64, %c4096_i64_1], [%c4096_i64_2, %c1_i64], [%12, %c0_i32] {order = array<i32: 1, 0>} : <tensor<256x32xf16>, 1> loc(#loc)
    %c256_i32_3 = arith.constant 256 : i32 loc(#loc)
    %14 = arith.muli %11, %c256_i32_3 : i32 loc(#loc)
    %c4096_i64_4 = arith.constant 4096 : i64 loc(#loc)
    %c4096_i64_5 = arith.constant 4096 : i64 loc(#loc)
    %c4096_i64_6 = arith.constant 4096 : i64 loc(#loc)
    %c1_i64_7 = arith.constant 1 : i64 loc(#loc)
    %c0_i32_8 = arith.constant 0 : i32 loc(#loc)
    %15 = tt.make_tensor_ptr %arg1, [%c4096_i64_4, %c4096_i64_5], [%c4096_i64_6, %c1_i64_7], [%c0_i32_8, %14] {order = array<i32: 1, 0>} : <tensor<32x256xf16>, 1> loc(#loc)
    %16 = tt.call @"zeros____0cconstexpr_(constexpr_256_, constexpr_256_)__1cconstexpr_fp32_"() : () -> tensor<256x256xf32> loc(#loc)
    %c0_i32_9 = arith.constant 0 : i32 loc(#loc)
    %c4096_i32 = arith.constant 4096 : i32 loc(#loc)
    %c32_i32 = arith.constant 32 : i32 loc(#loc)
    %17 = arith.bitcast %c0_i32_9 : i32 to i32 loc(#loc)
    %18 = arith.bitcast %c4096_i32 : i32 to i32 loc(#loc)
    %19 = arith.bitcast %c32_i32 : i32 to i32 loc(#loc)
    %20 = llvm.mlir.undef : i32 loc(#loc)
    %21:3 = scf.for %arg6 = %17 to %18 step %19 iter_args(%arg7 = %16, %arg8 = %13, %arg9 = %15) -> (tensor<256x256xf32>, !tt.ptr<tensor<256x32xf16>, 1>, !tt.ptr<tensor<32x256xf16>, 1>)  : i32 {
      %25 = tt.load %arg8 {boundaryCheck = array<i32: 0, 1>, cache = 1 : i32, evict = 1 : i32, isVolatile = false} : !tt.ptr<tensor<256x32xf16>, 1> -> tensor<256x32xf16> loc(#loc)
      %26 = tt.load %arg9 {boundaryCheck = array<i32: 0, 1>, cache = 1 : i32, evict = 1 : i32, isVolatile = false} : !tt.ptr<tensor<32x256xf16>, 1> -> tensor<32x256xf16> loc(#loc)
      %cst = arith.constant 0.000000e+00 : f32 loc(#loc)
      %cst_16 = arith.constant dense<0.000000e+00> : tensor<256x256xf32> loc(#loc)
      %27 = tt.dot %25, %26, %cst_16 {allowTF32 = true, maxNumImpreciseAcc = 0 : i32} : tensor<256x32xf16> * tensor<32x256xf16> -> tensor<256x256xf32> loc(#loc)
      %28 = arith.addf %arg7, %27 : tensor<256x256xf32> loc(#loc)
      %c0_i32_17 = arith.constant 0 : i32 loc(#loc)
      %c32_i32_18 = arith.constant 32 : i32 loc(#loc)
      %29 = tt.advance %arg8, [%c0_i32_17, %c32_i32_18] : <tensor<256x32xf16>, 1> loc(#loc)
      %c32_i32_19 = arith.constant 32 : i32 loc(#loc)
      %c0_i32_20 = arith.constant 0 : i32 loc(#loc)
      %30 = tt.advance %arg9, [%c32_i32_19, %c0_i32_20] : <tensor<32x256xf16>, 1> loc(#loc)
      scf.yield %28, %29, %30 : tensor<256x256xf32>, !tt.ptr<tensor<256x32xf16>, 1>, !tt.ptr<tensor<32x256xf16>, 1> loc(#loc)
    } loc(#loc)
    %c256_i32_10 = arith.constant 256 : i32 loc(#loc)
    %22 = arith.muli %9, %c256_i32_10 : i32 loc(#loc)
    %c256_i32_11 = arith.constant 256 : i32 loc(#loc)
    %23 = arith.muli %11, %c256_i32_11 : i32 loc(#loc)
    %c4096_i64_12 = arith.constant 4096 : i64 loc(#loc)
    %c4096_i64_13 = arith.constant 4096 : i64 loc(#loc)
    %c4096_i64_14 = arith.constant 4096 : i64 loc(#loc)
    %c1_i64_15 = arith.constant 1 : i64 loc(#loc)
    %24 = tt.make_tensor_ptr %arg2, [%c4096_i64_12, %c4096_i64_13], [%c4096_i64_14, %c1_i64_15], [%22, %23] {order = array<i32: 1, 0>} : <tensor<256x256xf32>, 1> loc(#loc)
    tt.store %24, %21#0 {boundaryCheck = array<i32: 0, 1>, cache = 1 : i32, evict = 1 : i32} : !tt.ptr<tensor<256x256xf32>, 1>, tensor<256x256xf32> loc(#loc)
    tt.return loc(#loc)
  } loc(#loc)
  tt.func private @cdiv____0cconstexpr_4096__1cconstexpr_256_() -> i32 attributes {noinline = false} {
    %c16_i32 = arith.constant 16 : i32 loc(#loc)
    tt.return %c16_i32 : i32 loc(#loc)
  } loc(#loc)
  tt.func private @minimum__i32__1cconstexpr_4__2cconstexpr_PROPAGATE_NAN_d_NONE_(%arg0: i32 loc(unknown)) -> i32 attributes {noinline = false} {
    %c4_i32 = arith.constant 4 : i32 loc(#loc)
    %0 = arith.minsi %arg0, %c4_i32 : i32 loc(#loc)
    tt.return %0 : i32 loc(#loc)
  } loc(#loc)
  tt.func private @"zeros____0cconstexpr_(constexpr_256_, constexpr_256_)__1cconstexpr_fp32_"() -> tensor<256x256xf32> attributes {noinline = false} {
    %cst = arith.constant 0.000000e+00 : f32 loc(#loc)
    %cst_0 = arith.constant dense<0.000000e+00> : tensor<256x256xf32> loc(#loc)
    tt.return %cst_0 : tensor<256x256xf32> loc(#loc)
  } loc(#loc)
} loc(#loc)


// -----// IR Dump Before Canonicalizer (canonicalize) ('tt.func' operation: @matmul_kernel_with_block_pointers_0d1d2d3d4d5d) //----- //
#loc = loc(unknown)
module {
  tt.func public @matmul_kernel_with_block_pointers_0d1d2d3d4d5d(%arg0: !tt.ptr<f16, 1> {tt.divisibility = 16 : i32} loc(unknown), %arg1: !tt.ptr<f16, 1> {tt.divisibility = 16 : i32} loc(unknown), %arg2: !tt.ptr<f32, 1> {tt.divisibility = 16 : i32} loc(unknown), %arg3: i32 {tt.divisibility = 16 : i32} loc(unknown), %arg4: i32 {tt.divisibility = 16 : i32} loc(unknown), %arg5: i32 {tt.divisibility = 16 : i32} loc(unknown)) attributes {noinline = false} {
    %0 = tt.get_program_id x : i32 loc(#loc)
    %1 = tt.call @cdiv____0cconstexpr_4096__1cconstexpr_256_() : () -> i32 loc(#loc)
    %2 = tt.call @cdiv____0cconstexpr_4096__1cconstexpr_256_() : () -> i32 loc(#loc)
    %c4_i32 = arith.constant 4 : i32 loc(#loc)
    %3 = arith.muli %2, %c4_i32 : i32 loc(#loc)
    %4 = arith.divsi %0, %3 : i32 loc(#loc)
    %c4_i32_0 = arith.constant 4 : i32 loc(#loc)
    %5 = arith.muli %4, %c4_i32_0 : i32 loc(#loc)
    %6 = arith.subi %1, %5 : i32 loc(#loc)
    %7 = tt.call @minimum__i32__1cconstexpr_4__2cconstexpr_PROPAGATE_NAN_d_NONE_(%6) : (i32) -> i32 loc(#loc)
    %8 = arith.remsi %0, %7 : i32 loc(#loc)
    %9 = arith.addi %5, %8 : i32 loc(#loc)
    %10 = arith.remsi %0, %3 : i32 loc(#loc)
    %11 = arith.divsi %10, %7 : i32 loc(#loc)
    %c256_i32 = arith.constant 256 : i32 loc(#loc)
    %12 = arith.muli %9, %c256_i32 : i32 loc(#loc)
    %c4096_i64 = arith.constant 4096 : i64 loc(#loc)
    %c4096_i64_1 = arith.constant 4096 : i64 loc(#loc)
    %c4096_i64_2 = arith.constant 4096 : i64 loc(#loc)
    %c1_i64 = arith.constant 1 : i64 loc(#loc)
    %c0_i32 = arith.constant 0 : i32 loc(#loc)
    %13 = tt.make_tensor_ptr %arg0, [%c4096_i64, %c4096_i64_1], [%c4096_i64_2, %c1_i64], [%12, %c0_i32] {order = array<i32: 1, 0>} : <tensor<256x32xf16>, 1> loc(#loc)
    %c256_i32_3 = arith.constant 256 : i32 loc(#loc)
    %14 = arith.muli %11, %c256_i32_3 : i32 loc(#loc)
    %c4096_i64_4 = arith.constant 4096 : i64 loc(#loc)
    %c4096_i64_5 = arith.constant 4096 : i64 loc(#loc)
    %c4096_i64_6 = arith.constant 4096 : i64 loc(#loc)
    %c1_i64_7 = arith.constant 1 : i64 loc(#loc)
    %c0_i32_8 = arith.constant 0 : i32 loc(#loc)
    %15 = tt.make_tensor_ptr %arg1, [%c4096_i64_4, %c4096_i64_5], [%c4096_i64_6, %c1_i64_7], [%c0_i32_8, %14] {order = array<i32: 1, 0>} : <tensor<32x256xf16>, 1> loc(#loc)
    %16 = tt.call @"zeros____0cconstexpr_(constexpr_256_, constexpr_256_)__1cconstexpr_fp32_"() : () -> tensor<256x256xf32> loc(#loc)
    %c0_i32_9 = arith.constant 0 : i32 loc(#loc)
    %c4096_i32 = arith.constant 4096 : i32 loc(#loc)
    %c32_i32 = arith.constant 32 : i32 loc(#loc)
    %17 = arith.bitcast %c0_i32_9 : i32 to i32 loc(#loc)
    %18 = arith.bitcast %c4096_i32 : i32 to i32 loc(#loc)
    %19 = arith.bitcast %c32_i32 : i32 to i32 loc(#loc)
    %20 = llvm.mlir.undef : i32 loc(#loc)
    %21:3 = scf.for %arg6 = %17 to %18 step %19 iter_args(%arg7 = %16, %arg8 = %13, %arg9 = %15) -> (tensor<256x256xf32>, !tt.ptr<tensor<256x32xf16>, 1>, !tt.ptr<tensor<32x256xf16>, 1>)  : i32 {
      %25 = tt.load %arg8 {boundaryCheck = array<i32: 0, 1>, cache = 1 : i32, evict = 1 : i32, isVolatile = false} : !tt.ptr<tensor<256x32xf16>, 1> -> tensor<256x32xf16> loc(#loc)
      %26 = tt.load %arg9 {boundaryCheck = array<i32: 0, 1>, cache = 1 : i32, evict = 1 : i32, isVolatile = false} : !tt.ptr<tensor<32x256xf16>, 1> -> tensor<32x256xf16> loc(#loc)
      %cst = arith.constant 0.000000e+00 : f32 loc(#loc)
      %cst_16 = arith.constant dense<0.000000e+00> : tensor<256x256xf32> loc(#loc)
      %27 = tt.dot %25, %26, %cst_16 {allowTF32 = true, maxNumImpreciseAcc = 0 : i32} : tensor<256x32xf16> * tensor<32x256xf16> -> tensor<256x256xf32> loc(#loc)
      %28 = arith.addf %arg7, %27 : tensor<256x256xf32> loc(#loc)
      %c0_i32_17 = arith.constant 0 : i32 loc(#loc)
      %c32_i32_18 = arith.constant 32 : i32 loc(#loc)
      %29 = tt.advance %arg8, [%c0_i32_17, %c32_i32_18] : <tensor<256x32xf16>, 1> loc(#loc)
      %c32_i32_19 = arith.constant 32 : i32 loc(#loc)
      %c0_i32_20 = arith.constant 0 : i32 loc(#loc)
      %30 = tt.advance %arg9, [%c32_i32_19, %c0_i32_20] : <tensor<32x256xf16>, 1> loc(#loc)
      scf.yield %28, %29, %30 : tensor<256x256xf32>, !tt.ptr<tensor<256x32xf16>, 1>, !tt.ptr<tensor<32x256xf16>, 1> loc(#loc)
    } loc(#loc)
    %c256_i32_10 = arith.constant 256 : i32 loc(#loc)
    %22 = arith.muli %9, %c256_i32_10 : i32 loc(#loc)
    %c256_i32_11 = arith.constant 256 : i32 loc(#loc)
    %23 = arith.muli %11, %c256_i32_11 : i32 loc(#loc)
    %c4096_i64_12 = arith.constant 4096 : i64 loc(#loc)
    %c4096_i64_13 = arith.constant 4096 : i64 loc(#loc)
    %c4096_i64_14 = arith.constant 4096 : i64 loc(#loc)
    %c1_i64_15 = arith.constant 1 : i64 loc(#loc)
    %24 = tt.make_tensor_ptr %arg2, [%c4096_i64_12, %c4096_i64_13], [%c4096_i64_14, %c1_i64_15], [%22, %23] {order = array<i32: 1, 0>} : <tensor<256x256xf32>, 1> loc(#loc)
    tt.store %24, %21#0 {boundaryCheck = array<i32: 0, 1>, cache = 1 : i32, evict = 1 : i32} : !tt.ptr<tensor<256x256xf32>, 1>, tensor<256x256xf32> loc(#loc)
    tt.return loc(#loc)
  } loc(#loc)
  tt.func private @cdiv____0cconstexpr_4096__1cconstexpr_256_() -> i32 attributes {noinline = false} {
    %c16_i32 = arith.constant 16 : i32 loc(#loc)
    tt.return %c16_i32 : i32 loc(#loc)
  } loc(#loc)
  tt.func private @minimum__i32__1cconstexpr_4__2cconstexpr_PROPAGATE_NAN_d_NONE_(%arg0: i32 loc(unknown)) -> i32 attributes {noinline = false} {
    %c4_i32 = arith.constant 4 : i32 loc(#loc)
    %0 = arith.minsi %arg0, %c4_i32 : i32 loc(#loc)
    tt.return %0 : i32 loc(#loc)
  } loc(#loc)
  tt.func private @"zeros____0cconstexpr_(constexpr_256_, constexpr_256_)__1cconstexpr_fp32_"() -> tensor<256x256xf32> attributes {noinline = false} {
    %cst = arith.constant dense<0.000000e+00> : tensor<256x256xf32> loc(#loc)
    tt.return %cst : tensor<256x256xf32> loc(#loc)
  } loc(#loc)
} loc(#loc)


// -----// IR Dump Before Canonicalizer (canonicalize) ('tt.func' operation: @matmul_kernel_with_block_pointers_0d1d2d3d4d5d) //----- //
#loc = loc(unknown)
module {
  tt.func public @matmul_kernel_with_block_pointers_0d1d2d3d4d5d(%arg0: !tt.ptr<f16, 1> {tt.divisibility = 16 : i32} loc(unknown), %arg1: !tt.ptr<f16, 1> {tt.divisibility = 16 : i32} loc(unknown), %arg2: !tt.ptr<f32, 1> {tt.divisibility = 16 : i32} loc(unknown), %arg3: i32 {tt.divisibility = 16 : i32} loc(unknown), %arg4: i32 {tt.divisibility = 16 : i32} loc(unknown), %arg5: i32 {tt.divisibility = 16 : i32} loc(unknown)) attributes {noinline = false} {
    %c4096_i32 = arith.constant 4096 : i32 loc(#loc)
    %cst = arith.constant dense<0.000000e+00> : tensor<256x256xf32> loc(#loc)
    %c32_i32 = arith.constant 32 : i32 loc(#loc)
    %c0_i32 = arith.constant 0 : i32 loc(#loc)
    %c1_i64 = arith.constant 1 : i64 loc(#loc)
    %c4096_i64 = arith.constant 4096 : i64 loc(#loc)
    %c256_i32 = arith.constant 256 : i32 loc(#loc)
    %c4_i32 = arith.constant 4 : i32 loc(#loc)
    %0 = tt.get_program_id x : i32 loc(#loc)
    %c16_i32 = arith.constant 16 : i32 loc(#loc)
    %c16_i32_0 = arith.constant 16 : i32 loc(#loc)
    %1 = arith.muli %c16_i32_0, %c4_i32 : i32 loc(#loc)
    %2 = arith.divsi %0, %1 : i32 loc(#loc)
    %3 = arith.muli %2, %c4_i32 : i32 loc(#loc)
    %4 = arith.subi %c16_i32, %3 : i32 loc(#loc)
    %c4_i32_1 = arith.constant 4 : i32 loc(#loc)
    %5 = arith.minsi %4, %c4_i32_1 : i32 loc(#loc)
    %6 = arith.remsi %0, %5 : i32 loc(#loc)
    %7 = arith.addi %3, %6 : i32 loc(#loc)
    %8 = arith.remsi %0, %1 : i32 loc(#loc)
    %9 = arith.divsi %8, %5 : i32 loc(#loc)
    %10 = arith.muli %7, %c256_i32 : i32 loc(#loc)
    %11 = tt.make_tensor_ptr %arg0, [%c4096_i64, %c4096_i64], [%c4096_i64, %c1_i64], [%10, %c0_i32] {order = array<i32: 1, 0>} : <tensor<256x32xf16>, 1> loc(#loc)
    %12 = arith.muli %9, %c256_i32 : i32 loc(#loc)
    %13 = tt.make_tensor_ptr %arg1, [%c4096_i64, %c4096_i64], [%c4096_i64, %c1_i64], [%c0_i32, %12] {order = array<i32: 1, 0>} : <tensor<32x256xf16>, 1> loc(#loc)
    %cst_2 = arith.constant dense<0.000000e+00> : tensor<256x256xf32> loc(#loc)
    %14:3 = scf.for %arg6 = %c0_i32 to %c4096_i32 step %c32_i32 iter_args(%arg7 = %cst_2, %arg8 = %11, %arg9 = %13) -> (tensor<256x256xf32>, !tt.ptr<tensor<256x32xf16>, 1>, !tt.ptr<tensor<32x256xf16>, 1>)  : i32 {
      %18 = tt.load %arg8 {boundaryCheck = array<i32: 0, 1>, cache = 1 : i32, evict = 1 : i32, isVolatile = false} : !tt.ptr<tensor<256x32xf16>, 1> -> tensor<256x32xf16> loc(#loc)
      %19 = tt.load %arg9 {boundaryCheck = array<i32: 0, 1>, cache = 1 : i32, evict = 1 : i32, isVolatile = false} : !tt.ptr<tensor<32x256xf16>, 1> -> tensor<32x256xf16> loc(#loc)
      %20 = tt.dot %18, %19, %cst {allowTF32 = true, maxNumImpreciseAcc = 0 : i32} : tensor<256x32xf16> * tensor<32x256xf16> -> tensor<256x256xf32> loc(#loc)
      %21 = arith.addf %arg7, %20 : tensor<256x256xf32> loc(#loc)
      %22 = tt.advance %arg8, [%c0_i32, %c32_i32] : <tensor<256x32xf16>, 1> loc(#loc)
      %23 = tt.advance %arg9, [%c32_i32, %c0_i32] : <tensor<32x256xf16>, 1> loc(#loc)
      scf.yield %21, %22, %23 : tensor<256x256xf32>, !tt.ptr<tensor<256x32xf16>, 1>, !tt.ptr<tensor<32x256xf16>, 1> loc(#loc)
    } loc(#loc)
    %15 = arith.muli %7, %c256_i32 : i32 loc(#loc)
    %16 = arith.muli %9, %c256_i32 : i32 loc(#loc)
    %17 = tt.make_tensor_ptr %arg2, [%c4096_i64, %c4096_i64], [%c4096_i64, %c1_i64], [%15, %16] {order = array<i32: 1, 0>} : <tensor<256x256xf32>, 1> loc(#loc)
    tt.store %17, %14#0 {boundaryCheck = array<i32: 0, 1>, cache = 1 : i32, evict = 1 : i32} : !tt.ptr<tensor<256x256xf32>, 1>, tensor<256x256xf32> loc(#loc)
    tt.return loc(#loc)
  } loc(#loc)
  tt.func private @cdiv____0cconstexpr_4096__1cconstexpr_256_() -> i32 attributes {noinline = false} loc(#loc)
  tt.func private @minimum__i32__1cconstexpr_4__2cconstexpr_PROPAGATE_NAN_d_NONE_(i32) -> i32 attributes {noinline = false} loc(#loc)
  tt.func private @"zeros____0cconstexpr_(constexpr_256_, constexpr_256_)__1cconstexpr_fp32_"() -> tensor<256x256xf32> attributes {noinline = false} loc(#loc)
} loc(#loc)


// -----// IR Dump Before TritonCombineOps (triton-combine) ('builtin.module' operation) //----- //
#loc = loc(unknown)
module {
  tt.func public @matmul_kernel_with_block_pointers_0d1d2d3d4d5d(%arg0: !tt.ptr<f16, 1> {tt.divisibility = 16 : i32} loc(unknown), %arg1: !tt.ptr<f16, 1> {tt.divisibility = 16 : i32} loc(unknown), %arg2: !tt.ptr<f32, 1> {tt.divisibility = 16 : i32} loc(unknown), %arg3: i32 {tt.divisibility = 16 : i32} loc(unknown), %arg4: i32 {tt.divisibility = 16 : i32} loc(unknown), %arg5: i32 {tt.divisibility = 16 : i32} loc(unknown)) attributes {noinline = false} {
    %c64_i32 = arith.constant 64 : i32 loc(#loc)
    %c16_i32 = arith.constant 16 : i32 loc(#loc)
    %c4096_i32 = arith.constant 4096 : i32 loc(#loc)
    %cst = arith.constant dense<0.000000e+00> : tensor<256x256xf32> loc(#loc)
    %c32_i32 = arith.constant 32 : i32 loc(#loc)
    %c0_i32 = arith.constant 0 : i32 loc(#loc)
    %c1_i64 = arith.constant 1 : i64 loc(#loc)
    %c4096_i64 = arith.constant 4096 : i64 loc(#loc)
    %c256_i32 = arith.constant 256 : i32 loc(#loc)
    %c4_i32 = arith.constant 4 : i32 loc(#loc)
    %0 = tt.get_program_id x : i32 loc(#loc)
    %1 = arith.divsi %0, %c64_i32 : i32 loc(#loc)
    %2 = arith.muli %1, %c4_i32 : i32 loc(#loc)
    %3 = arith.subi %c16_i32, %2 : i32 loc(#loc)
    %4 = arith.minsi %3, %c4_i32 : i32 loc(#loc)
    %5 = arith.remsi %0, %4 : i32 loc(#loc)
    %6 = arith.addi %2, %5 : i32 loc(#loc)
    %7 = arith.remsi %0, %c64_i32 : i32 loc(#loc)
    %8 = arith.divsi %7, %4 : i32 loc(#loc)
    %9 = arith.muli %6, %c256_i32 : i32 loc(#loc)
    %10 = tt.make_tensor_ptr %arg0, [%c4096_i64, %c4096_i64], [%c4096_i64, %c1_i64], [%9, %c0_i32] {order = array<i32: 1, 0>} : <tensor<256x32xf16>, 1> loc(#loc)
    %11 = arith.muli %8, %c256_i32 : i32 loc(#loc)
    %12 = tt.make_tensor_ptr %arg1, [%c4096_i64, %c4096_i64], [%c4096_i64, %c1_i64], [%c0_i32, %11] {order = array<i32: 1, 0>} : <tensor<32x256xf16>, 1> loc(#loc)
    %13:3 = scf.for %arg6 = %c0_i32 to %c4096_i32 step %c32_i32 iter_args(%arg7 = %cst, %arg8 = %10, %arg9 = %12) -> (tensor<256x256xf32>, !tt.ptr<tensor<256x32xf16>, 1>, !tt.ptr<tensor<32x256xf16>, 1>)  : i32 {
      %17 = tt.load %arg8 {boundaryCheck = array<i32: 0, 1>, cache = 1 : i32, evict = 1 : i32, isVolatile = false} : !tt.ptr<tensor<256x32xf16>, 1> -> tensor<256x32xf16> loc(#loc)
      %18 = tt.load %arg9 {boundaryCheck = array<i32: 0, 1>, cache = 1 : i32, evict = 1 : i32, isVolatile = false} : !tt.ptr<tensor<32x256xf16>, 1> -> tensor<32x256xf16> loc(#loc)
      %19 = tt.dot %17, %18, %cst {allowTF32 = true, maxNumImpreciseAcc = 0 : i32} : tensor<256x32xf16> * tensor<32x256xf16> -> tensor<256x256xf32> loc(#loc)
      %20 = arith.addf %arg7, %19 : tensor<256x256xf32> loc(#loc)
      %21 = tt.advance %arg8, [%c0_i32, %c32_i32] : <tensor<256x32xf16>, 1> loc(#loc)
      %22 = tt.advance %arg9, [%c32_i32, %c0_i32] : <tensor<32x256xf16>, 1> loc(#loc)
      scf.yield %20, %21, %22 : tensor<256x256xf32>, !tt.ptr<tensor<256x32xf16>, 1>, !tt.ptr<tensor<32x256xf16>, 1> loc(#loc)
    } loc(#loc)
    %14 = arith.muli %6, %c256_i32 : i32 loc(#loc)
    %15 = arith.muli %8, %c256_i32 : i32 loc(#loc)
    %16 = tt.make_tensor_ptr %arg2, [%c4096_i64, %c4096_i64], [%c4096_i64, %c1_i64], [%14, %15] {order = array<i32: 1, 0>} : <tensor<256x256xf32>, 1> loc(#loc)
    tt.store %16, %13#0 {boundaryCheck = array<i32: 0, 1>, cache = 1 : i32, evict = 1 : i32} : !tt.ptr<tensor<256x256xf32>, 1>, tensor<256x256xf32> loc(#loc)
    tt.return loc(#loc)
  } loc(#loc)
} loc(#loc)


// -----// IR Dump Before Canonicalizer (canonicalize) ('builtin.module' operation) //----- //
#loc = loc(unknown)
module {
  tt.func public @matmul_kernel_with_block_pointers_0d1d2d3d4d5d(%arg0: !tt.ptr<f16, 1> {tt.divisibility = 16 : i32} loc(unknown), %arg1: !tt.ptr<f16, 1> {tt.divisibility = 16 : i32} loc(unknown), %arg2: !tt.ptr<f32, 1> {tt.divisibility = 16 : i32} loc(unknown), %arg3: i32 {tt.divisibility = 16 : i32} loc(unknown), %arg4: i32 {tt.divisibility = 16 : i32} loc(unknown), %arg5: i32 {tt.divisibility = 16 : i32} loc(unknown)) attributes {noinline = false} {
    %c64_i32 = arith.constant 64 : i32 loc(#loc)
    %c16_i32 = arith.constant 16 : i32 loc(#loc)
    %c4096_i32 = arith.constant 4096 : i32 loc(#loc)
    %cst = arith.constant dense<0.000000e+00> : tensor<256x256xf32> loc(#loc)
    %c32_i32 = arith.constant 32 : i32 loc(#loc)
    %c0_i32 = arith.constant 0 : i32 loc(#loc)
    %c1_i64 = arith.constant 1 : i64 loc(#loc)
    %c4096_i64 = arith.constant 4096 : i64 loc(#loc)
    %c256_i32 = arith.constant 256 : i32 loc(#loc)
    %c4_i32 = arith.constant 4 : i32 loc(#loc)
    %0 = tt.get_program_id x : i32 loc(#loc)
    %1 = arith.divsi %0, %c64_i32 : i32 loc(#loc)
    %2 = arith.muli %1, %c4_i32 : i32 loc(#loc)
    %3 = arith.subi %c16_i32, %2 : i32 loc(#loc)
    %4 = arith.minsi %3, %c4_i32 : i32 loc(#loc)
    %5 = arith.remsi %0, %4 : i32 loc(#loc)
    %6 = arith.addi %2, %5 : i32 loc(#loc)
    %7 = arith.remsi %0, %c64_i32 : i32 loc(#loc)
    %8 = arith.divsi %7, %4 : i32 loc(#loc)
    %9 = arith.muli %6, %c256_i32 : i32 loc(#loc)
    %10 = tt.make_tensor_ptr %arg0, [%c4096_i64, %c4096_i64], [%c4096_i64, %c1_i64], [%9, %c0_i32] {order = array<i32: 1, 0>} : <tensor<256x32xf16>, 1> loc(#loc)
    %11 = arith.muli %8, %c256_i32 : i32 loc(#loc)
    %12 = tt.make_tensor_ptr %arg1, [%c4096_i64, %c4096_i64], [%c4096_i64, %c1_i64], [%c0_i32, %11] {order = array<i32: 1, 0>} : <tensor<32x256xf16>, 1> loc(#loc)
    %13:3 = scf.for %arg6 = %c0_i32 to %c4096_i32 step %c32_i32 iter_args(%arg7 = %cst, %arg8 = %10, %arg9 = %12) -> (tensor<256x256xf32>, !tt.ptr<tensor<256x32xf16>, 1>, !tt.ptr<tensor<32x256xf16>, 1>)  : i32 {
      %17 = tt.load %arg8 {boundaryCheck = array<i32: 0, 1>, cache = 1 : i32, evict = 1 : i32, isVolatile = false} : !tt.ptr<tensor<256x32xf16>, 1> -> tensor<256x32xf16> loc(#loc)
      %18 = tt.load %arg9 {boundaryCheck = array<i32: 0, 1>, cache = 1 : i32, evict = 1 : i32, isVolatile = false} : !tt.ptr<tensor<32x256xf16>, 1> -> tensor<32x256xf16> loc(#loc)
      %19 = tt.dot %17, %18, %arg7 {allowTF32 = true, maxNumImpreciseAcc = 0 : i32} : tensor<256x32xf16> * tensor<32x256xf16> -> tensor<256x256xf32> loc(#loc)
      %20 = tt.advance %arg8, [%c0_i32, %c32_i32] : <tensor<256x32xf16>, 1> loc(#loc)
      %21 = tt.advance %arg9, [%c32_i32, %c0_i32] : <tensor<32x256xf16>, 1> loc(#loc)
      scf.yield %19, %20, %21 : tensor<256x256xf32>, !tt.ptr<tensor<256x32xf16>, 1>, !tt.ptr<tensor<32x256xf16>, 1> loc(#loc)
    } loc(#loc)
    %14 = arith.muli %6, %c256_i32 : i32 loc(#loc)
    %15 = arith.muli %8, %c256_i32 : i32 loc(#loc)
    %16 = tt.make_tensor_ptr %arg2, [%c4096_i64, %c4096_i64], [%c4096_i64, %c1_i64], [%14, %15] {order = array<i32: 1, 0>} : <tensor<256x256xf32>, 1> loc(#loc)
    tt.store %16, %13#0 {boundaryCheck = array<i32: 0, 1>, cache = 1 : i32, evict = 1 : i32} : !tt.ptr<tensor<256x256xf32>, 1>, tensor<256x256xf32> loc(#loc)
    tt.return loc(#loc)
  } loc(#loc)
} loc(#loc)


// -----// IR Dump Before TritonReorderBroadcast (triton-reorder-broadcast) ('builtin.module' operation) //----- //
#loc = loc(unknown)
module {
  tt.func public @matmul_kernel_with_block_pointers_0d1d2d3d4d5d(%arg0: !tt.ptr<f16, 1> {tt.divisibility = 16 : i32} loc(unknown), %arg1: !tt.ptr<f16, 1> {tt.divisibility = 16 : i32} loc(unknown), %arg2: !tt.ptr<f32, 1> {tt.divisibility = 16 : i32} loc(unknown), %arg3: i32 {tt.divisibility = 16 : i32} loc(unknown), %arg4: i32 {tt.divisibility = 16 : i32} loc(unknown), %arg5: i32 {tt.divisibility = 16 : i32} loc(unknown)) attributes {noinline = false} {
    %c64_i32 = arith.constant 64 : i32 loc(#loc)
    %c16_i32 = arith.constant 16 : i32 loc(#loc)
    %c4096_i32 = arith.constant 4096 : i32 loc(#loc)
    %cst = arith.constant dense<0.000000e+00> : tensor<256x256xf32> loc(#loc)
    %c32_i32 = arith.constant 32 : i32 loc(#loc)
    %c0_i32 = arith.constant 0 : i32 loc(#loc)
    %c1_i64 = arith.constant 1 : i64 loc(#loc)
    %c4096_i64 = arith.constant 4096 : i64 loc(#loc)
    %c256_i32 = arith.constant 256 : i32 loc(#loc)
    %c4_i32 = arith.constant 4 : i32 loc(#loc)
    %0 = tt.get_program_id x : i32 loc(#loc)
    %1 = arith.divsi %0, %c64_i32 : i32 loc(#loc)
    %2 = arith.muli %1, %c4_i32 : i32 loc(#loc)
    %3 = arith.subi %c16_i32, %2 : i32 loc(#loc)
    %4 = arith.minsi %3, %c4_i32 : i32 loc(#loc)
    %5 = arith.remsi %0, %4 : i32 loc(#loc)
    %6 = arith.addi %2, %5 : i32 loc(#loc)
    %7 = arith.remsi %0, %c64_i32 : i32 loc(#loc)
    %8 = arith.divsi %7, %4 : i32 loc(#loc)
    %9 = arith.muli %6, %c256_i32 : i32 loc(#loc)
    %10 = tt.make_tensor_ptr %arg0, [%c4096_i64, %c4096_i64], [%c4096_i64, %c1_i64], [%9, %c0_i32] {order = array<i32: 1, 0>} : <tensor<256x32xf16>, 1> loc(#loc)
    %11 = arith.muli %8, %c256_i32 : i32 loc(#loc)
    %12 = tt.make_tensor_ptr %arg1, [%c4096_i64, %c4096_i64], [%c4096_i64, %c1_i64], [%c0_i32, %11] {order = array<i32: 1, 0>} : <tensor<32x256xf16>, 1> loc(#loc)
    %13:3 = scf.for %arg6 = %c0_i32 to %c4096_i32 step %c32_i32 iter_args(%arg7 = %cst, %arg8 = %10, %arg9 = %12) -> (tensor<256x256xf32>, !tt.ptr<tensor<256x32xf16>, 1>, !tt.ptr<tensor<32x256xf16>, 1>)  : i32 {
      %17 = tt.load %arg8 {boundaryCheck = array<i32: 0, 1>, cache = 1 : i32, evict = 1 : i32, isVolatile = false} : !tt.ptr<tensor<256x32xf16>, 1> -> tensor<256x32xf16> loc(#loc)
      %18 = tt.load %arg9 {boundaryCheck = array<i32: 0, 1>, cache = 1 : i32, evict = 1 : i32, isVolatile = false} : !tt.ptr<tensor<32x256xf16>, 1> -> tensor<32x256xf16> loc(#loc)
      %19 = tt.dot %17, %18, %arg7 {allowTF32 = true, maxNumImpreciseAcc = 0 : i32} : tensor<256x32xf16> * tensor<32x256xf16> -> tensor<256x256xf32> loc(#loc)
      %20 = tt.advance %arg8, [%c0_i32, %c32_i32] : <tensor<256x32xf16>, 1> loc(#loc)
      %21 = tt.advance %arg9, [%c32_i32, %c0_i32] : <tensor<32x256xf16>, 1> loc(#loc)
      scf.yield %19, %20, %21 : tensor<256x256xf32>, !tt.ptr<tensor<256x32xf16>, 1>, !tt.ptr<tensor<32x256xf16>, 1> loc(#loc)
    } loc(#loc)
    %14 = arith.muli %6, %c256_i32 : i32 loc(#loc)
    %15 = arith.muli %8, %c256_i32 : i32 loc(#loc)
    %16 = tt.make_tensor_ptr %arg2, [%c4096_i64, %c4096_i64], [%c4096_i64, %c1_i64], [%14, %15] {order = array<i32: 1, 0>} : <tensor<256x256xf32>, 1> loc(#loc)
    tt.store %16, %13#0 {boundaryCheck = array<i32: 0, 1>, cache = 1 : i32, evict = 1 : i32} : !tt.ptr<tensor<256x256xf32>, 1>, tensor<256x256xf32> loc(#loc)
    tt.return loc(#loc)
  } loc(#loc)
} loc(#loc)


// -----// IR Dump Before CSE (cse) ('builtin.module' operation) //----- //
#loc = loc(unknown)
module {
  tt.func public @matmul_kernel_with_block_pointers_0d1d2d3d4d5d(%arg0: !tt.ptr<f16, 1> {tt.divisibility = 16 : i32} loc(unknown), %arg1: !tt.ptr<f16, 1> {tt.divisibility = 16 : i32} loc(unknown), %arg2: !tt.ptr<f32, 1> {tt.divisibility = 16 : i32} loc(unknown), %arg3: i32 {tt.divisibility = 16 : i32} loc(unknown), %arg4: i32 {tt.divisibility = 16 : i32} loc(unknown), %arg5: i32 {tt.divisibility = 16 : i32} loc(unknown)) attributes {noinline = false} {
    %c64_i32 = arith.constant 64 : i32 loc(#loc)
    %c16_i32 = arith.constant 16 : i32 loc(#loc)
    %c4096_i32 = arith.constant 4096 : i32 loc(#loc)
    %cst = arith.constant dense<0.000000e+00> : tensor<256x256xf32> loc(#loc)
    %c32_i32 = arith.constant 32 : i32 loc(#loc)
    %c0_i32 = arith.constant 0 : i32 loc(#loc)
    %c1_i64 = arith.constant 1 : i64 loc(#loc)
    %c4096_i64 = arith.constant 4096 : i64 loc(#loc)
    %c256_i32 = arith.constant 256 : i32 loc(#loc)
    %c4_i32 = arith.constant 4 : i32 loc(#loc)
    %0 = tt.get_program_id x : i32 loc(#loc)
    %1 = arith.divsi %0, %c64_i32 : i32 loc(#loc)
    %2 = arith.muli %1, %c4_i32 : i32 loc(#loc)
    %3 = arith.subi %c16_i32, %2 : i32 loc(#loc)
    %4 = arith.minsi %3, %c4_i32 : i32 loc(#loc)
    %5 = arith.remsi %0, %4 : i32 loc(#loc)
    %6 = arith.addi %2, %5 : i32 loc(#loc)
    %7 = arith.remsi %0, %c64_i32 : i32 loc(#loc)
    %8 = arith.divsi %7, %4 : i32 loc(#loc)
    %9 = arith.muli %6, %c256_i32 : i32 loc(#loc)
    %10 = tt.make_tensor_ptr %arg0, [%c4096_i64, %c4096_i64], [%c4096_i64, %c1_i64], [%9, %c0_i32] {order = array<i32: 1, 0>} : <tensor<256x32xf16>, 1> loc(#loc)
    %11 = arith.muli %8, %c256_i32 : i32 loc(#loc)
    %12 = tt.make_tensor_ptr %arg1, [%c4096_i64, %c4096_i64], [%c4096_i64, %c1_i64], [%c0_i32, %11] {order = array<i32: 1, 0>} : <tensor<32x256xf16>, 1> loc(#loc)
    %13:3 = scf.for %arg6 = %c0_i32 to %c4096_i32 step %c32_i32 iter_args(%arg7 = %cst, %arg8 = %10, %arg9 = %12) -> (tensor<256x256xf32>, !tt.ptr<tensor<256x32xf16>, 1>, !tt.ptr<tensor<32x256xf16>, 1>)  : i32 {
      %17 = tt.load %arg8 {boundaryCheck = array<i32: 0, 1>, cache = 1 : i32, evict = 1 : i32, isVolatile = false} : !tt.ptr<tensor<256x32xf16>, 1> -> tensor<256x32xf16> loc(#loc)
      %18 = tt.load %arg9 {boundaryCheck = array<i32: 0, 1>, cache = 1 : i32, evict = 1 : i32, isVolatile = false} : !tt.ptr<tensor<32x256xf16>, 1> -> tensor<32x256xf16> loc(#loc)
      %19 = tt.dot %17, %18, %arg7 {allowTF32 = true, maxNumImpreciseAcc = 0 : i32} : tensor<256x32xf16> * tensor<32x256xf16> -> tensor<256x256xf32> loc(#loc)
      %20 = tt.advance %arg8, [%c0_i32, %c32_i32] : <tensor<256x32xf16>, 1> loc(#loc)
      %21 = tt.advance %arg9, [%c32_i32, %c0_i32] : <tensor<32x256xf16>, 1> loc(#loc)
      scf.yield %19, %20, %21 : tensor<256x256xf32>, !tt.ptr<tensor<256x32xf16>, 1>, !tt.ptr<tensor<32x256xf16>, 1> loc(#loc)
    } loc(#loc)
    %14 = arith.muli %6, %c256_i32 : i32 loc(#loc)
    %15 = arith.muli %8, %c256_i32 : i32 loc(#loc)
    %16 = tt.make_tensor_ptr %arg2, [%c4096_i64, %c4096_i64], [%c4096_i64, %c1_i64], [%14, %15] {order = array<i32: 1, 0>} : <tensor<256x256xf32>, 1> loc(#loc)
    tt.store %16, %13#0 {boundaryCheck = array<i32: 0, 1>, cache = 1 : i32, evict = 1 : i32} : !tt.ptr<tensor<256x256xf32>, 1>, tensor<256x256xf32> loc(#loc)
    tt.return loc(#loc)
  } loc(#loc)
} loc(#loc)


// -----// IR Dump Before LoopInvariantCodeMotion (loop-invariant-code-motion) ('builtin.module' operation) //----- //
#loc = loc(unknown)
module {
  tt.func public @matmul_kernel_with_block_pointers_0d1d2d3d4d5d(%arg0: !tt.ptr<f16, 1> {tt.divisibility = 16 : i32} loc(unknown), %arg1: !tt.ptr<f16, 1> {tt.divisibility = 16 : i32} loc(unknown), %arg2: !tt.ptr<f32, 1> {tt.divisibility = 16 : i32} loc(unknown), %arg3: i32 {tt.divisibility = 16 : i32} loc(unknown), %arg4: i32 {tt.divisibility = 16 : i32} loc(unknown), %arg5: i32 {tt.divisibility = 16 : i32} loc(unknown)) attributes {noinline = false} {
    %c64_i32 = arith.constant 64 : i32 loc(#loc)
    %c16_i32 = arith.constant 16 : i32 loc(#loc)
    %c4096_i32 = arith.constant 4096 : i32 loc(#loc)
    %cst = arith.constant dense<0.000000e+00> : tensor<256x256xf32> loc(#loc)
    %c32_i32 = arith.constant 32 : i32 loc(#loc)
    %c0_i32 = arith.constant 0 : i32 loc(#loc)
    %c1_i64 = arith.constant 1 : i64 loc(#loc)
    %c4096_i64 = arith.constant 4096 : i64 loc(#loc)
    %c256_i32 = arith.constant 256 : i32 loc(#loc)
    %c4_i32 = arith.constant 4 : i32 loc(#loc)
    %0 = tt.get_program_id x : i32 loc(#loc)
    %1 = arith.divsi %0, %c64_i32 : i32 loc(#loc)
    %2 = arith.muli %1, %c4_i32 : i32 loc(#loc)
    %3 = arith.subi %c16_i32, %2 : i32 loc(#loc)
    %4 = arith.minsi %3, %c4_i32 : i32 loc(#loc)
    %5 = arith.remsi %0, %4 : i32 loc(#loc)
    %6 = arith.addi %2, %5 : i32 loc(#loc)
    %7 = arith.remsi %0, %c64_i32 : i32 loc(#loc)
    %8 = arith.divsi %7, %4 : i32 loc(#loc)
    %9 = arith.muli %6, %c256_i32 : i32 loc(#loc)
    %10 = tt.make_tensor_ptr %arg0, [%c4096_i64, %c4096_i64], [%c4096_i64, %c1_i64], [%9, %c0_i32] {order = array<i32: 1, 0>} : <tensor<256x32xf16>, 1> loc(#loc)
    %11 = arith.muli %8, %c256_i32 : i32 loc(#loc)
    %12 = tt.make_tensor_ptr %arg1, [%c4096_i64, %c4096_i64], [%c4096_i64, %c1_i64], [%c0_i32, %11] {order = array<i32: 1, 0>} : <tensor<32x256xf16>, 1> loc(#loc)
    %13:3 = scf.for %arg6 = %c0_i32 to %c4096_i32 step %c32_i32 iter_args(%arg7 = %cst, %arg8 = %10, %arg9 = %12) -> (tensor<256x256xf32>, !tt.ptr<tensor<256x32xf16>, 1>, !tt.ptr<tensor<32x256xf16>, 1>)  : i32 {
      %15 = tt.load %arg8 {boundaryCheck = array<i32: 0, 1>, cache = 1 : i32, evict = 1 : i32, isVolatile = false} : !tt.ptr<tensor<256x32xf16>, 1> -> tensor<256x32xf16> loc(#loc)
      %16 = tt.load %arg9 {boundaryCheck = array<i32: 0, 1>, cache = 1 : i32, evict = 1 : i32, isVolatile = false} : !tt.ptr<tensor<32x256xf16>, 1> -> tensor<32x256xf16> loc(#loc)
      %17 = tt.dot %15, %16, %arg7 {allowTF32 = true, maxNumImpreciseAcc = 0 : i32} : tensor<256x32xf16> * tensor<32x256xf16> -> tensor<256x256xf32> loc(#loc)
      %18 = tt.advance %arg8, [%c0_i32, %c32_i32] : <tensor<256x32xf16>, 1> loc(#loc)
      %19 = tt.advance %arg9, [%c32_i32, %c0_i32] : <tensor<32x256xf16>, 1> loc(#loc)
      scf.yield %17, %18, %19 : tensor<256x256xf32>, !tt.ptr<tensor<256x32xf16>, 1>, !tt.ptr<tensor<32x256xf16>, 1> loc(#loc)
    } loc(#loc)
    %14 = tt.make_tensor_ptr %arg2, [%c4096_i64, %c4096_i64], [%c4096_i64, %c1_i64], [%9, %11] {order = array<i32: 1, 0>} : <tensor<256x256xf32>, 1> loc(#loc)
    tt.store %14, %13#0 {boundaryCheck = array<i32: 0, 1>, cache = 1 : i32, evict = 1 : i32} : !tt.ptr<tensor<256x256xf32>, 1>, tensor<256x256xf32> loc(#loc)
    tt.return loc(#loc)
  } loc(#loc)
} loc(#loc)


// -----// IR Dump Before SymbolDCE (symbol-dce) ('builtin.module' operation) //----- //
#loc = loc(unknown)
module {
  tt.func public @matmul_kernel_with_block_pointers_0d1d2d3d4d5d(%arg0: !tt.ptr<f16, 1> {tt.divisibility = 16 : i32} loc(unknown), %arg1: !tt.ptr<f16, 1> {tt.divisibility = 16 : i32} loc(unknown), %arg2: !tt.ptr<f32, 1> {tt.divisibility = 16 : i32} loc(unknown), %arg3: i32 {tt.divisibility = 16 : i32} loc(unknown), %arg4: i32 {tt.divisibility = 16 : i32} loc(unknown), %arg5: i32 {tt.divisibility = 16 : i32} loc(unknown)) attributes {noinline = false} {
    %c64_i32 = arith.constant 64 : i32 loc(#loc)
    %c16_i32 = arith.constant 16 : i32 loc(#loc)
    %c4096_i32 = arith.constant 4096 : i32 loc(#loc)
    %cst = arith.constant dense<0.000000e+00> : tensor<256x256xf32> loc(#loc)
    %c32_i32 = arith.constant 32 : i32 loc(#loc)
    %c0_i32 = arith.constant 0 : i32 loc(#loc)
    %c1_i64 = arith.constant 1 : i64 loc(#loc)
    %c4096_i64 = arith.constant 4096 : i64 loc(#loc)
    %c256_i32 = arith.constant 256 : i32 loc(#loc)
    %c4_i32 = arith.constant 4 : i32 loc(#loc)
    %0 = tt.get_program_id x : i32 loc(#loc)
    %1 = arith.divsi %0, %c64_i32 : i32 loc(#loc)
    %2 = arith.muli %1, %c4_i32 : i32 loc(#loc)
    %3 = arith.subi %c16_i32, %2 : i32 loc(#loc)
    %4 = arith.minsi %3, %c4_i32 : i32 loc(#loc)
    %5 = arith.remsi %0, %4 : i32 loc(#loc)
    %6 = arith.addi %2, %5 : i32 loc(#loc)
    %7 = arith.remsi %0, %c64_i32 : i32 loc(#loc)
    %8 = arith.divsi %7, %4 : i32 loc(#loc)
    %9 = arith.muli %6, %c256_i32 : i32 loc(#loc)
    %10 = tt.make_tensor_ptr %arg0, [%c4096_i64, %c4096_i64], [%c4096_i64, %c1_i64], [%9, %c0_i32] {order = array<i32: 1, 0>} : <tensor<256x32xf16>, 1> loc(#loc)
    %11 = arith.muli %8, %c256_i32 : i32 loc(#loc)
    %12 = tt.make_tensor_ptr %arg1, [%c4096_i64, %c4096_i64], [%c4096_i64, %c1_i64], [%c0_i32, %11] {order = array<i32: 1, 0>} : <tensor<32x256xf16>, 1> loc(#loc)
    %13:3 = scf.for %arg6 = %c0_i32 to %c4096_i32 step %c32_i32 iter_args(%arg7 = %cst, %arg8 = %10, %arg9 = %12) -> (tensor<256x256xf32>, !tt.ptr<tensor<256x32xf16>, 1>, !tt.ptr<tensor<32x256xf16>, 1>)  : i32 {
      %15 = tt.load %arg8 {boundaryCheck = array<i32: 0, 1>, cache = 1 : i32, evict = 1 : i32, isVolatile = false} : !tt.ptr<tensor<256x32xf16>, 1> -> tensor<256x32xf16> loc(#loc)
      %16 = tt.load %arg9 {boundaryCheck = array<i32: 0, 1>, cache = 1 : i32, evict = 1 : i32, isVolatile = false} : !tt.ptr<tensor<32x256xf16>, 1> -> tensor<32x256xf16> loc(#loc)
      %17 = tt.dot %15, %16, %arg7 {allowTF32 = true, maxNumImpreciseAcc = 0 : i32} : tensor<256x32xf16> * tensor<32x256xf16> -> tensor<256x256xf32> loc(#loc)
      %18 = tt.advance %arg8, [%c0_i32, %c32_i32] : <tensor<256x32xf16>, 1> loc(#loc)
      %19 = tt.advance %arg9, [%c32_i32, %c0_i32] : <tensor<32x256xf16>, 1> loc(#loc)
      scf.yield %17, %18, %19 : tensor<256x256xf32>, !tt.ptr<tensor<256x32xf16>, 1>, !tt.ptr<tensor<32x256xf16>, 1> loc(#loc)
    } loc(#loc)
    %14 = tt.make_tensor_ptr %arg2, [%c4096_i64, %c4096_i64], [%c4096_i64, %c1_i64], [%9, %11] {order = array<i32: 1, 0>} : <tensor<256x256xf32>, 1> loc(#loc)
    tt.store %14, %13#0 {boundaryCheck = array<i32: 0, 1>, cache = 1 : i32, evict = 1 : i32} : !tt.ptr<tensor<256x256xf32>, 1>, tensor<256x256xf32> loc(#loc)
    tt.return loc(#loc)
  } loc(#loc)
} loc(#loc)


// -----// IR Dump Before ConvertTritonToTritonGPUWarp (convert-triton-to-tritongpu-warp) ('builtin.module' operation) //----- //
#loc = loc(unknown)
module {
  tt.func public @matmul_kernel_with_block_pointers_0d1d2d3d4d5d(%arg0: !tt.ptr<f16, 1> {tt.divisibility = 16 : i32} loc(unknown), %arg1: !tt.ptr<f16, 1> {tt.divisibility = 16 : i32} loc(unknown), %arg2: !tt.ptr<f32, 1> {tt.divisibility = 16 : i32} loc(unknown), %arg3: i32 {tt.divisibility = 16 : i32} loc(unknown), %arg4: i32 {tt.divisibility = 16 : i32} loc(unknown), %arg5: i32 {tt.divisibility = 16 : i32} loc(unknown)) attributes {noinline = false} {
    %c64_i32 = arith.constant 64 : i32 loc(#loc)
    %c16_i32 = arith.constant 16 : i32 loc(#loc)
    %c4096_i32 = arith.constant 4096 : i32 loc(#loc)
    %cst = arith.constant dense<0.000000e+00> : tensor<256x256xf32> loc(#loc)
    %c32_i32 = arith.constant 32 : i32 loc(#loc)
    %c0_i32 = arith.constant 0 : i32 loc(#loc)
    %c1_i64 = arith.constant 1 : i64 loc(#loc)
    %c4096_i64 = arith.constant 4096 : i64 loc(#loc)
    %c256_i32 = arith.constant 256 : i32 loc(#loc)
    %c4_i32 = arith.constant 4 : i32 loc(#loc)
    %0 = tt.get_program_id x : i32 loc(#loc)
    %1 = arith.divsi %0, %c64_i32 : i32 loc(#loc)
    %2 = arith.muli %1, %c4_i32 : i32 loc(#loc)
    %3 = arith.subi %c16_i32, %2 : i32 loc(#loc)
    %4 = arith.minsi %3, %c4_i32 : i32 loc(#loc)
    %5 = arith.remsi %0, %4 : i32 loc(#loc)
    %6 = arith.addi %2, %5 : i32 loc(#loc)
    %7 = arith.remsi %0, %c64_i32 : i32 loc(#loc)
    %8 = arith.divsi %7, %4 : i32 loc(#loc)
    %9 = arith.muli %6, %c256_i32 : i32 loc(#loc)
    %10 = tt.make_tensor_ptr %arg0, [%c4096_i64, %c4096_i64], [%c4096_i64, %c1_i64], [%9, %c0_i32] {order = array<i32: 1, 0>} : <tensor<256x32xf16>, 1> loc(#loc)
    %11 = arith.muli %8, %c256_i32 : i32 loc(#loc)
    %12 = tt.make_tensor_ptr %arg1, [%c4096_i64, %c4096_i64], [%c4096_i64, %c1_i64], [%c0_i32, %11] {order = array<i32: 1, 0>} : <tensor<32x256xf16>, 1> loc(#loc)
    %13:3 = scf.for %arg6 = %c0_i32 to %c4096_i32 step %c32_i32 iter_args(%arg7 = %cst, %arg8 = %10, %arg9 = %12) -> (tensor<256x256xf32>, !tt.ptr<tensor<256x32xf16>, 1>, !tt.ptr<tensor<32x256xf16>, 1>)  : i32 {
      %15 = tt.load %arg8 {boundaryCheck = array<i32: 0, 1>, cache = 1 : i32, evict = 1 : i32, isVolatile = false} : !tt.ptr<tensor<256x32xf16>, 1> -> tensor<256x32xf16> loc(#loc)
      %16 = tt.load %arg9 {boundaryCheck = array<i32: 0, 1>, cache = 1 : i32, evict = 1 : i32, isVolatile = false} : !tt.ptr<tensor<32x256xf16>, 1> -> tensor<32x256xf16> loc(#loc)
      %17 = tt.dot %15, %16, %arg7 {allowTF32 = true, maxNumImpreciseAcc = 0 : i32} : tensor<256x32xf16> * tensor<32x256xf16> -> tensor<256x256xf32> loc(#loc)
      %18 = tt.advance %arg8, [%c0_i32, %c32_i32] : <tensor<256x32xf16>, 1> loc(#loc)
      %19 = tt.advance %arg9, [%c32_i32, %c0_i32] : <tensor<32x256xf16>, 1> loc(#loc)
      scf.yield %17, %18, %19 : tensor<256x256xf32>, !tt.ptr<tensor<256x32xf16>, 1>, !tt.ptr<tensor<32x256xf16>, 1> loc(#loc)
    } loc(#loc)
    %14 = tt.make_tensor_ptr %arg2, [%c4096_i64, %c4096_i64], [%c4096_i64, %c1_i64], [%9, %11] {order = array<i32: 1, 0>} : <tensor<256x256xf32>, 1> loc(#loc)
    tt.store %14, %13#0 {boundaryCheck = array<i32: 0, 1>, cache = 1 : i32, evict = 1 : i32} : !tt.ptr<tensor<256x256xf32>, 1>, tensor<256x256xf32> loc(#loc)
    tt.return loc(#loc)
  } loc(#loc)
} loc(#loc)


%17 = tt.dot %15, %16, %arg7 {allowTF32 = true, maxNumImpreciseAcc = 0 : i32} : tensor<256x32xf16> * tensor<32x256xf16> -> tensor<256x256xf32>
%15 = tt.load %arg8 {boundaryCheck = array<i32: 0, 1>, cache = 1 : i32, evict = 1 : i32, isVolatile = false} : !tt.ptr<tensor<256x32xf16>, 1> -> tensor<256x32xf16>
<block argument> of type '!tt.ptr<tensor<256x32xf16>, 1>' at index: 2
%10 = tt.make_tensor_ptr %arg0, [%c4096_i64, %c4096_i64], [%c4096_i64, %c1_i64], [%9, %c0_i32] {order = array<i32: 1, 0>} : <tensor<256x32xf16>, 1>
%15 = tt.load %arg8 {boundaryCheck = array<i32: 0, 1>, cache = 1 : i32, evict = 1 : i32, isVolatile = false} : !tt.ptr<tensor<256x32xf16>, 1> -> tensor<256x32xf16>
%18 = tt.advance %arg8, [%c0_i32, %c32_i32] : <tensor<256x32xf16>, 1>
%16 = tt.load %arg9 {boundaryCheck = array<i32: 0, 1>, cache = 1 : i32, evict = 1 : i32, isVolatile = false} : !tt.ptr<tensor<32x256xf16>, 1> -> tensor<32x256xf16>
<block argument> of type '!tt.ptr<tensor<32x256xf16>, 1>' at index: 3
%12 = tt.make_tensor_ptr %arg1, [%c4096_i64, %c4096_i64], [%c4096_i64, %c1_i64], [%c0_i32, %11] {order = array<i32: 1, 0>} : <tensor<32x256xf16>, 1>
%16 = tt.load %arg9 {boundaryCheck = array<i32: 0, 1>, cache = 1 : i32, evict = 1 : i32, isVolatile = false} : !tt.ptr<tensor<32x256xf16>, 1> -> tensor<32x256xf16>
%19 = tt.advance %arg9, [%c32_i32, %c0_i32] : <tensor<32x256xf16>, 1>
%cst = arith.constant dense<0.000000e+00> : tensor<256x256xf32>
<block argument> of type 'tensor<256x256xf32>' at index: 1
%17 = tt.dot %15, %16, %arg7 {allowTF32 = true, maxNumImpreciseAcc = 0 : i32} : tensor<256x32xf16> * tensor<32x256xf16> -> tensor<256x256xf32>
// -----// IR Dump Before TritonGPUDistributeToWarps (tritongpu-distribute-to-warps) ('builtin.module' operation) //----- //
#blocked = #triton_gpu.blocked<{sizePerThread = [32, 64], threadsPerWarp = [1, 1], warpsPerCTA = [8, 4], order = [1, 0]}>
#loc = loc(unknown)
module attributes {"triton_gpu.compute-capability" = 90 : i32, "triton_gpu.num-ctas" = 1 : i32, "triton_gpu.num-warps" = 32 : i32, "triton_gpu.threads-per-warp" = 1 : i32} {
  tt.func public @matmul_kernel_with_block_pointers_0d1d2d3d4d5d(%arg0: !tt.ptr<f16, 1> {tt.divisibility = 16 : i32} loc(unknown), %arg1: !tt.ptr<f16, 1> {tt.divisibility = 16 : i32} loc(unknown), %arg2: !tt.ptr<f32, 1> {tt.divisibility = 16 : i32} loc(unknown), %arg3: i32 {tt.divisibility = 16 : i32} loc(unknown), %arg4: i32 {tt.divisibility = 16 : i32} loc(unknown), %arg5: i32 {tt.divisibility = 16 : i32} loc(unknown)) attributes {noinline = false} {
    %c64_i32 = arith.constant 64 : i32 loc(#loc)
    %c16_i32 = arith.constant 16 : i32 loc(#loc)
    %c4096_i32 = arith.constant 4096 : i32 loc(#loc)
    %cst = arith.constant dense<0.000000e+00> : tensor<256x256xf32, #blocked> loc(#loc)
    %c32_i32 = arith.constant 32 : i32 loc(#loc)
    %c0_i32 = arith.constant 0 : i32 loc(#loc)
    %c1_i64 = arith.constant 1 : i64 loc(#loc)
    %c4096_i64 = arith.constant 4096 : i64 loc(#loc)
    %c256_i32 = arith.constant 256 : i32 loc(#loc)
    %c4_i32 = arith.constant 4 : i32 loc(#loc)
    %0 = tt.get_program_id x : i32 loc(#loc)
    %1 = arith.divsi %0, %c64_i32 : i32 loc(#loc)
    %2 = arith.muli %1, %c4_i32 : i32 loc(#loc)
    %3 = arith.subi %c16_i32, %2 : i32 loc(#loc)
    %4 = arith.minsi %3, %c4_i32 : i32 loc(#loc)
    %5 = arith.remsi %0, %4 : i32 loc(#loc)
    %6 = arith.addi %2, %5 : i32 loc(#loc)
    %7 = arith.remsi %0, %c64_i32 : i32 loc(#loc)
    %8 = arith.divsi %7, %4 : i32 loc(#loc)
    %9 = arith.muli %6, %c256_i32 : i32 loc(#loc)
    %10 = tt.make_tensor_ptr %arg0, [%c4096_i64, %c4096_i64], [%c4096_i64, %c1_i64], [%9, %c0_i32] {order = array<i32: 1, 0>} : <tensor<256x32xf16, #triton_gpu.dot_op<{opIdx = 0, parent = #blocked}>>, 1> loc(#loc)
    %11 = arith.muli %8, %c256_i32 : i32 loc(#loc)
    %12 = tt.make_tensor_ptr %arg1, [%c4096_i64, %c4096_i64], [%c4096_i64, %c1_i64], [%c0_i32, %11] {order = array<i32: 1, 0>} : <tensor<32x256xf16, #triton_gpu.dot_op<{opIdx = 1, parent = #blocked}>>, 1> loc(#loc)
    %13:3 = scf.for %arg6 = %c0_i32 to %c4096_i32 step %c32_i32 iter_args(%arg7 = %cst, %arg8 = %10, %arg9 = %12) -> (tensor<256x256xf32, #blocked>, !tt.ptr<tensor<256x32xf16, #triton_gpu.dot_op<{opIdx = 0, parent = #blocked}>>, 1>, !tt.ptr<tensor<32x256xf16, #triton_gpu.dot_op<{opIdx = 1, parent = #blocked}>>, 1>)  : i32 {
      %15 = tt.load %arg8 {boundaryCheck = array<i32: 0, 1>, cache = 1 : i32, evict = 1 : i32, isVolatile = false} : !tt.ptr<tensor<256x32xf16, #triton_gpu.dot_op<{opIdx = 0, parent = #blocked}>>, 1> -> tensor<256x32xf16, #triton_gpu.dot_op<{opIdx = 0, parent = #blocked}>> loc(#loc)
      %16 = tt.load %arg9 {boundaryCheck = array<i32: 0, 1>, cache = 1 : i32, evict = 1 : i32, isVolatile = false} : !tt.ptr<tensor<32x256xf16, #triton_gpu.dot_op<{opIdx = 1, parent = #blocked}>>, 1> -> tensor<32x256xf16, #triton_gpu.dot_op<{opIdx = 1, parent = #blocked}>> loc(#loc)
      %17 = tt.dot %15, %16, %arg7 {allowTF32 = true, maxNumImpreciseAcc = 0 : i32} : tensor<256x32xf16, #triton_gpu.dot_op<{opIdx = 0, parent = #blocked}>> * tensor<32x256xf16, #triton_gpu.dot_op<{opIdx = 1, parent = #blocked}>> -> tensor<256x256xf32, #blocked> loc(#loc)
      %18 = tt.advance %arg8, [%c0_i32, %c32_i32] : <tensor<256x32xf16, #triton_gpu.dot_op<{opIdx = 0, parent = #blocked}>>, 1> loc(#loc)
      %19 = tt.advance %arg9, [%c32_i32, %c0_i32] : <tensor<32x256xf16, #triton_gpu.dot_op<{opIdx = 1, parent = #blocked}>>, 1> loc(#loc)
      scf.yield %17, %18, %19 : tensor<256x256xf32, #blocked>, !tt.ptr<tensor<256x32xf16, #triton_gpu.dot_op<{opIdx = 0, parent = #blocked}>>, 1>, !tt.ptr<tensor<32x256xf16, #triton_gpu.dot_op<{opIdx = 1, parent = #blocked}>>, 1> loc(#loc)
    } {triton_gpu.workload = 3 : i32} loc(#loc)
    %14 = tt.make_tensor_ptr %arg2, [%c4096_i64, %c4096_i64], [%c4096_i64, %c1_i64], [%9, %11] {order = array<i32: 1, 0>} : <tensor<256x256xf32, #blocked>, 1> loc(#loc)
    tt.store %14, %13#0 {boundaryCheck = array<i32: 0, 1>, cache = 1 : i32, evict = 1 : i32} : !tt.ptr<tensor<256x256xf32, #blocked>, 1>, tensor<256x256xf32, #blocked> loc(#loc)
    tt.return loc(#loc)
  } loc(#loc)
} loc(#loc)


// -----// IR Dump Before TritonGPUMatchTargetSize (tritongpu-match-target-size) ('builtin.module' operation) //----- //
#loc = loc(unknown)
#warp = #triton_gpu.warp<{sizePerThread = [32, 64], threadsPerWarp = [1, 1], order = [1, 0]}>
module attributes {"triton_gpu.compute-capability" = 90 : i32, "triton_gpu.num-ctas" = 1 : i32, "triton_gpu.num-warps" = 32 : i32, "triton_gpu.threads-per-warp" = 1 : i32} {
  tt.func public @matmul_kernel_with_block_pointers_0d1d2d3d4d5d(%arg0: !tt.ptr<f16, 1> {tt.divisibility = 16 : i32} loc(unknown), %arg1: !tt.ptr<f16, 1> {tt.divisibility = 16 : i32} loc(unknown), %arg2: !tt.ptr<f32, 1> {tt.divisibility = 16 : i32} loc(unknown), %arg3: i32 {tt.divisibility = 16 : i32} loc(unknown), %arg4: i32 {tt.divisibility = 16 : i32} loc(unknown), %arg5: i32 {tt.divisibility = 16 : i32} loc(unknown)) attributes {noinline = false} {
    %0 = gpu.subgroup_id : index loc(#loc)
    %1 = arith.index_cast %0 : index to i32 loc(#loc)
    %c64_i32 = arith.constant 64 : i32 loc(#loc)
    %c16_i32 = arith.constant 16 : i32 loc(#loc)
    %c4096_i32 = arith.constant 4096 : i32 loc(#loc)
    %cst = arith.constant dense<0.000000e+00> : tensor<32x64xf32, #warp> loc(#loc)
    %c32_i32 = arith.constant 32 : i32 loc(#loc)
    %c0_i32 = arith.constant 0 : i32 loc(#loc)
    %c1_i64 = arith.constant 1 : i64 loc(#loc)
    %c4096_i64 = arith.constant 4096 : i64 loc(#loc)
    %c256_i32 = arith.constant 256 : i32 loc(#loc)
    %c4_i32 = arith.constant 4 : i32 loc(#loc)
    %2 = tt.get_program_id x : i32 loc(#loc)
    %3 = arith.divsi %2, %c64_i32 : i32 loc(#loc)
    %4 = arith.muli %3, %c4_i32 : i32 loc(#loc)
    %5 = arith.subi %c16_i32, %4 : i32 loc(#loc)
    %6 = arith.minsi %5, %c4_i32 : i32 loc(#loc)
    %7 = arith.remsi %2, %6 : i32 loc(#loc)
    %8 = arith.addi %4, %7 : i32 loc(#loc)
    %9 = arith.remsi %2, %c64_i32 : i32 loc(#loc)
    %10 = arith.divsi %9, %6 : i32 loc(#loc)
    %11 = arith.muli %8, %c256_i32 : i32 loc(#loc)
    %c4_i32_0 = arith.constant 4 : i32 loc(#loc)
    %12 = arith.divsi %1, %c4_i32_0 : i32 loc(#loc)
    %c8_i32 = arith.constant 8 : i32 loc(#loc)
    %13 = arith.remsi %12, %c8_i32 : i32 loc(#loc)
    %c32_i32_1 = arith.constant 32 : i32 loc(#loc)
    %14 = arith.muli %13, %c32_i32_1 : i32 loc(#loc)
    %15 = arith.addi %14, %11 : i32 loc(#loc)
    %c4_i32_2 = arith.constant 4 : i32 loc(#loc)
    %16 = arith.remsi %1, %c4_i32_2 : i32 loc(#loc)
    %17 = tt.make_tensor_ptr %arg0, [%c4096_i64, %c4096_i64], [%c4096_i64, %c1_i64], [%15, %c0_i32] {order = array<i32: 1, 0>} : <tensor<32x32xf16, #triton_gpu.dot_op<{opIdx = 0, parent = #warp}>>, 1> loc(#loc)
    %18 = arith.muli %10, %c256_i32 : i32 loc(#loc)
    %c4_i32_3 = arith.constant 4 : i32 loc(#loc)
    %19 = arith.divsi %1, %c4_i32_3 : i32 loc(#loc)
    %c4_i32_4 = arith.constant 4 : i32 loc(#loc)
    %20 = arith.remsi %1, %c4_i32_4 : i32 loc(#loc)
    %c4_i32_5 = arith.constant 4 : i32 loc(#loc)
    %21 = arith.remsi %20, %c4_i32_5 : i32 loc(#loc)
    %c64_i32_6 = arith.constant 64 : i32 loc(#loc)
    %22 = arith.muli %21, %c64_i32_6 : i32 loc(#loc)
    %23 = arith.addi %22, %18 : i32 loc(#loc)
    %24 = tt.make_tensor_ptr %arg1, [%c4096_i64, %c4096_i64], [%c4096_i64, %c1_i64], [%c0_i32, %23] {order = array<i32: 1, 0>} : <tensor<32x64xf16, #triton_gpu.dot_op<{opIdx = 1, parent = #warp}>>, 1> loc(#loc)
    %25:3 = scf.for %arg6 = %c0_i32 to %c4096_i32 step %c32_i32 iter_args(%arg7 = %cst, %arg8 = %17, %arg9 = %24) -> (tensor<32x64xf32, #warp>, !tt.ptr<tensor<32x32xf16, #triton_gpu.dot_op<{opIdx = 0, parent = #warp}>>, 1>, !tt.ptr<tensor<32x64xf16, #triton_gpu.dot_op<{opIdx = 1, parent = #warp}>>, 1>)  : i32 {
      %35 = tt.load %arg8 {boundaryCheck = array<i32: 0, 1>, cache = 1 : i32, evict = 1 : i32, isVolatile = false} : !tt.ptr<tensor<32x32xf16, #triton_gpu.dot_op<{opIdx = 0, parent = #warp}>>, 1> -> tensor<32x32xf16, #triton_gpu.dot_op<{opIdx = 0, parent = #warp}>> loc(#loc)
      %36 = tt.load %arg9 {boundaryCheck = array<i32: 0, 1>, cache = 1 : i32, evict = 1 : i32, isVolatile = false} : !tt.ptr<tensor<32x64xf16, #triton_gpu.dot_op<{opIdx = 1, parent = #warp}>>, 1> -> tensor<32x64xf16, #triton_gpu.dot_op<{opIdx = 1, parent = #warp}>> loc(#loc)
      %37 = tt.dot %35, %36, %arg7 {allowTF32 = true, maxNumImpreciseAcc = 0 : i32} : tensor<32x32xf16, #triton_gpu.dot_op<{opIdx = 0, parent = #warp}>> * tensor<32x64xf16, #triton_gpu.dot_op<{opIdx = 1, parent = #warp}>> -> tensor<32x64xf32, #warp> loc(#loc)
      %38 = tt.advance %arg8, [%c0_i32, %c32_i32] : <tensor<32x32xf16, #triton_gpu.dot_op<{opIdx = 0, parent = #warp}>>, 1> loc(#loc)
      %39 = tt.advance %arg9, [%c32_i32, %c0_i32] : <tensor<32x64xf16, #triton_gpu.dot_op<{opIdx = 1, parent = #warp}>>, 1> loc(#loc)
      scf.yield %37, %38, %39 : tensor<32x64xf32, #warp>, !tt.ptr<tensor<32x32xf16, #triton_gpu.dot_op<{opIdx = 0, parent = #warp}>>, 1>, !tt.ptr<tensor<32x64xf16, #triton_gpu.dot_op<{opIdx = 1, parent = #warp}>>, 1> loc(#loc)
    } {triton_gpu.workload = 3 : i32} loc(#loc)
    %c4_i32_7 = arith.constant 4 : i32 loc(#loc)
    %26 = arith.divsi %1, %c4_i32_7 : i32 loc(#loc)
    %c8_i32_8 = arith.constant 8 : i32 loc(#loc)
    %27 = arith.remsi %26, %c8_i32_8 : i32 loc(#loc)
    %c32_i32_9 = arith.constant 32 : i32 loc(#loc)
    %28 = arith.muli %27, %c32_i32_9 : i32 loc(#loc)
    %29 = arith.addi %28, %11 : i32 loc(#loc)
    %c4_i32_10 = arith.constant 4 : i32 loc(#loc)
    %30 = arith.remsi %1, %c4_i32_10 : i32 loc(#loc)
    %c4_i32_11 = arith.constant 4 : i32 loc(#loc)
    %31 = arith.remsi %30, %c4_i32_11 : i32 loc(#loc)
    %c64_i32_12 = arith.constant 64 : i32 loc(#loc)
    %32 = arith.muli %31, %c64_i32_12 : i32 loc(#loc)
    %33 = arith.addi %32, %18 : i32 loc(#loc)
    %34 = tt.make_tensor_ptr %arg2, [%c4096_i64, %c4096_i64], [%c4096_i64, %c1_i64], [%29, %33] {order = array<i32: 1, 0>} : <tensor<32x64xf32, #warp>, 1> loc(#loc)
    tt.store %34, %25#0 {boundaryCheck = array<i32: 0, 1>, cache = 1 : i32, evict = 1 : i32} : !tt.ptr<tensor<32x64xf32, #warp>, 1>, tensor<32x64xf32, #warp> loc(#loc)
    tt.return loc(#loc)
  } loc(#loc)
} loc(#loc)


module attributes {"triton_gpu.compute-capability" = 90 : i32, "triton_gpu.num-ctas" = 1 : i32, "triton_gpu.num-warps" = 32 : i32, "triton_gpu.threads-per-warp" = 1 : i32} {
  tt.func public @matmul_kernel_with_block_pointers_0d1d2d3d4d5d(%arg0: !tt.ptr<f16, 1> {tt.divisibility = 16 : i32}, %arg1: !tt.ptr<f16, 1> {tt.divisibility = 16 : i32}, %arg2: !tt.ptr<f32, 1> {tt.divisibility = 16 : i32}, %arg3: i32 {tt.divisibility = 16 : i32}, %arg4: i32 {tt.divisibility = 16 : i32}, %arg5: i32 {tt.divisibility = 16 : i32}) attributes {noinline = false} {
    %0 = gpu.subgroup_id : index
    %1 = arith.index_cast %0 : index to i32
    %c64_i32 = arith.constant 64 : i32
    %c16_i32 = arith.constant 16 : i32
    %c4096_i32 = arith.constant 4096 : i32
    %cst = arith.constant dense<0.000000e+00> : tensor<8x16xf32>
    %cst_0 = arith.constant dense<0.000000e+00> : tensor<8x16xf32>
    %cst_1 = arith.constant dense<0.000000e+00> : tensor<8x16xf32>
    %cst_2 = arith.constant dense<0.000000e+00> : tensor<8x16xf32>
    %cst_3 = arith.constant dense<0.000000e+00> : tensor<8x16xf32>
    %cst_4 = arith.constant dense<0.000000e+00> : tensor<8x16xf32>
    %cst_5 = arith.constant dense<0.000000e+00> : tensor<8x16xf32>
    %cst_6 = arith.constant dense<0.000000e+00> : tensor<8x16xf32>
    %cst_7 = arith.constant dense<0.000000e+00> : tensor<8x16xf32>
    %cst_8 = arith.constant dense<0.000000e+00> : tensor<8x16xf32>
    %cst_9 = arith.constant dense<0.000000e+00> : tensor<8x16xf32>
    %cst_10 = arith.constant dense<0.000000e+00> : tensor<8x16xf32>
    %cst_11 = arith.constant dense<0.000000e+00> : tensor<8x16xf32>
    %cst_12 = arith.constant dense<0.000000e+00> : tensor<8x16xf32>
    %cst_13 = arith.constant dense<0.000000e+00> : tensor<8x16xf32>
    %cst_14 = arith.constant dense<0.000000e+00> : tensor<8x16xf32>
    %2 = tt.glue %cst, %cst_0, %cst_1, %cst_2, %cst_3, %cst_4, %cst_5, %cst_6, %cst_7, %cst_8, %cst_9, %cst_10, %cst_11, %cst_12, %cst_13, %cst_14 : tensor<8x16xf32>, tensor<8x16xf32>, tensor<8x16xf32>, tensor<8x16xf32>, tensor<8x16xf32>, tensor<8x16xf32>, tensor<8x16xf32>, tensor<8x16xf32>, tensor<8x16xf32>, tensor<8x16xf32>, tensor<8x16xf32>, tensor<8x16xf32>, tensor<8x16xf32>, tensor<8x16xf32>, tensor<8x16xf32>, tensor<8x16xf32> -> tensor<32x64xf32, #triton_gpu.warp<{sizePerThread = [32, 64], threadsPerWarp = [1, 1], order = [1, 0]}>>
    %c32_i32 = arith.constant 32 : i32
    %c0_i32 = arith.constant 0 : i32
    %c1_i64 = arith.constant 1 : i64
    %c4096_i64 = arith.constant 4096 : i64
    %c256_i32 = arith.constant 256 : i32
    %c4_i32 = arith.constant 4 : i32
    %3 = tt.get_program_id x : i32
    %4 = arith.divsi %3, %c64_i32 : i32
    %5 = arith.muli %4, %c4_i32 : i32
    %6 = arith.subi %c16_i32, %5 : i32
    %7 = arith.minsi %6, %c4_i32 : i32
    %8 = arith.remsi %3, %7 : i32
    %9 = arith.addi %5, %8 : i32
    %10 = arith.remsi %3, %c64_i32 : i32
    %11 = arith.divsi %10, %7 : i32
    %12 = arith.muli %9, %c256_i32 : i32
    %c4_i32_15 = arith.constant 4 : i32
    %13 = arith.divsi %1, %c4_i32_15 : i32
    %c8_i32 = arith.constant 8 : i32
    %14 = arith.remsi %13, %c8_i32 : i32
    %c32_i32_16 = arith.constant 32 : i32
    %15 = arith.muli %14, %c32_i32_16 : i32
    %16 = arith.addi %15, %12 : i32
    %c4_i32_17 = arith.constant 4 : i32
    %17 = arith.remsi %1, %c4_i32_17 : i32
    %18 = tt.make_tensor_ptr %arg0, [%c4096_i64, %c4096_i64], [%c4096_i64, %c1_i64], [%16, %c0_i32] {order = array<i32: 1, 0>} : <tensor<32x32xf16>, 1>
    %19 = tt.glue %18 : !tt.ptr<tensor<32x32xf16>, 1> -> !tt.ptr<tensor<32x32xf16, #triton_gpu.dot_op<{opIdx = 0, parent = #triton_gpu.warp<{sizePerThread = [32, 64], threadsPerWarp = [1, 1], order = [1, 0]}>}>>, 1>
    %20 = arith.muli %11, %c256_i32 : i32
    %c4_i32_18 = arith.constant 4 : i32
    %21 = arith.divsi %1, %c4_i32_18 : i32
    %c4_i32_19 = arith.constant 4 : i32
    %22 = arith.remsi %1, %c4_i32_19 : i32
    %c4_i32_20 = arith.constant 4 : i32
    %23 = arith.remsi %22, %c4_i32_20 : i32
    %c64_i32_21 = arith.constant 64 : i32
    %24 = arith.muli %23, %c64_i32_21 : i32
    %25 = arith.addi %24, %20 : i32
    %26 = tt.make_tensor_ptr %arg1, [%c4096_i64, %c4096_i64], [%c4096_i64, %c1_i64], [%c0_i32, %25] {order = array<i32: 1, 0>} : <tensor<32x32xf16>, 1>
    %c32_i32_22 = arith.constant 32 : i32
    %27 = arith.addi %25, %c32_i32_22 : i32
    %28 = tt.make_tensor_ptr %arg1, [%c4096_i64, %c4096_i64], [%c4096_i64, %c1_i64], [%c0_i32, %27] {order = array<i32: 1, 0>} : <tensor<32x32xf16>, 1>
    %29 = tt.glue %26, %28 : !tt.ptr<tensor<32x32xf16>, 1>, !tt.ptr<tensor<32x32xf16>, 1> -> !tt.ptr<tensor<32x64xf16, #triton_gpu.dot_op<{opIdx = 1, parent = #triton_gpu.warp<{sizePerThread = [32, 64], threadsPerWarp = [1, 1], order = [1, 0]}>}>>, 1>
    %30:3 = scf.for %arg6 = %c0_i32 to %c4096_i32 step %c32_i32 iter_args(%arg7 = %2, %arg8 = %19, %arg9 = %29) -> (tensor<32x64xf32, #triton_gpu.warp<{sizePerThread = [32, 64], threadsPerWarp = [1, 1], order = [1, 0]}>>, !tt.ptr<tensor<32x32xf16, #triton_gpu.dot_op<{opIdx = 0, parent = #triton_gpu.warp<{sizePerThread = [32, 64], threadsPerWarp = [1, 1], order = [1, 0]}>}>>, 1>, !tt.ptr<tensor<32x64xf16, #triton_gpu.dot_op<{opIdx = 1, parent = #triton_gpu.warp<{sizePerThread = [32, 64], threadsPerWarp = [1, 1], order = [1, 0]}>}>>, 1>)  : i32 {
      %112 = tt.extract %arg8, 0 : !tt.ptr<tensor<32x32xf16, #triton_gpu.dot_op<{opIdx = 0, parent = #triton_gpu.warp<{sizePerThread = [32, 64], threadsPerWarp = [1, 1], order = [1, 0]}>}>>, 1> -> !tt.ptr<tensor<32x32xf16>, 1>
      %113 = tt.load %112 {DotIdx = 0 : i32, boundaryCheck = array<i32: 0, 1>, cache = 1 : i32, evict = 1 : i32, isVolatile = false} : !tt.ptr<tensor<32x32xf16>, 1> -> tensor<32x32xf16>
      %114 = tt.glue %113 : tensor<32x32xf16> -> tensor<32x32xf16, #triton_gpu.dot_op<{opIdx = 0, parent = #triton_gpu.warp<{sizePerThread = [32, 64], threadsPerWarp = [1, 1], order = [1, 0]}>}>>
      %115 = tt.extract %arg9, 0 : !tt.ptr<tensor<32x64xf16, #triton_gpu.dot_op<{opIdx = 1, parent = #triton_gpu.warp<{sizePerThread = [32, 64], threadsPerWarp = [1, 1], order = [1, 0]}>}>>, 1> -> !tt.ptr<tensor<32x32xf16>, 1>
      %116 = tt.load %115 {DotIdx = 1 : i32, boundaryCheck = array<i32: 0, 1>, cache = 1 : i32, evict = 1 : i32, isVolatile = false} : !tt.ptr<tensor<32x32xf16>, 1> -> tensor<32x32xf16>
      %117 = tt.extract %arg9, 1 : !tt.ptr<tensor<32x64xf16, #triton_gpu.dot_op<{opIdx = 1, parent = #triton_gpu.warp<{sizePerThread = [32, 64], threadsPerWarp = [1, 1], order = [1, 0]}>}>>, 1> -> !tt.ptr<tensor<32x32xf16>, 1>
      %118 = tt.load %117 {DotIdx = 1 : i32, boundaryCheck = array<i32: 0, 1>, cache = 1 : i32, evict = 1 : i32, isVolatile = false} : !tt.ptr<tensor<32x32xf16>, 1> -> tensor<32x32xf16>
      %119 = tt.glue %116, %118 : tensor<32x32xf16>, tensor<32x32xf16> -> tensor<32x64xf16, #triton_gpu.dot_op<{opIdx = 1, parent = #triton_gpu.warp<{sizePerThread = [32, 64], threadsPerWarp = [1, 1], order = [1, 0]}>}>>
      %120 = tt.extract %arg7, 0 : tensor<32x64xf32, #triton_gpu.warp<{sizePerThread = [32, 64], threadsPerWarp = [1, 1], order = [1, 0]}>> -> tensor<8x16xf32>
      %121 = tt.extract %120, 0 : tensor<8x16xf32> -> tensor<8x16xf32>
      %122 = tt.extract %114, 0 : tensor<32x32xf16, #triton_gpu.dot_op<{opIdx = 0, parent = #triton_gpu.warp<{sizePerThread = [32, 64], threadsPerWarp = [1, 1], order = [1, 0]}>}>> -> tensor<32x32xf16>
      %123 = tt.extract %122, 0 : tensor<32x32xf16> -> tensor<8x16xf16>
      %124 = tt.extract %119, 0 : tensor<32x64xf16, #triton_gpu.dot_op<{opIdx = 1, parent = #triton_gpu.warp<{sizePerThread = [32, 64], threadsPerWarp = [1, 1], order = [1, 0]}>}>> -> tensor<32x32xf16>
      %125 = tt.extract %124, 0 : tensor<32x32xf16> -> tensor<16x16xf16>
      %126 = tt.dot %123, %125, %121 {allowTF32 = true, maxNumImpreciseAcc = 0 : i32} : tensor<8x16xf16> * tensor<16x16xf16> -> tensor<8x16xf32>
      %127 = tt.extract %114, 0 : tensor<32x32xf16, #triton_gpu.dot_op<{opIdx = 0, parent = #triton_gpu.warp<{sizePerThread = [32, 64], threadsPerWarp = [1, 1], order = [1, 0]}>}>> -> tensor<32x32xf16>
      %128 = tt.extract %127, 4 : tensor<32x32xf16> -> tensor<8x16xf16>
      %129 = tt.extract %119, 0 : tensor<32x64xf16, #triton_gpu.dot_op<{opIdx = 1, parent = #triton_gpu.warp<{sizePerThread = [32, 64], threadsPerWarp = [1, 1], order = [1, 0]}>}>> -> tensor<32x32xf16>
      %130 = tt.extract %129, 1 : tensor<32x32xf16> -> tensor<16x16xf16>
      %131 = tt.dot %128, %130, %126 {allowTF32 = true, maxNumImpreciseAcc = 0 : i32} : tensor<8x16xf16> * tensor<16x16xf16> -> tensor<8x16xf32>
      %132 = tt.glue %131 : tensor<8x16xf32> -> tensor<8x16xf32>
      %133 = tt.extract %arg7, 1 : tensor<32x64xf32, #triton_gpu.warp<{sizePerThread = [32, 64], threadsPerWarp = [1, 1], order = [1, 0]}>> -> tensor<8x16xf32>
      %134 = tt.extract %133, 0 : tensor<8x16xf32> -> tensor<8x16xf32>
      %135 = tt.extract %114, 0 : tensor<32x32xf16, #triton_gpu.dot_op<{opIdx = 0, parent = #triton_gpu.warp<{sizePerThread = [32, 64], threadsPerWarp = [1, 1], order = [1, 0]}>}>> -> tensor<32x32xf16>
      %136 = tt.extract %135, 1 : tensor<32x32xf16> -> tensor<8x16xf16>
      %137 = tt.extract %119, 0 : tensor<32x64xf16, #triton_gpu.dot_op<{opIdx = 1, parent = #triton_gpu.warp<{sizePerThread = [32, 64], threadsPerWarp = [1, 1], order = [1, 0]}>}>> -> tensor<32x32xf16>
      %138 = tt.extract %137, 0 : tensor<32x32xf16> -> tensor<16x16xf16>
      %139 = tt.dot %136, %138, %134 {allowTF32 = true, maxNumImpreciseAcc = 0 : i32} : tensor<8x16xf16> * tensor<16x16xf16> -> tensor<8x16xf32>
      %140 = tt.extract %114, 0 : tensor<32x32xf16, #triton_gpu.dot_op<{opIdx = 0, parent = #triton_gpu.warp<{sizePerThread = [32, 64], threadsPerWarp = [1, 1], order = [1, 0]}>}>> -> tensor<32x32xf16>
      %141 = tt.extract %140, 5 : tensor<32x32xf16> -> tensor<8x16xf16>
      %142 = tt.extract %119, 0 : tensor<32x64xf16, #triton_gpu.dot_op<{opIdx = 1, parent = #triton_gpu.warp<{sizePerThread = [32, 64], threadsPerWarp = [1, 1], order = [1, 0]}>}>> -> tensor<32x32xf16>
      %143 = tt.extract %142, 1 : tensor<32x32xf16> -> tensor<16x16xf16>
      %144 = tt.dot %141, %143, %139 {allowTF32 = true, maxNumImpreciseAcc = 0 : i32} : tensor<8x16xf16> * tensor<16x16xf16> -> tensor<8x16xf32>
      %145 = tt.glue %144 : tensor<8x16xf32> -> tensor<8x16xf32>
      %146 = tt.extract %arg7, 2 : tensor<32x64xf32, #triton_gpu.warp<{sizePerThread = [32, 64], threadsPerWarp = [1, 1], order = [1, 0]}>> -> tensor<8x16xf32>
      %147 = tt.extract %146, 0 : tensor<8x16xf32> -> tensor<8x16xf32>
      %148 = tt.extract %114, 0 : tensor<32x32xf16, #triton_gpu.dot_op<{opIdx = 0, parent = #triton_gpu.warp<{sizePerThread = [32, 64], threadsPerWarp = [1, 1], order = [1, 0]}>}>> -> tensor<32x32xf16>
      %149 = tt.extract %148, 2 : tensor<32x32xf16> -> tensor<8x16xf16>
      %150 = tt.extract %119, 0 : tensor<32x64xf16, #triton_gpu.dot_op<{opIdx = 1, parent = #triton_gpu.warp<{sizePerThread = [32, 64], threadsPerWarp = [1, 1], order = [1, 0]}>}>> -> tensor<32x32xf16>
      %151 = tt.extract %150, 0 : tensor<32x32xf16> -> tensor<16x16xf16>
      %152 = tt.dot %149, %151, %147 {allowTF32 = true, maxNumImpreciseAcc = 0 : i32} : tensor<8x16xf16> * tensor<16x16xf16> -> tensor<8x16xf32>
      %153 = tt.extract %114, 0 : tensor<32x32xf16, #triton_gpu.dot_op<{opIdx = 0, parent = #triton_gpu.warp<{sizePerThread = [32, 64], threadsPerWarp = [1, 1], order = [1, 0]}>}>> -> tensor<32x32xf16>
      %154 = tt.extract %153, 6 : tensor<32x32xf16> -> tensor<8x16xf16>
      %155 = tt.extract %119, 0 : tensor<32x64xf16, #triton_gpu.dot_op<{opIdx = 1, parent = #triton_gpu.warp<{sizePerThread = [32, 64], threadsPerWarp = [1, 1], order = [1, 0]}>}>> -> tensor<32x32xf16>
      %156 = tt.extract %155, 1 : tensor<32x32xf16> -> tensor<16x16xf16>
      %157 = tt.dot %154, %156, %152 {allowTF32 = true, maxNumImpreciseAcc = 0 : i32} : tensor<8x16xf16> * tensor<16x16xf16> -> tensor<8x16xf32>
      %158 = tt.glue %157 : tensor<8x16xf32> -> tensor<8x16xf32>
      %159 = tt.extract %arg7, 3 : tensor<32x64xf32, #triton_gpu.warp<{sizePerThread = [32, 64], threadsPerWarp = [1, 1], order = [1, 0]}>> -> tensor<8x16xf32>
      %160 = tt.extract %159, 0 : tensor<8x16xf32> -> tensor<8x16xf32>
      %161 = tt.extract %114, 0 : tensor<32x32xf16, #triton_gpu.dot_op<{opIdx = 0, parent = #triton_gpu.warp<{sizePerThread = [32, 64], threadsPerWarp = [1, 1], order = [1, 0]}>}>> -> tensor<32x32xf16>
      %162 = tt.extract %161, 3 : tensor<32x32xf16> -> tensor<8x16xf16>
      %163 = tt.extract %119, 0 : tensor<32x64xf16, #triton_gpu.dot_op<{opIdx = 1, parent = #triton_gpu.warp<{sizePerThread = [32, 64], threadsPerWarp = [1, 1], order = [1, 0]}>}>> -> tensor<32x32xf16>
      %164 = tt.extract %163, 0 : tensor<32x32xf16> -> tensor<16x16xf16>
      %165 = tt.dot %162, %164, %160 {allowTF32 = true, maxNumImpreciseAcc = 0 : i32} : tensor<8x16xf16> * tensor<16x16xf16> -> tensor<8x16xf32>
      %166 = tt.extract %114, 0 : tensor<32x32xf16, #triton_gpu.dot_op<{opIdx = 0, parent = #triton_gpu.warp<{sizePerThread = [32, 64], threadsPerWarp = [1, 1], order = [1, 0]}>}>> -> tensor<32x32xf16>
      %167 = tt.extract %166, 7 : tensor<32x32xf16> -> tensor<8x16xf16>
      %168 = tt.extract %119, 0 : tensor<32x64xf16, #triton_gpu.dot_op<{opIdx = 1, parent = #triton_gpu.warp<{sizePerThread = [32, 64], threadsPerWarp = [1, 1], order = [1, 0]}>}>> -> tensor<32x32xf16>
      %169 = tt.extract %168, 1 : tensor<32x32xf16> -> tensor<16x16xf16>
      %170 = tt.dot %167, %169, %165 {allowTF32 = true, maxNumImpreciseAcc = 0 : i32} : tensor<8x16xf16> * tensor<16x16xf16> -> tensor<8x16xf32>
      %171 = tt.glue %170 : tensor<8x16xf32> -> tensor<8x16xf32>
      %172 = tt.extract %arg7, 4 : tensor<32x64xf32, #triton_gpu.warp<{sizePerThread = [32, 64], threadsPerWarp = [1, 1], order = [1, 0]}>> -> tensor<8x16xf32>
      %173 = tt.extract %172, 0 : tensor<8x16xf32> -> tensor<8x16xf32>
      %174 = tt.extract %114, 0 : tensor<32x32xf16, #triton_gpu.dot_op<{opIdx = 0, parent = #triton_gpu.warp<{sizePerThread = [32, 64], threadsPerWarp = [1, 1], order = [1, 0]}>}>> -> tensor<32x32xf16>
      %175 = tt.extract %174, 0 : tensor<32x32xf16> -> tensor<8x16xf16>
      %176 = tt.extract %119, 0 : tensor<32x64xf16, #triton_gpu.dot_op<{opIdx = 1, parent = #triton_gpu.warp<{sizePerThread = [32, 64], threadsPerWarp = [1, 1], order = [1, 0]}>}>> -> tensor<32x32xf16>
      %177 = tt.extract %176, 2 : tensor<32x32xf16> -> tensor<16x16xf16>
      %178 = tt.dot %175, %177, %173 {allowTF32 = true, maxNumImpreciseAcc = 0 : i32} : tensor<8x16xf16> * tensor<16x16xf16> -> tensor<8x16xf32>
      %179 = tt.extract %114, 0 : tensor<32x32xf16, #triton_gpu.dot_op<{opIdx = 0, parent = #triton_gpu.warp<{sizePerThread = [32, 64], threadsPerWarp = [1, 1], order = [1, 0]}>}>> -> tensor<32x32xf16>
      %180 = tt.extract %179, 4 : tensor<32x32xf16> -> tensor<8x16xf16>
      %181 = tt.extract %119, 0 : tensor<32x64xf16, #triton_gpu.dot_op<{opIdx = 1, parent = #triton_gpu.warp<{sizePerThread = [32, 64], threadsPerWarp = [1, 1], order = [1, 0]}>}>> -> tensor<32x32xf16>
      %182 = tt.extract %181, 3 : tensor<32x32xf16> -> tensor<16x16xf16>
      %183 = tt.dot %180, %182, %178 {allowTF32 = true, maxNumImpreciseAcc = 0 : i32} : tensor<8x16xf16> * tensor<16x16xf16> -> tensor<8x16xf32>
      %184 = tt.glue %183 : tensor<8x16xf32> -> tensor<8x16xf32>
      %185 = tt.extract %arg7, 5 : tensor<32x64xf32, #triton_gpu.warp<{sizePerThread = [32, 64], threadsPerWarp = [1, 1], order = [1, 0]}>> -> tensor<8x16xf32>
      %186 = tt.extract %185, 0 : tensor<8x16xf32> -> tensor<8x16xf32>
      %187 = tt.extract %114, 0 : tensor<32x32xf16, #triton_gpu.dot_op<{opIdx = 0, parent = #triton_gpu.warp<{sizePerThread = [32, 64], threadsPerWarp = [1, 1], order = [1, 0]}>}>> -> tensor<32x32xf16>
      %188 = tt.extract %187, 1 : tensor<32x32xf16> -> tensor<8x16xf16>
      %189 = tt.extract %119, 0 : tensor<32x64xf16, #triton_gpu.dot_op<{opIdx = 1, parent = #triton_gpu.warp<{sizePerThread = [32, 64], threadsPerWarp = [1, 1], order = [1, 0]}>}>> -> tensor<32x32xf16>
      %190 = tt.extract %189, 2 : tensor<32x32xf16> -> tensor<16x16xf16>
      %191 = tt.dot %188, %190, %186 {allowTF32 = true, maxNumImpreciseAcc = 0 : i32} : tensor<8x16xf16> * tensor<16x16xf16> -> tensor<8x16xf32>
      %192 = tt.extract %114, 0 : tensor<32x32xf16, #triton_gpu.dot_op<{opIdx = 0, parent = #triton_gpu.warp<{sizePerThread = [32, 64], threadsPerWarp = [1, 1], order = [1, 0]}>}>> -> tensor<32x32xf16>
      %193 = tt.extract %192, 5 : tensor<32x32xf16> -> tensor<8x16xf16>
      %194 = tt.extract %119, 0 : tensor<32x64xf16, #triton_gpu.dot_op<{opIdx = 1, parent = #triton_gpu.warp<{sizePerThread = [32, 64], threadsPerWarp = [1, 1], order = [1, 0]}>}>> -> tensor<32x32xf16>
      %195 = tt.extract %194, 3 : tensor<32x32xf16> -> tensor<16x16xf16>
      %196 = tt.dot %193, %195, %191 {allowTF32 = true, maxNumImpreciseAcc = 0 : i32} : tensor<8x16xf16> * tensor<16x16xf16> -> tensor<8x16xf32>
      %197 = tt.glue %196 : tensor<8x16xf32> -> tensor<8x16xf32>
      %198 = tt.extract %arg7, 6 : tensor<32x64xf32, #triton_gpu.warp<{sizePerThread = [32, 64], threadsPerWarp = [1, 1], order = [1, 0]}>> -> tensor<8x16xf32>
      %199 = tt.extract %198, 0 : tensor<8x16xf32> -> tensor<8x16xf32>
      %200 = tt.extract %114, 0 : tensor<32x32xf16, #triton_gpu.dot_op<{opIdx = 0, parent = #triton_gpu.warp<{sizePerThread = [32, 64], threadsPerWarp = [1, 1], order = [1, 0]}>}>> -> tensor<32x32xf16>
      %201 = tt.extract %200, 2 : tensor<32x32xf16> -> tensor<8x16xf16>
      %202 = tt.extract %119, 0 : tensor<32x64xf16, #triton_gpu.dot_op<{opIdx = 1, parent = #triton_gpu.warp<{sizePerThread = [32, 64], threadsPerWarp = [1, 1], order = [1, 0]}>}>> -> tensor<32x32xf16>
      %203 = tt.extract %202, 2 : tensor<32x32xf16> -> tensor<16x16xf16>
      %204 = tt.dot %201, %203, %199 {allowTF32 = true, maxNumImpreciseAcc = 0 : i32} : tensor<8x16xf16> * tensor<16x16xf16> -> tensor<8x16xf32>
      %205 = tt.extract %114, 0 : tensor<32x32xf16, #triton_gpu.dot_op<{opIdx = 0, parent = #triton_gpu.warp<{sizePerThread = [32, 64], threadsPerWarp = [1, 1], order = [1, 0]}>}>> -> tensor<32x32xf16>
      %206 = tt.extract %205, 6 : tensor<32x32xf16> -> tensor<8x16xf16>
      %207 = tt.extract %119, 0 : tensor<32x64xf16, #triton_gpu.dot_op<{opIdx = 1, parent = #triton_gpu.warp<{sizePerThread = [32, 64], threadsPerWarp = [1, 1], order = [1, 0]}>}>> -> tensor<32x32xf16>
      %208 = tt.extract %207, 3 : tensor<32x32xf16> -> tensor<16x16xf16>
      %209 = tt.dot %206, %208, %204 {allowTF32 = true, maxNumImpreciseAcc = 0 : i32} : tensor<8x16xf16> * tensor<16x16xf16> -> tensor<8x16xf32>
      %210 = tt.glue %209 : tensor<8x16xf32> -> tensor<8x16xf32>
      %211 = tt.extract %arg7, 7 : tensor<32x64xf32, #triton_gpu.warp<{sizePerThread = [32, 64], threadsPerWarp = [1, 1], order = [1, 0]}>> -> tensor<8x16xf32>
      %212 = tt.extract %211, 0 : tensor<8x16xf32> -> tensor<8x16xf32>
      %213 = tt.extract %114, 0 : tensor<32x32xf16, #triton_gpu.dot_op<{opIdx = 0, parent = #triton_gpu.warp<{sizePerThread = [32, 64], threadsPerWarp = [1, 1], order = [1, 0]}>}>> -> tensor<32x32xf16>
      %214 = tt.extract %213, 3 : tensor<32x32xf16> -> tensor<8x16xf16>
      %215 = tt.extract %119, 0 : tensor<32x64xf16, #triton_gpu.dot_op<{opIdx = 1, parent = #triton_gpu.warp<{sizePerThread = [32, 64], threadsPerWarp = [1, 1], order = [1, 0]}>}>> -> tensor<32x32xf16>
      %216 = tt.extract %215, 2 : tensor<32x32xf16> -> tensor<16x16xf16>
      %217 = tt.dot %214, %216, %212 {allowTF32 = true, maxNumImpreciseAcc = 0 : i32} : tensor<8x16xf16> * tensor<16x16xf16> -> tensor<8x16xf32>
      %218 = tt.extract %114, 0 : tensor<32x32xf16, #triton_gpu.dot_op<{opIdx = 0, parent = #triton_gpu.warp<{sizePerThread = [32, 64], threadsPerWarp = [1, 1], order = [1, 0]}>}>> -> tensor<32x32xf16>
      %219 = tt.extract %218, 7 : tensor<32x32xf16> -> tensor<8x16xf16>
      %220 = tt.extract %119, 0 : tensor<32x64xf16, #triton_gpu.dot_op<{opIdx = 1, parent = #triton_gpu.warp<{sizePerThread = [32, 64], threadsPerWarp = [1, 1], order = [1, 0]}>}>> -> tensor<32x32xf16>
      %221 = tt.extract %220, 3 : tensor<32x32xf16> -> tensor<16x16xf16>
      %222 = tt.dot %219, %221, %217 {allowTF32 = true, maxNumImpreciseAcc = 0 : i32} : tensor<8x16xf16> * tensor<16x16xf16> -> tensor<8x16xf32>
      %223 = tt.glue %222 : tensor<8x16xf32> -> tensor<8x16xf32>
      %224 = tt.extract %arg7, 8 : tensor<32x64xf32, #triton_gpu.warp<{sizePerThread = [32, 64], threadsPerWarp = [1, 1], order = [1, 0]}>> -> tensor<8x16xf32>
      %225 = tt.extract %224, 0 : tensor<8x16xf32> -> tensor<8x16xf32>
      %226 = tt.extract %114, 0 : tensor<32x32xf16, #triton_gpu.dot_op<{opIdx = 0, parent = #triton_gpu.warp<{sizePerThread = [32, 64], threadsPerWarp = [1, 1], order = [1, 0]}>}>> -> tensor<32x32xf16>
      %227 = tt.extract %226, 0 : tensor<32x32xf16> -> tensor<8x16xf16>
      %228 = tt.extract %119, 1 : tensor<32x64xf16, #triton_gpu.dot_op<{opIdx = 1, parent = #triton_gpu.warp<{sizePerThread = [32, 64], threadsPerWarp = [1, 1], order = [1, 0]}>}>> -> tensor<32x32xf16>
      %229 = tt.extract %228, 0 : tensor<32x32xf16> -> tensor<16x16xf16>
      %230 = tt.dot %227, %229, %225 {allowTF32 = true, maxNumImpreciseAcc = 0 : i32} : tensor<8x16xf16> * tensor<16x16xf16> -> tensor<8x16xf32>
      %231 = tt.extract %114, 0 : tensor<32x32xf16, #triton_gpu.dot_op<{opIdx = 0, parent = #triton_gpu.warp<{sizePerThread = [32, 64], threadsPerWarp = [1, 1], order = [1, 0]}>}>> -> tensor<32x32xf16>
      %232 = tt.extract %231, 4 : tensor<32x32xf16> -> tensor<8x16xf16>
      %233 = tt.extract %119, 1 : tensor<32x64xf16, #triton_gpu.dot_op<{opIdx = 1, parent = #triton_gpu.warp<{sizePerThread = [32, 64], threadsPerWarp = [1, 1], order = [1, 0]}>}>> -> tensor<32x32xf16>
      %234 = tt.extract %233, 1 : tensor<32x32xf16> -> tensor<16x16xf16>
      %235 = tt.dot %232, %234, %230 {allowTF32 = true, maxNumImpreciseAcc = 0 : i32} : tensor<8x16xf16> * tensor<16x16xf16> -> tensor<8x16xf32>
      %236 = tt.glue %235 : tensor<8x16xf32> -> tensor<8x16xf32>
      %237 = tt.extract %arg7, 9 : tensor<32x64xf32, #triton_gpu.warp<{sizePerThread = [32, 64], threadsPerWarp = [1, 1], order = [1, 0]}>> -> tensor<8x16xf32>
      %238 = tt.extract %237, 0 : tensor<8x16xf32> -> tensor<8x16xf32>
      %239 = tt.extract %114, 0 : tensor<32x32xf16, #triton_gpu.dot_op<{opIdx = 0, parent = #triton_gpu.warp<{sizePerThread = [32, 64], threadsPerWarp = [1, 1], order = [1, 0]}>}>> -> tensor<32x32xf16>
      %240 = tt.extract %239, 1 : tensor<32x32xf16> -> tensor<8x16xf16>
      %241 = tt.extract %119, 1 : tensor<32x64xf16, #triton_gpu.dot_op<{opIdx = 1, parent = #triton_gpu.warp<{sizePerThread = [32, 64], threadsPerWarp = [1, 1], order = [1, 0]}>}>> -> tensor<32x32xf16>
      %242 = tt.extract %241, 0 : tensor<32x32xf16> -> tensor<16x16xf16>
      %243 = tt.dot %240, %242, %238 {allowTF32 = true, maxNumImpreciseAcc = 0 : i32} : tensor<8x16xf16> * tensor<16x16xf16> -> tensor<8x16xf32>
      %244 = tt.extract %114, 0 : tensor<32x32xf16, #triton_gpu.dot_op<{opIdx = 0, parent = #triton_gpu.warp<{sizePerThread = [32, 64], threadsPerWarp = [1, 1], order = [1, 0]}>}>> -> tensor<32x32xf16>
      %245 = tt.extract %244, 5 : tensor<32x32xf16> -> tensor<8x16xf16>
      %246 = tt.extract %119, 1 : tensor<32x64xf16, #triton_gpu.dot_op<{opIdx = 1, parent = #triton_gpu.warp<{sizePerThread = [32, 64], threadsPerWarp = [1, 1], order = [1, 0]}>}>> -> tensor<32x32xf16>
      %247 = tt.extract %246, 1 : tensor<32x32xf16> -> tensor<16x16xf16>
      %248 = tt.dot %245, %247, %243 {allowTF32 = true, maxNumImpreciseAcc = 0 : i32} : tensor<8x16xf16> * tensor<16x16xf16> -> tensor<8x16xf32>
      %249 = tt.glue %248 : tensor<8x16xf32> -> tensor<8x16xf32>
      %250 = tt.extract %arg7, 10 : tensor<32x64xf32, #triton_gpu.warp<{sizePerThread = [32, 64], threadsPerWarp = [1, 1], order = [1, 0]}>> -> tensor<8x16xf32>
      %251 = tt.extract %250, 0 : tensor<8x16xf32> -> tensor<8x16xf32>
      %252 = tt.extract %114, 0 : tensor<32x32xf16, #triton_gpu.dot_op<{opIdx = 0, parent = #triton_gpu.warp<{sizePerThread = [32, 64], threadsPerWarp = [1, 1], order = [1, 0]}>}>> -> tensor<32x32xf16>
      %253 = tt.extract %252, 2 : tensor<32x32xf16> -> tensor<8x16xf16>
      %254 = tt.extract %119, 1 : tensor<32x64xf16, #triton_gpu.dot_op<{opIdx = 1, parent = #triton_gpu.warp<{sizePerThread = [32, 64], threadsPerWarp = [1, 1], order = [1, 0]}>}>> -> tensor<32x32xf16>
      %255 = tt.extract %254, 0 : tensor<32x32xf16> -> tensor<16x16xf16>
      %256 = tt.dot %253, %255, %251 {allowTF32 = true, maxNumImpreciseAcc = 0 : i32} : tensor<8x16xf16> * tensor<16x16xf16> -> tensor<8x16xf32>
      %257 = tt.extract %114, 0 : tensor<32x32xf16, #triton_gpu.dot_op<{opIdx = 0, parent = #triton_gpu.warp<{sizePerThread = [32, 64], threadsPerWarp = [1, 1], order = [1, 0]}>}>> -> tensor<32x32xf16>
      %258 = tt.extract %257, 6 : tensor<32x32xf16> -> tensor<8x16xf16>
      %259 = tt.extract %119, 1 : tensor<32x64xf16, #triton_gpu.dot_op<{opIdx = 1, parent = #triton_gpu.warp<{sizePerThread = [32, 64], threadsPerWarp = [1, 1], order = [1, 0]}>}>> -> tensor<32x32xf16>
      %260 = tt.extract %259, 1 : tensor<32x32xf16> -> tensor<16x16xf16>
      %261 = tt.dot %258, %260, %256 {allowTF32 = true, maxNumImpreciseAcc = 0 : i32} : tensor<8x16xf16> * tensor<16x16xf16> -> tensor<8x16xf32>
      %262 = tt.glue %261 : tensor<8x16xf32> -> tensor<8x16xf32>
      %263 = tt.extract %arg7, 11 : tensor<32x64xf32, #triton_gpu.warp<{sizePerThread = [32, 64], threadsPerWarp = [1, 1], order = [1, 0]}>> -> tensor<8x16xf32>
      %264 = tt.extract %263, 0 : tensor<8x16xf32> -> tensor<8x16xf32>
      %265 = tt.extract %114, 0 : tensor<32x32xf16, #triton_gpu.dot_op<{opIdx = 0, parent = #triton_gpu.warp<{sizePerThread = [32, 64], threadsPerWarp = [1, 1], order = [1, 0]}>}>> -> tensor<32x32xf16>
      %266 = tt.extract %265, 3 : tensor<32x32xf16> -> tensor<8x16xf16>
      %267 = tt.extract %119, 1 : tensor<32x64xf16, #triton_gpu.dot_op<{opIdx = 1, parent = #triton_gpu.warp<{sizePerThread = [32, 64], threadsPerWarp = [1, 1], order = [1, 0]}>}>> -> tensor<32x32xf16>
      %268 = tt.extract %267, 0 : tensor<32x32xf16> -> tensor<16x16xf16>
      %269 = tt.dot %266, %268, %264 {allowTF32 = true, maxNumImpreciseAcc = 0 : i32} : tensor<8x16xf16> * tensor<16x16xf16> -> tensor<8x16xf32>
      %270 = tt.extract %114, 0 : tensor<32x32xf16, #triton_gpu.dot_op<{opIdx = 0, parent = #triton_gpu.warp<{sizePerThread = [32, 64], threadsPerWarp = [1, 1], order = [1, 0]}>}>> -> tensor<32x32xf16>
      %271 = tt.extract %270, 7 : tensor<32x32xf16> -> tensor<8x16xf16>
      %272 = tt.extract %119, 1 : tensor<32x64xf16, #triton_gpu.dot_op<{opIdx = 1, parent = #triton_gpu.warp<{sizePerThread = [32, 64], threadsPerWarp = [1, 1], order = [1, 0]}>}>> -> tensor<32x32xf16>
      %273 = tt.extract %272, 1 : tensor<32x32xf16> -> tensor<16x16xf16>
      %274 = tt.dot %271, %273, %269 {allowTF32 = true, maxNumImpreciseAcc = 0 : i32} : tensor<8x16xf16> * tensor<16x16xf16> -> tensor<8x16xf32>
      %275 = tt.glue %274 : tensor<8x16xf32> -> tensor<8x16xf32>
      %276 = tt.extract %arg7, 12 : tensor<32x64xf32, #triton_gpu.warp<{sizePerThread = [32, 64], threadsPerWarp = [1, 1], order = [1, 0]}>> -> tensor<8x16xf32>
      %277 = tt.extract %276, 0 : tensor<8x16xf32> -> tensor<8x16xf32>
      %278 = tt.extract %114, 0 : tensor<32x32xf16, #triton_gpu.dot_op<{opIdx = 0, parent = #triton_gpu.warp<{sizePerThread = [32, 64], threadsPerWarp = [1, 1], order = [1, 0]}>}>> -> tensor<32x32xf16>
      %279 = tt.extract %278, 0 : tensor<32x32xf16> -> tensor<8x16xf16>
      %280 = tt.extract %119, 1 : tensor<32x64xf16, #triton_gpu.dot_op<{opIdx = 1, parent = #triton_gpu.warp<{sizePerThread = [32, 64], threadsPerWarp = [1, 1], order = [1, 0]}>}>> -> tensor<32x32xf16>
      %281 = tt.extract %280, 2 : tensor<32x32xf16> -> tensor<16x16xf16>
      %282 = tt.dot %279, %281, %277 {allowTF32 = true, maxNumImpreciseAcc = 0 : i32} : tensor<8x16xf16> * tensor<16x16xf16> -> tensor<8x16xf32>
      %283 = tt.extract %114, 0 : tensor<32x32xf16, #triton_gpu.dot_op<{opIdx = 0, parent = #triton_gpu.warp<{sizePerThread = [32, 64], threadsPerWarp = [1, 1], order = [1, 0]}>}>> -> tensor<32x32xf16>
      %284 = tt.extract %283, 4 : tensor<32x32xf16> -> tensor<8x16xf16>
      %285 = tt.extract %119, 1 : tensor<32x64xf16, #triton_gpu.dot_op<{opIdx = 1, parent = #triton_gpu.warp<{sizePerThread = [32, 64], threadsPerWarp = [1, 1], order = [1, 0]}>}>> -> tensor<32x32xf16>
      %286 = tt.extract %285, 3 : tensor<32x32xf16> -> tensor<16x16xf16>
      %287 = tt.dot %284, %286, %282 {allowTF32 = true, maxNumImpreciseAcc = 0 : i32} : tensor<8x16xf16> * tensor<16x16xf16> -> tensor<8x16xf32>
      %288 = tt.glue %287 : tensor<8x16xf32> -> tensor<8x16xf32>
      %289 = tt.extract %arg7, 13 : tensor<32x64xf32, #triton_gpu.warp<{sizePerThread = [32, 64], threadsPerWarp = [1, 1], order = [1, 0]}>> -> tensor<8x16xf32>
      %290 = tt.extract %289, 0 : tensor<8x16xf32> -> tensor<8x16xf32>
      %291 = tt.extract %114, 0 : tensor<32x32xf16, #triton_gpu.dot_op<{opIdx = 0, parent = #triton_gpu.warp<{sizePerThread = [32, 64], threadsPerWarp = [1, 1], order = [1, 0]}>}>> -> tensor<32x32xf16>
      %292 = tt.extract %291, 1 : tensor<32x32xf16> -> tensor<8x16xf16>
      %293 = tt.extract %119, 1 : tensor<32x64xf16, #triton_gpu.dot_op<{opIdx = 1, parent = #triton_gpu.warp<{sizePerThread = [32, 64], threadsPerWarp = [1, 1], order = [1, 0]}>}>> -> tensor<32x32xf16>
      %294 = tt.extract %293, 2 : tensor<32x32xf16> -> tensor<16x16xf16>
      %295 = tt.dot %292, %294, %290 {allowTF32 = true, maxNumImpreciseAcc = 0 : i32} : tensor<8x16xf16> * tensor<16x16xf16> -> tensor<8x16xf32>
      %296 = tt.extract %114, 0 : tensor<32x32xf16, #triton_gpu.dot_op<{opIdx = 0, parent = #triton_gpu.warp<{sizePerThread = [32, 64], threadsPerWarp = [1, 1], order = [1, 0]}>}>> -> tensor<32x32xf16>
      %297 = tt.extract %296, 5 : tensor<32x32xf16> -> tensor<8x16xf16>
      %298 = tt.extract %119, 1 : tensor<32x64xf16, #triton_gpu.dot_op<{opIdx = 1, parent = #triton_gpu.warp<{sizePerThread = [32, 64], threadsPerWarp = [1, 1], order = [1, 0]}>}>> -> tensor<32x32xf16>
      %299 = tt.extract %298, 3 : tensor<32x32xf16> -> tensor<16x16xf16>
      %300 = tt.dot %297, %299, %295 {allowTF32 = true, maxNumImpreciseAcc = 0 : i32} : tensor<8x16xf16> * tensor<16x16xf16> -> tensor<8x16xf32>
      %301 = tt.glue %300 : tensor<8x16xf32> -> tensor<8x16xf32>
      %302 = tt.extract %arg7, 14 : tensor<32x64xf32, #triton_gpu.warp<{sizePerThread = [32, 64], threadsPerWarp = [1, 1], order = [1, 0]}>> -> tensor<8x16xf32>
      %303 = tt.extract %302, 0 : tensor<8x16xf32> -> tensor<8x16xf32>
      %304 = tt.extract %114, 0 : tensor<32x32xf16, #triton_gpu.dot_op<{opIdx = 0, parent = #triton_gpu.warp<{sizePerThread = [32, 64], threadsPerWarp = [1, 1], order = [1, 0]}>}>> -> tensor<32x32xf16>
      %305 = tt.extract %304, 2 : tensor<32x32xf16> -> tensor<8x16xf16>
      %306 = tt.extract %119, 1 : tensor<32x64xf16, #triton_gpu.dot_op<{opIdx = 1, parent = #triton_gpu.warp<{sizePerThread = [32, 64], threadsPerWarp = [1, 1], order = [1, 0]}>}>> -> tensor<32x32xf16>
      %307 = tt.extract %306, 2 : tensor<32x32xf16> -> tensor<16x16xf16>
      %308 = tt.dot %305, %307, %303 {allowTF32 = true, maxNumImpreciseAcc = 0 : i32} : tensor<8x16xf16> * tensor<16x16xf16> -> tensor<8x16xf32>
      %309 = tt.extract %114, 0 : tensor<32x32xf16, #triton_gpu.dot_op<{opIdx = 0, parent = #triton_gpu.warp<{sizePerThread = [32, 64], threadsPerWarp = [1, 1], order = [1, 0]}>}>> -> tensor<32x32xf16>
      %310 = tt.extract %309, 6 : tensor<32x32xf16> -> tensor<8x16xf16>
      %311 = tt.extract %119, 1 : tensor<32x64xf16, #triton_gpu.dot_op<{opIdx = 1, parent = #triton_gpu.warp<{sizePerThread = [32, 64], threadsPerWarp = [1, 1], order = [1, 0]}>}>> -> tensor<32x32xf16>
      %312 = tt.extract %311, 3 : tensor<32x32xf16> -> tensor<16x16xf16>
      %313 = tt.dot %310, %312, %308 {allowTF32 = true, maxNumImpreciseAcc = 0 : i32} : tensor<8x16xf16> * tensor<16x16xf16> -> tensor<8x16xf32>
      %314 = tt.glue %313 : tensor<8x16xf32> -> tensor<8x16xf32>
      %315 = tt.extract %arg7, 15 : tensor<32x64xf32, #triton_gpu.warp<{sizePerThread = [32, 64], threadsPerWarp = [1, 1], order = [1, 0]}>> -> tensor<8x16xf32>
      %316 = tt.extract %315, 0 : tensor<8x16xf32> -> tensor<8x16xf32>
      %317 = tt.extract %114, 0 : tensor<32x32xf16, #triton_gpu.dot_op<{opIdx = 0, parent = #triton_gpu.warp<{sizePerThread = [32, 64], threadsPerWarp = [1, 1], order = [1, 0]}>}>> -> tensor<32x32xf16>
      %318 = tt.extract %317, 3 : tensor<32x32xf16> -> tensor<8x16xf16>
      %319 = tt.extract %119, 1 : tensor<32x64xf16, #triton_gpu.dot_op<{opIdx = 1, parent = #triton_gpu.warp<{sizePerThread = [32, 64], threadsPerWarp = [1, 1], order = [1, 0]}>}>> -> tensor<32x32xf16>
      %320 = tt.extract %319, 2 : tensor<32x32xf16> -> tensor<16x16xf16>
      %321 = tt.dot %318, %320, %316 {allowTF32 = true, maxNumImpreciseAcc = 0 : i32} : tensor<8x16xf16> * tensor<16x16xf16> -> tensor<8x16xf32>
      %322 = tt.extract %114, 0 : tensor<32x32xf16, #triton_gpu.dot_op<{opIdx = 0, parent = #triton_gpu.warp<{sizePerThread = [32, 64], threadsPerWarp = [1, 1], order = [1, 0]}>}>> -> tensor<32x32xf16>
      %323 = tt.extract %322, 7 : tensor<32x32xf16> -> tensor<8x16xf16>
      %324 = tt.extract %119, 1 : tensor<32x64xf16, #triton_gpu.dot_op<{opIdx = 1, parent = #triton_gpu.warp<{sizePerThread = [32, 64], threadsPerWarp = [1, 1], order = [1, 0]}>}>> -> tensor<32x32xf16>
      %325 = tt.extract %324, 3 : tensor<32x32xf16> -> tensor<16x16xf16>
      %326 = tt.dot %323, %325, %321 {allowTF32 = true, maxNumImpreciseAcc = 0 : i32} : tensor<8x16xf16> * tensor<16x16xf16> -> tensor<8x16xf32>
      %327 = tt.glue %326 : tensor<8x16xf32> -> tensor<8x16xf32>
      %328 = tt.glue %132, %145, %158, %171, %184, %197, %210, %223, %236, %249, %262, %275, %288, %301, %314, %327 : tensor<8x16xf32>, tensor<8x16xf32>, tensor<8x16xf32>, tensor<8x16xf32>, tensor<8x16xf32>, tensor<8x16xf32>, tensor<8x16xf32>, tensor<8x16xf32>, tensor<8x16xf32>, tensor<8x16xf32>, tensor<8x16xf32>, tensor<8x16xf32>, tensor<8x16xf32>, tensor<8x16xf32>, tensor<8x16xf32>, tensor<8x16xf32> -> tensor<32x64xf32, #triton_gpu.warp<{sizePerThread = [32, 64], threadsPerWarp = [1, 1], order = [1, 0]}>>
      %329 = tt.extract %arg8, 0 : !tt.ptr<tensor<32x32xf16, #triton_gpu.dot_op<{opIdx = 0, parent = #triton_gpu.warp<{sizePerThread = [32, 64], threadsPerWarp = [1, 1], order = [1, 0]}>}>>, 1> -> !tt.ptr<tensor<32x32xf16>, 1>
      %330 = tt.advance %329, [%c0_i32, %c32_i32] : <tensor<32x32xf16>, 1>
      %331 = tt.glue %330 : !tt.ptr<tensor<32x32xf16>, 1> -> !tt.ptr<tensor<32x32xf16, #triton_gpu.dot_op<{opIdx = 0, parent = #triton_gpu.warp<{sizePerThread = [32, 64], threadsPerWarp = [1, 1], order = [1, 0]}>}>>, 1>
      %332 = tt.extract %arg9, 0 : !tt.ptr<tensor<32x64xf16, #triton_gpu.dot_op<{opIdx = 1, parent = #triton_gpu.warp<{sizePerThread = [32, 64], threadsPerWarp = [1, 1], order = [1, 0]}>}>>, 1> -> !tt.ptr<tensor<32x32xf16>, 1>
      %333 = tt.advance %332, [%c32_i32, %c0_i32] : <tensor<32x32xf16>, 1>
      %334 = tt.extract %arg9, 1 : !tt.ptr<tensor<32x64xf16, #triton_gpu.dot_op<{opIdx = 1, parent = #triton_gpu.warp<{sizePerThread = [32, 64], threadsPerWarp = [1, 1], order = [1, 0]}>}>>, 1> -> !tt.ptr<tensor<32x32xf16>, 1>
      %335 = tt.advance %334, [%c32_i32, %c0_i32] : <tensor<32x32xf16>, 1>
      %336 = tt.glue %333, %335 : !tt.ptr<tensor<32x32xf16>, 1>, !tt.ptr<tensor<32x32xf16>, 1> -> !tt.ptr<tensor<32x64xf16, #triton_gpu.dot_op<{opIdx = 1, parent = #triton_gpu.warp<{sizePerThread = [32, 64], threadsPerWarp = [1, 1], order = [1, 0]}>}>>, 1>
      scf.yield %328, %331, %336 : tensor<32x64xf32, #triton_gpu.warp<{sizePerThread = [32, 64], threadsPerWarp = [1, 1], order = [1, 0]}>>, !tt.ptr<tensor<32x32xf16, #triton_gpu.dot_op<{opIdx = 0, parent = #triton_gpu.warp<{sizePerThread = [32, 64], threadsPerWarp = [1, 1], order = [1, 0]}>}>>, 1>, !tt.ptr<tensor<32x64xf16, #triton_gpu.dot_op<{opIdx = 1, parent = #triton_gpu.warp<{sizePerThread = [32, 64], threadsPerWarp = [1, 1], order = [1, 0]}>}>>, 1>
    } {triton_gpu.workload = 3 : i32}
    %c4_i32_23 = arith.constant 4 : i32
    %31 = arith.divsi %1, %c4_i32_23 : i32
    %c8_i32_24 = arith.constant 8 : i32
    %32 = arith.remsi %31, %c8_i32_24 : i32
    %c32_i32_25 = arith.constant 32 : i32
    %33 = arith.muli %32, %c32_i32_25 : i32
    %34 = arith.addi %33, %12 : i32
    %c4_i32_26 = arith.constant 4 : i32
    %35 = arith.remsi %1, %c4_i32_26 : i32
    %c4_i32_27 = arith.constant 4 : i32
    %36 = arith.remsi %35, %c4_i32_27 : i32
    %c64_i32_28 = arith.constant 64 : i32
    %37 = arith.muli %36, %c64_i32_28 : i32
    %38 = arith.addi %37, %20 : i32
    %39 = tt.make_tensor_ptr %arg2, [%c4096_i64, %c4096_i64], [%c4096_i64, %c1_i64], [%34, %38] {order = array<i32: 1, 0>} : <tensor<8x16xf32>, 1>
    %c8_i32_29 = arith.constant 8 : i32
    %40 = arith.addi %34, %c8_i32_29 : i32
    %41 = tt.make_tensor_ptr %arg2, [%c4096_i64, %c4096_i64], [%c4096_i64, %c1_i64], [%40, %38] {order = array<i32: 1, 0>} : <tensor<8x16xf32>, 1>
    %c16_i32_30 = arith.constant 16 : i32
    %42 = arith.addi %34, %c16_i32_30 : i32
    %43 = tt.make_tensor_ptr %arg2, [%c4096_i64, %c4096_i64], [%c4096_i64, %c1_i64], [%42, %38] {order = array<i32: 1, 0>} : <tensor<8x16xf32>, 1>
    %c24_i32 = arith.constant 24 : i32
    %44 = arith.addi %34, %c24_i32 : i32
    %45 = tt.make_tensor_ptr %arg2, [%c4096_i64, %c4096_i64], [%c4096_i64, %c1_i64], [%44, %38] {order = array<i32: 1, 0>} : <tensor<8x16xf32>, 1>
    %c16_i32_31 = arith.constant 16 : i32
    %46 = arith.addi %38, %c16_i32_31 : i32
    %47 = tt.make_tensor_ptr %arg2, [%c4096_i64, %c4096_i64], [%c4096_i64, %c1_i64], [%34, %46] {order = array<i32: 1, 0>} : <tensor<8x16xf32>, 1>
    %c8_i32_32 = arith.constant 8 : i32
    %48 = arith.addi %34, %c8_i32_32 : i32
    %c16_i32_33 = arith.constant 16 : i32
    %49 = arith.addi %38, %c16_i32_33 : i32
    %50 = tt.make_tensor_ptr %arg2, [%c4096_i64, %c4096_i64], [%c4096_i64, %c1_i64], [%48, %49] {order = array<i32: 1, 0>} : <tensor<8x16xf32>, 1>
    %c16_i32_34 = arith.constant 16 : i32
    %51 = arith.addi %34, %c16_i32_34 : i32
    %c16_i32_35 = arith.constant 16 : i32
    %52 = arith.addi %38, %c16_i32_35 : i32
    %53 = tt.make_tensor_ptr %arg2, [%c4096_i64, %c4096_i64], [%c4096_i64, %c1_i64], [%51, %52] {order = array<i32: 1, 0>} : <tensor<8x16xf32>, 1>
    %c24_i32_36 = arith.constant 24 : i32
    %54 = arith.addi %34, %c24_i32_36 : i32
    %c16_i32_37 = arith.constant 16 : i32
    %55 = arith.addi %38, %c16_i32_37 : i32
    %56 = tt.make_tensor_ptr %arg2, [%c4096_i64, %c4096_i64], [%c4096_i64, %c1_i64], [%54, %55] {order = array<i32: 1, 0>} : <tensor<8x16xf32>, 1>
    %c32_i32_38 = arith.constant 32 : i32
    %57 = arith.addi %38, %c32_i32_38 : i32
    %58 = tt.make_tensor_ptr %arg2, [%c4096_i64, %c4096_i64], [%c4096_i64, %c1_i64], [%34, %57] {order = array<i32: 1, 0>} : <tensor<8x16xf32>, 1>
    %c8_i32_39 = arith.constant 8 : i32
    %59 = arith.addi %34, %c8_i32_39 : i32
    %c32_i32_40 = arith.constant 32 : i32
    %60 = arith.addi %38, %c32_i32_40 : i32
    %61 = tt.make_tensor_ptr %arg2, [%c4096_i64, %c4096_i64], [%c4096_i64, %c1_i64], [%59, %60] {order = array<i32: 1, 0>} : <tensor<8x16xf32>, 1>
    %c16_i32_41 = arith.constant 16 : i32
    %62 = arith.addi %34, %c16_i32_41 : i32
    %c32_i32_42 = arith.constant 32 : i32
    %63 = arith.addi %38, %c32_i32_42 : i32
    %64 = tt.make_tensor_ptr %arg2, [%c4096_i64, %c4096_i64], [%c4096_i64, %c1_i64], [%62, %63] {order = array<i32: 1, 0>} : <tensor<8x16xf32>, 1>
    %c24_i32_43 = arith.constant 24 : i32
    %65 = arith.addi %34, %c24_i32_43 : i32
    %c32_i32_44 = arith.constant 32 : i32
    %66 = arith.addi %38, %c32_i32_44 : i32
    %67 = tt.make_tensor_ptr %arg2, [%c4096_i64, %c4096_i64], [%c4096_i64, %c1_i64], [%65, %66] {order = array<i32: 1, 0>} : <tensor<8x16xf32>, 1>
    %c48_i32 = arith.constant 48 : i32
    %68 = arith.addi %38, %c48_i32 : i32
    %69 = tt.make_tensor_ptr %arg2, [%c4096_i64, %c4096_i64], [%c4096_i64, %c1_i64], [%34, %68] {order = array<i32: 1, 0>} : <tensor<8x16xf32>, 1>
    %c8_i32_45 = arith.constant 8 : i32
    %70 = arith.addi %34, %c8_i32_45 : i32
    %c48_i32_46 = arith.constant 48 : i32
    %71 = arith.addi %38, %c48_i32_46 : i32
    %72 = tt.make_tensor_ptr %arg2, [%c4096_i64, %c4096_i64], [%c4096_i64, %c1_i64], [%70, %71] {order = array<i32: 1, 0>} : <tensor<8x16xf32>, 1>
    %c16_i32_47 = arith.constant 16 : i32
    %73 = arith.addi %34, %c16_i32_47 : i32
    %c48_i32_48 = arith.constant 48 : i32
    %74 = arith.addi %38, %c48_i32_48 : i32
    %75 = tt.make_tensor_ptr %arg2, [%c4096_i64, %c4096_i64], [%c4096_i64, %c1_i64], [%73, %74] {order = array<i32: 1, 0>} : <tensor<8x16xf32>, 1>
    %c24_i32_49 = arith.constant 24 : i32
    %76 = arith.addi %34, %c24_i32_49 : i32
    %c48_i32_50 = arith.constant 48 : i32
    %77 = arith.addi %38, %c48_i32_50 : i32
    %78 = tt.make_tensor_ptr %arg2, [%c4096_i64, %c4096_i64], [%c4096_i64, %c1_i64], [%76, %77] {order = array<i32: 1, 0>} : <tensor<8x16xf32>, 1>
    %79 = tt.glue %39, %41, %43, %45, %47, %50, %53, %56, %58, %61, %64, %67, %69, %72, %75, %78 : !tt.ptr<tensor<8x16xf32>, 1>, !tt.ptr<tensor<8x16xf32>, 1>, !tt.ptr<tensor<8x16xf32>, 1>, !tt.ptr<tensor<8x16xf32>, 1>, !tt.ptr<tensor<8x16xf32>, 1>, !tt.ptr<tensor<8x16xf32>, 1>, !tt.ptr<tensor<8x16xf32>, 1>, !tt.ptr<tensor<8x16xf32>, 1>, !tt.ptr<tensor<8x16xf32>, 1>, !tt.ptr<tensor<8x16xf32>, 1>, !tt.ptr<tensor<8x16xf32>, 1>, !tt.ptr<tensor<8x16xf32>, 1>, !tt.ptr<tensor<8x16xf32>, 1>, !tt.ptr<tensor<8x16xf32>, 1>, !tt.ptr<tensor<8x16xf32>, 1>, !tt.ptr<tensor<8x16xf32>, 1> -> !tt.ptr<tensor<32x64xf32, #triton_gpu.warp<{sizePerThread = [32, 64], threadsPerWarp = [1, 1], order = [1, 0]}>>, 1>
    %80 = tt.extract %79, 0 : !tt.ptr<tensor<32x64xf32, #triton_gpu.warp<{sizePerThread = [32, 64], threadsPerWarp = [1, 1], order = [1, 0]}>>, 1> -> !tt.ptr<tensor<8x16xf32>, 1>
    %81 = tt.extract %30#0, 0 : tensor<32x64xf32, #triton_gpu.warp<{sizePerThread = [32, 64], threadsPerWarp = [1, 1], order = [1, 0]}>> -> tensor<8x16xf32>
    tt.store %80, %81 {boundaryCheck = array<i32: 0, 1>, cache = 1 : i32, evict = 1 : i32} : !tt.ptr<tensor<8x16xf32>, 1>, tensor<8x16xf32>
    %82 = tt.extract %79, 1 : !tt.ptr<tensor<32x64xf32, #triton_gpu.warp<{sizePerThread = [32, 64], threadsPerWarp = [1, 1], order = [1, 0]}>>, 1> -> !tt.ptr<tensor<8x16xf32>, 1>
    %83 = tt.extract %30#0, 1 : tensor<32x64xf32, #triton_gpu.warp<{sizePerThread = [32, 64], threadsPerWarp = [1, 1], order = [1, 0]}>> -> tensor<8x16xf32>
    tt.store %82, %83 {boundaryCheck = array<i32: 0, 1>, cache = 1 : i32, evict = 1 : i32} : !tt.ptr<tensor<8x16xf32>, 1>, tensor<8x16xf32>
    %84 = tt.extract %79, 2 : !tt.ptr<tensor<32x64xf32, #triton_gpu.warp<{sizePerThread = [32, 64], threadsPerWarp = [1, 1], order = [1, 0]}>>, 1> -> !tt.ptr<tensor<8x16xf32>, 1>
    %85 = tt.extract %30#0, 2 : tensor<32x64xf32, #triton_gpu.warp<{sizePerThread = [32, 64], threadsPerWarp = [1, 1], order = [1, 0]}>> -> tensor<8x16xf32>
    tt.store %84, %85 {boundaryCheck = array<i32: 0, 1>, cache = 1 : i32, evict = 1 : i32} : !tt.ptr<tensor<8x16xf32>, 1>, tensor<8x16xf32>
    %86 = tt.extract %79, 3 : !tt.ptr<tensor<32x64xf32, #triton_gpu.warp<{sizePerThread = [32, 64], threadsPerWarp = [1, 1], order = [1, 0]}>>, 1> -> !tt.ptr<tensor<8x16xf32>, 1>
    %87 = tt.extract %30#0, 3 : tensor<32x64xf32, #triton_gpu.warp<{sizePerThread = [32, 64], threadsPerWarp = [1, 1], order = [1, 0]}>> -> tensor<8x16xf32>
    tt.store %86, %87 {boundaryCheck = array<i32: 0, 1>, cache = 1 : i32, evict = 1 : i32} : !tt.ptr<tensor<8x16xf32>, 1>, tensor<8x16xf32>
    %88 = tt.extract %79, 4 : !tt.ptr<tensor<32x64xf32, #triton_gpu.warp<{sizePerThread = [32, 64], threadsPerWarp = [1, 1], order = [1, 0]}>>, 1> -> !tt.ptr<tensor<8x16xf32>, 1>
    %89 = tt.extract %30#0, 4 : tensor<32x64xf32, #triton_gpu.warp<{sizePerThread = [32, 64], threadsPerWarp = [1, 1], order = [1, 0]}>> -> tensor<8x16xf32>
    tt.store %88, %89 {boundaryCheck = array<i32: 0, 1>, cache = 1 : i32, evict = 1 : i32} : !tt.ptr<tensor<8x16xf32>, 1>, tensor<8x16xf32>
    %90 = tt.extract %79, 5 : !tt.ptr<tensor<32x64xf32, #triton_gpu.warp<{sizePerThread = [32, 64], threadsPerWarp = [1, 1], order = [1, 0]}>>, 1> -> !tt.ptr<tensor<8x16xf32>, 1>
    %91 = tt.extract %30#0, 5 : tensor<32x64xf32, #triton_gpu.warp<{sizePerThread = [32, 64], threadsPerWarp = [1, 1], order = [1, 0]}>> -> tensor<8x16xf32>
    tt.store %90, %91 {boundaryCheck = array<i32: 0, 1>, cache = 1 : i32, evict = 1 : i32} : !tt.ptr<tensor<8x16xf32>, 1>, tensor<8x16xf32>
    %92 = tt.extract %79, 6 : !tt.ptr<tensor<32x64xf32, #triton_gpu.warp<{sizePerThread = [32, 64], threadsPerWarp = [1, 1], order = [1, 0]}>>, 1> -> !tt.ptr<tensor<8x16xf32>, 1>
    %93 = tt.extract %30#0, 6 : tensor<32x64xf32, #triton_gpu.warp<{sizePerThread = [32, 64], threadsPerWarp = [1, 1], order = [1, 0]}>> -> tensor<8x16xf32>
    tt.store %92, %93 {boundaryCheck = array<i32: 0, 1>, cache = 1 : i32, evict = 1 : i32} : !tt.ptr<tensor<8x16xf32>, 1>, tensor<8x16xf32>
    %94 = tt.extract %79, 7 : !tt.ptr<tensor<32x64xf32, #triton_gpu.warp<{sizePerThread = [32, 64], threadsPerWarp = [1, 1], order = [1, 0]}>>, 1> -> !tt.ptr<tensor<8x16xf32>, 1>
    %95 = tt.extract %30#0, 7 : tensor<32x64xf32, #triton_gpu.warp<{sizePerThread = [32, 64], threadsPerWarp = [1, 1], order = [1, 0]}>> -> tensor<8x16xf32>
    tt.store %94, %95 {boundaryCheck = array<i32: 0, 1>, cache = 1 : i32, evict = 1 : i32} : !tt.ptr<tensor<8x16xf32>, 1>, tensor<8x16xf32>
    %96 = tt.extract %79, 8 : !tt.ptr<tensor<32x64xf32, #triton_gpu.warp<{sizePerThread = [32, 64], threadsPerWarp = [1, 1], order = [1, 0]}>>, 1> -> !tt.ptr<tensor<8x16xf32>, 1>
    %97 = tt.extract %30#0, 8 : tensor<32x64xf32, #triton_gpu.warp<{sizePerThread = [32, 64], threadsPerWarp = [1, 1], order = [1, 0]}>> -> tensor<8x16xf32>
    tt.store %96, %97 {boundaryCheck = array<i32: 0, 1>, cache = 1 : i32, evict = 1 : i32} : !tt.ptr<tensor<8x16xf32>, 1>, tensor<8x16xf32>
    %98 = tt.extract %79, 9 : !tt.ptr<tensor<32x64xf32, #triton_gpu.warp<{sizePerThread = [32, 64], threadsPerWarp = [1, 1], order = [1, 0]}>>, 1> -> !tt.ptr<tensor<8x16xf32>, 1>
    %99 = tt.extract %30#0, 9 : tensor<32x64xf32, #triton_gpu.warp<{sizePerThread = [32, 64], threadsPerWarp = [1, 1], order = [1, 0]}>> -> tensor<8x16xf32>
    tt.store %98, %99 {boundaryCheck = array<i32: 0, 1>, cache = 1 : i32, evict = 1 : i32} : !tt.ptr<tensor<8x16xf32>, 1>, tensor<8x16xf32>
    %100 = tt.extract %79, 10 : !tt.ptr<tensor<32x64xf32, #triton_gpu.warp<{sizePerThread = [32, 64], threadsPerWarp = [1, 1], order = [1, 0]}>>, 1> -> !tt.ptr<tensor<8x16xf32>, 1>
    %101 = tt.extract %30#0, 10 : tensor<32x64xf32, #triton_gpu.warp<{sizePerThread = [32, 64], threadsPerWarp = [1, 1], order = [1, 0]}>> -> tensor<8x16xf32>
    tt.store %100, %101 {boundaryCheck = array<i32: 0, 1>, cache = 1 : i32, evict = 1 : i32} : !tt.ptr<tensor<8x16xf32>, 1>, tensor<8x16xf32>
    %102 = tt.extract %79, 11 : !tt.ptr<tensor<32x64xf32, #triton_gpu.warp<{sizePerThread = [32, 64], threadsPerWarp = [1, 1], order = [1, 0]}>>, 1> -> !tt.ptr<tensor<8x16xf32>, 1>
    %103 = tt.extract %30#0, 11 : tensor<32x64xf32, #triton_gpu.warp<{sizePerThread = [32, 64], threadsPerWarp = [1, 1], order = [1, 0]}>> -> tensor<8x16xf32>
    tt.store %102, %103 {boundaryCheck = array<i32: 0, 1>, cache = 1 : i32, evict = 1 : i32} : !tt.ptr<tensor<8x16xf32>, 1>, tensor<8x16xf32>
    %104 = tt.extract %79, 12 : !tt.ptr<tensor<32x64xf32, #triton_gpu.warp<{sizePerThread = [32, 64], threadsPerWarp = [1, 1], order = [1, 0]}>>, 1> -> !tt.ptr<tensor<8x16xf32>, 1>
    %105 = tt.extract %30#0, 12 : tensor<32x64xf32, #triton_gpu.warp<{sizePerThread = [32, 64], threadsPerWarp = [1, 1], order = [1, 0]}>> -> tensor<8x16xf32>
    tt.store %104, %105 {boundaryCheck = array<i32: 0, 1>, cache = 1 : i32, evict = 1 : i32} : !tt.ptr<tensor<8x16xf32>, 1>, tensor<8x16xf32>
    %106 = tt.extract %79, 13 : !tt.ptr<tensor<32x64xf32, #triton_gpu.warp<{sizePerThread = [32, 64], threadsPerWarp = [1, 1], order = [1, 0]}>>, 1> -> !tt.ptr<tensor<8x16xf32>, 1>
    %107 = tt.extract %30#0, 13 : tensor<32x64xf32, #triton_gpu.warp<{sizePerThread = [32, 64], threadsPerWarp = [1, 1], order = [1, 0]}>> -> tensor<8x16xf32>
    tt.store %106, %107 {boundaryCheck = array<i32: 0, 1>, cache = 1 : i32, evict = 1 : i32} : !tt.ptr<tensor<8x16xf32>, 1>, tensor<8x16xf32>
    %108 = tt.extract %79, 14 : !tt.ptr<tensor<32x64xf32, #triton_gpu.warp<{sizePerThread = [32, 64], threadsPerWarp = [1, 1], order = [1, 0]}>>, 1> -> !tt.ptr<tensor<8x16xf32>, 1>
    %109 = tt.extract %30#0, 14 : tensor<32x64xf32, #triton_gpu.warp<{sizePerThread = [32, 64], threadsPerWarp = [1, 1], order = [1, 0]}>> -> tensor<8x16xf32>
    tt.store %108, %109 {boundaryCheck = array<i32: 0, 1>, cache = 1 : i32, evict = 1 : i32} : !tt.ptr<tensor<8x16xf32>, 1>, tensor<8x16xf32>
    %110 = tt.extract %79, 15 : !tt.ptr<tensor<32x64xf32, #triton_gpu.warp<{sizePerThread = [32, 64], threadsPerWarp = [1, 1], order = [1, 0]}>>, 1> -> !tt.ptr<tensor<8x16xf32>, 1>
    %111 = tt.extract %30#0, 15 : tensor<32x64xf32, #triton_gpu.warp<{sizePerThread = [32, 64], threadsPerWarp = [1, 1], order = [1, 0]}>> -> tensor<8x16xf32>
    tt.store %110, %111 {boundaryCheck = array<i32: 0, 1>, cache = 1 : i32, evict = 1 : i32} : !tt.ptr<tensor<8x16xf32>, 1>, tensor<8x16xf32>
    tt.return
  }
}
// -----// IR Dump Before TritonGPUPrepareGenxLsc (tritongpu-prepare-genxlsc) ('builtin.module' operation) //----- //
#loc = loc(unknown)
module attributes {"triton_gpu.compute-capability" = 90 : i32, "triton_gpu.num-ctas" = 1 : i32, "triton_gpu.num-warps" = 32 : i32, "triton_gpu.threads-per-warp" = 1 : i32} {
  tt.func public @matmul_kernel_with_block_pointers_0d1d2d3d4d5d(%arg0: !tt.ptr<f16, 1> {tt.divisibility = 16 : i32} loc(unknown), %arg1: !tt.ptr<f16, 1> {tt.divisibility = 16 : i32} loc(unknown), %arg2: !tt.ptr<f32, 1> {tt.divisibility = 16 : i32} loc(unknown), %arg3: i32 {tt.divisibility = 16 : i32} loc(unknown), %arg4: i32 {tt.divisibility = 16 : i32} loc(unknown), %arg5: i32 {tt.divisibility = 16 : i32} loc(unknown)) attributes {noinline = false} {
    %c3_i32 = arith.constant 3 : i32 loc(#loc)
    %c7_i32 = arith.constant 7 : i32 loc(#loc)
    %c63_i32 = arith.constant 63 : i32 loc(#loc)
    %c48_i32 = arith.constant 48 : i32 loc(#loc)
    %c24_i32 = arith.constant 24 : i32 loc(#loc)
    %c8_i32 = arith.constant 8 : i32 loc(#loc)
    %c4_i32 = arith.constant 4 : i32 loc(#loc)
    %c256_i32 = arith.constant 256 : i32 loc(#loc)
    %c4096_i64 = arith.constant 4096 : i64 loc(#loc)
    %c1_i64 = arith.constant 1 : i64 loc(#loc)
    %c0_i32 = arith.constant 0 : i32 loc(#loc)
    %c32_i32 = arith.constant 32 : i32 loc(#loc)
    %cst = arith.constant dense<0.000000e+00> : tensor<8x16xf32> loc(#loc)
    %c4096_i32 = arith.constant 4096 : i32 loc(#loc)
    %c16_i32 = arith.constant 16 : i32 loc(#loc)
    %c64_i32 = arith.constant 64 : i32 loc(#loc)
    %0 = gpu.subgroup_id : index loc(#loc)
    %1 = arith.index_cast %0 : index to i32 loc(#loc)
    %2 = tt.get_program_id x : i32 loc(#loc)
    %3 = arith.divsi %2, %c64_i32 : i32 loc(#loc)
    %4 = arith.muli %3, %c4_i32 : i32 loc(#loc)
    %5 = arith.subi %c16_i32, %4 : i32 loc(#loc)
    %6 = arith.minsi %5, %c4_i32 : i32 loc(#loc)
    %7 = arith.remsi %2, %6 : i32 loc(#loc)
    %8 = arith.addi %4, %7 : i32 loc(#loc)
    %9 = arith.andi %2, %c63_i32 : i32 loc(#loc)
    %10 = arith.divsi %9, %6 : i32 loc(#loc)
    %11 = arith.muli %8, %c256_i32 : i32 loc(#loc)
    %12 = arith.divsi %1, %c4_i32 : i32 loc(#loc)
    %13 = arith.andi %12, %c7_i32 : i32 loc(#loc)
    %14 = arith.muli %13, %c32_i32 : i32 loc(#loc)
    %15 = arith.addi %14, %11 : i32 loc(#loc)
    %16 = tt.make_tensor_ptr %arg0, [%c4096_i64, %c4096_i64], [%c4096_i64, %c1_i64], [%15, %c0_i32] {order = array<i32: 1, 0>} : <tensor<32x32xf16>, 1> loc(#loc)
    %17 = arith.muli %10, %c256_i32 : i32 loc(#loc)
    %18 = arith.andi %1, %c3_i32 : i32 loc(#loc)
    %19 = arith.muli %18, %c64_i32 : i32 loc(#loc)
    %20 = arith.addi %19, %17 : i32 loc(#loc)
    %21 = tt.make_tensor_ptr %arg1, [%c4096_i64, %c4096_i64], [%c4096_i64, %c1_i64], [%c0_i32, %20] {order = array<i32: 1, 0>} : <tensor<32x32xf16>, 1> loc(#loc)
    %22 = arith.addi %20, %c32_i32 : i32 loc(#loc)
    %23 = tt.make_tensor_ptr %arg1, [%c4096_i64, %c4096_i64], [%c4096_i64, %c1_i64], [%c0_i32, %22] {order = array<i32: 1, 0>} : <tensor<32x32xf16>, 1> loc(#loc)
    %24:19 = scf.for %arg6 = %c0_i32 to %c4096_i32 step %c32_i32 iter_args(%arg7 = %cst, %arg8 = %cst, %arg9 = %cst, %arg10 = %cst, %arg11 = %cst, %arg12 = %cst, %arg13 = %cst, %arg14 = %cst, %arg15 = %cst, %arg16 = %cst, %arg17 = %cst, %arg18 = %cst, %arg19 = %cst, %arg20 = %cst, %arg21 = %cst, %arg22 = %cst, %arg23 = %16, %arg24 = %21, %arg25 = %23) -> (tensor<8x16xf32>, tensor<8x16xf32>, tensor<8x16xf32>, tensor<8x16xf32>, tensor<8x16xf32>, tensor<8x16xf32>, tensor<8x16xf32>, tensor<8x16xf32>, tensor<8x16xf32>, tensor<8x16xf32>, tensor<8x16xf32>, tensor<8x16xf32>, tensor<8x16xf32>, tensor<8x16xf32>, tensor<8x16xf32>, tensor<8x16xf32>, !tt.ptr<tensor<32x32xf16>, 1>, !tt.ptr<tensor<32x32xf16>, 1>, !tt.ptr<tensor<32x32xf16>, 1>)  : i32 {
      %72 = tt.load %arg23 {DotIdx = 0 : i32, boundaryCheck = array<i32: 0, 1>, cache = 1 : i32, evict = 1 : i32, isVolatile = false} : !tt.ptr<tensor<32x32xf16>, 1> -> tensor<32x32xf16> loc(#loc)
      %73 = tt.load %arg24 {DotIdx = 1 : i32, boundaryCheck = array<i32: 0, 1>, cache = 1 : i32, evict = 1 : i32, isVolatile = false} : !tt.ptr<tensor<32x32xf16>, 1> -> tensor<32x32xf16> loc(#loc)
      %74 = tt.load %arg25 {DotIdx = 1 : i32, boundaryCheck = array<i32: 0, 1>, cache = 1 : i32, evict = 1 : i32, isVolatile = false} : !tt.ptr<tensor<32x32xf16>, 1> -> tensor<32x32xf16> loc(#loc)
      %75 = tt.extract %72, 0 : tensor<32x32xf16> -> tensor<8x16xf16> loc(#loc)
      %76 = tt.extract %73, 0 : tensor<32x32xf16> -> tensor<16x16xf16> loc(#loc)
      %77 = tt.dot %75, %76, %arg7 {allowTF32 = true, maxNumImpreciseAcc = 0 : i32} : tensor<8x16xf16> * tensor<16x16xf16> -> tensor<8x16xf32> loc(#loc)
      %78 = tt.extract %72, 4 : tensor<32x32xf16> -> tensor<8x16xf16> loc(#loc)
      %79 = tt.extract %73, 1 : tensor<32x32xf16> -> tensor<16x16xf16> loc(#loc)
      %80 = tt.dot %78, %79, %77 {allowTF32 = true, maxNumImpreciseAcc = 0 : i32} : tensor<8x16xf16> * tensor<16x16xf16> -> tensor<8x16xf32> loc(#loc)
      %81 = tt.glue %80 : tensor<8x16xf32> -> tensor<8x16xf32> loc(#loc)
      %82 = tt.extract %72, 1 : tensor<32x32xf16> -> tensor<8x16xf16> loc(#loc)
      %83 = tt.extract %73, 0 : tensor<32x32xf16> -> tensor<16x16xf16> loc(#loc)
      %84 = tt.dot %82, %83, %arg8 {allowTF32 = true, maxNumImpreciseAcc = 0 : i32} : tensor<8x16xf16> * tensor<16x16xf16> -> tensor<8x16xf32> loc(#loc)
      %85 = tt.extract %72, 5 : tensor<32x32xf16> -> tensor<8x16xf16> loc(#loc)
      %86 = tt.extract %73, 1 : tensor<32x32xf16> -> tensor<16x16xf16> loc(#loc)
      %87 = tt.dot %85, %86, %84 {allowTF32 = true, maxNumImpreciseAcc = 0 : i32} : tensor<8x16xf16> * tensor<16x16xf16> -> tensor<8x16xf32> loc(#loc)
      %88 = tt.glue %87 : tensor<8x16xf32> -> tensor<8x16xf32> loc(#loc)
      %89 = tt.extract %72, 2 : tensor<32x32xf16> -> tensor<8x16xf16> loc(#loc)
      %90 = tt.extract %73, 0 : tensor<32x32xf16> -> tensor<16x16xf16> loc(#loc)
      %91 = tt.dot %89, %90, %arg9 {allowTF32 = true, maxNumImpreciseAcc = 0 : i32} : tensor<8x16xf16> * tensor<16x16xf16> -> tensor<8x16xf32> loc(#loc)
      %92 = tt.extract %72, 6 : tensor<32x32xf16> -> tensor<8x16xf16> loc(#loc)
      %93 = tt.extract %73, 1 : tensor<32x32xf16> -> tensor<16x16xf16> loc(#loc)
      %94 = tt.dot %92, %93, %91 {allowTF32 = true, maxNumImpreciseAcc = 0 : i32} : tensor<8x16xf16> * tensor<16x16xf16> -> tensor<8x16xf32> loc(#loc)
      %95 = tt.glue %94 : tensor<8x16xf32> -> tensor<8x16xf32> loc(#loc)
      %96 = tt.extract %72, 3 : tensor<32x32xf16> -> tensor<8x16xf16> loc(#loc)
      %97 = tt.extract %73, 0 : tensor<32x32xf16> -> tensor<16x16xf16> loc(#loc)
      %98 = tt.dot %96, %97, %arg10 {allowTF32 = true, maxNumImpreciseAcc = 0 : i32} : tensor<8x16xf16> * tensor<16x16xf16> -> tensor<8x16xf32> loc(#loc)
      %99 = tt.extract %72, 7 : tensor<32x32xf16> -> tensor<8x16xf16> loc(#loc)
      %100 = tt.extract %73, 1 : tensor<32x32xf16> -> tensor<16x16xf16> loc(#loc)
      %101 = tt.dot %99, %100, %98 {allowTF32 = true, maxNumImpreciseAcc = 0 : i32} : tensor<8x16xf16> * tensor<16x16xf16> -> tensor<8x16xf32> loc(#loc)
      %102 = tt.glue %101 : tensor<8x16xf32> -> tensor<8x16xf32> loc(#loc)
      %103 = tt.extract %72, 0 : tensor<32x32xf16> -> tensor<8x16xf16> loc(#loc)
      %104 = tt.extract %73, 2 : tensor<32x32xf16> -> tensor<16x16xf16> loc(#loc)
      %105 = tt.dot %103, %104, %arg11 {allowTF32 = true, maxNumImpreciseAcc = 0 : i32} : tensor<8x16xf16> * tensor<16x16xf16> -> tensor<8x16xf32> loc(#loc)
      %106 = tt.extract %72, 4 : tensor<32x32xf16> -> tensor<8x16xf16> loc(#loc)
      %107 = tt.extract %73, 3 : tensor<32x32xf16> -> tensor<16x16xf16> loc(#loc)
      %108 = tt.dot %106, %107, %105 {allowTF32 = true, maxNumImpreciseAcc = 0 : i32} : tensor<8x16xf16> * tensor<16x16xf16> -> tensor<8x16xf32> loc(#loc)
      %109 = tt.glue %108 : tensor<8x16xf32> -> tensor<8x16xf32> loc(#loc)
      %110 = tt.extract %72, 1 : tensor<32x32xf16> -> tensor<8x16xf16> loc(#loc)
      %111 = tt.extract %73, 2 : tensor<32x32xf16> -> tensor<16x16xf16> loc(#loc)
      %112 = tt.dot %110, %111, %arg12 {allowTF32 = true, maxNumImpreciseAcc = 0 : i32} : tensor<8x16xf16> * tensor<16x16xf16> -> tensor<8x16xf32> loc(#loc)
      %113 = tt.extract %72, 5 : tensor<32x32xf16> -> tensor<8x16xf16> loc(#loc)
      %114 = tt.extract %73, 3 : tensor<32x32xf16> -> tensor<16x16xf16> loc(#loc)
      %115 = tt.dot %113, %114, %112 {allowTF32 = true, maxNumImpreciseAcc = 0 : i32} : tensor<8x16xf16> * tensor<16x16xf16> -> tensor<8x16xf32> loc(#loc)
      %116 = tt.glue %115 : tensor<8x16xf32> -> tensor<8x16xf32> loc(#loc)
      %117 = tt.extract %72, 2 : tensor<32x32xf16> -> tensor<8x16xf16> loc(#loc)
      %118 = tt.extract %73, 2 : tensor<32x32xf16> -> tensor<16x16xf16> loc(#loc)
      %119 = tt.dot %117, %118, %arg13 {allowTF32 = true, maxNumImpreciseAcc = 0 : i32} : tensor<8x16xf16> * tensor<16x16xf16> -> tensor<8x16xf32> loc(#loc)
      %120 = tt.extract %72, 6 : tensor<32x32xf16> -> tensor<8x16xf16> loc(#loc)
      %121 = tt.extract %73, 3 : tensor<32x32xf16> -> tensor<16x16xf16> loc(#loc)
      %122 = tt.dot %120, %121, %119 {allowTF32 = true, maxNumImpreciseAcc = 0 : i32} : tensor<8x16xf16> * tensor<16x16xf16> -> tensor<8x16xf32> loc(#loc)
      %123 = tt.glue %122 : tensor<8x16xf32> -> tensor<8x16xf32> loc(#loc)
      %124 = tt.extract %72, 3 : tensor<32x32xf16> -> tensor<8x16xf16> loc(#loc)
      %125 = tt.extract %73, 2 : tensor<32x32xf16> -> tensor<16x16xf16> loc(#loc)
      %126 = tt.dot %124, %125, %arg14 {allowTF32 = true, maxNumImpreciseAcc = 0 : i32} : tensor<8x16xf16> * tensor<16x16xf16> -> tensor<8x16xf32> loc(#loc)
      %127 = tt.extract %72, 7 : tensor<32x32xf16> -> tensor<8x16xf16> loc(#loc)
      %128 = tt.extract %73, 3 : tensor<32x32xf16> -> tensor<16x16xf16> loc(#loc)
      %129 = tt.dot %127, %128, %126 {allowTF32 = true, maxNumImpreciseAcc = 0 : i32} : tensor<8x16xf16> * tensor<16x16xf16> -> tensor<8x16xf32> loc(#loc)
      %130 = tt.glue %129 : tensor<8x16xf32> -> tensor<8x16xf32> loc(#loc)
      %131 = tt.extract %72, 0 : tensor<32x32xf16> -> tensor<8x16xf16> loc(#loc)
      %132 = tt.extract %74, 0 : tensor<32x32xf16> -> tensor<16x16xf16> loc(#loc)
      %133 = tt.dot %131, %132, %arg15 {allowTF32 = true, maxNumImpreciseAcc = 0 : i32} : tensor<8x16xf16> * tensor<16x16xf16> -> tensor<8x16xf32> loc(#loc)
      %134 = tt.extract %72, 4 : tensor<32x32xf16> -> tensor<8x16xf16> loc(#loc)
      %135 = tt.extract %74, 1 : tensor<32x32xf16> -> tensor<16x16xf16> loc(#loc)
      %136 = tt.dot %134, %135, %133 {allowTF32 = true, maxNumImpreciseAcc = 0 : i32} : tensor<8x16xf16> * tensor<16x16xf16> -> tensor<8x16xf32> loc(#loc)
      %137 = tt.glue %136 : tensor<8x16xf32> -> tensor<8x16xf32> loc(#loc)
      %138 = tt.extract %72, 1 : tensor<32x32xf16> -> tensor<8x16xf16> loc(#loc)
      %139 = tt.extract %74, 0 : tensor<32x32xf16> -> tensor<16x16xf16> loc(#loc)
      %140 = tt.dot %138, %139, %arg16 {allowTF32 = true, maxNumImpreciseAcc = 0 : i32} : tensor<8x16xf16> * tensor<16x16xf16> -> tensor<8x16xf32> loc(#loc)
      %141 = tt.extract %72, 5 : tensor<32x32xf16> -> tensor<8x16xf16> loc(#loc)
      %142 = tt.extract %74, 1 : tensor<32x32xf16> -> tensor<16x16xf16> loc(#loc)
      %143 = tt.dot %141, %142, %140 {allowTF32 = true, maxNumImpreciseAcc = 0 : i32} : tensor<8x16xf16> * tensor<16x16xf16> -> tensor<8x16xf32> loc(#loc)
      %144 = tt.glue %143 : tensor<8x16xf32> -> tensor<8x16xf32> loc(#loc)
      %145 = tt.extract %72, 2 : tensor<32x32xf16> -> tensor<8x16xf16> loc(#loc)
      %146 = tt.extract %74, 0 : tensor<32x32xf16> -> tensor<16x16xf16> loc(#loc)
      %147 = tt.dot %145, %146, %arg17 {allowTF32 = true, maxNumImpreciseAcc = 0 : i32} : tensor<8x16xf16> * tensor<16x16xf16> -> tensor<8x16xf32> loc(#loc)
      %148 = tt.extract %72, 6 : tensor<32x32xf16> -> tensor<8x16xf16> loc(#loc)
      %149 = tt.extract %74, 1 : tensor<32x32xf16> -> tensor<16x16xf16> loc(#loc)
      %150 = tt.dot %148, %149, %147 {allowTF32 = true, maxNumImpreciseAcc = 0 : i32} : tensor<8x16xf16> * tensor<16x16xf16> -> tensor<8x16xf32> loc(#loc)
      %151 = tt.glue %150 : tensor<8x16xf32> -> tensor<8x16xf32> loc(#loc)
      %152 = tt.extract %72, 3 : tensor<32x32xf16> -> tensor<8x16xf16> loc(#loc)
      %153 = tt.extract %74, 0 : tensor<32x32xf16> -> tensor<16x16xf16> loc(#loc)
      %154 = tt.dot %152, %153, %arg18 {allowTF32 = true, maxNumImpreciseAcc = 0 : i32} : tensor<8x16xf16> * tensor<16x16xf16> -> tensor<8x16xf32> loc(#loc)
      %155 = tt.extract %72, 7 : tensor<32x32xf16> -> tensor<8x16xf16> loc(#loc)
      %156 = tt.extract %74, 1 : tensor<32x32xf16> -> tensor<16x16xf16> loc(#loc)
      %157 = tt.dot %155, %156, %154 {allowTF32 = true, maxNumImpreciseAcc = 0 : i32} : tensor<8x16xf16> * tensor<16x16xf16> -> tensor<8x16xf32> loc(#loc)
      %158 = tt.glue %157 : tensor<8x16xf32> -> tensor<8x16xf32> loc(#loc)
      %159 = tt.extract %72, 0 : tensor<32x32xf16> -> tensor<8x16xf16> loc(#loc)
      %160 = tt.extract %74, 2 : tensor<32x32xf16> -> tensor<16x16xf16> loc(#loc)
      %161 = tt.dot %159, %160, %arg19 {allowTF32 = true, maxNumImpreciseAcc = 0 : i32} : tensor<8x16xf16> * tensor<16x16xf16> -> tensor<8x16xf32> loc(#loc)
      %162 = tt.extract %72, 4 : tensor<32x32xf16> -> tensor<8x16xf16> loc(#loc)
      %163 = tt.extract %74, 3 : tensor<32x32xf16> -> tensor<16x16xf16> loc(#loc)
      %164 = tt.dot %162, %163, %161 {allowTF32 = true, maxNumImpreciseAcc = 0 : i32} : tensor<8x16xf16> * tensor<16x16xf16> -> tensor<8x16xf32> loc(#loc)
      %165 = tt.glue %164 : tensor<8x16xf32> -> tensor<8x16xf32> loc(#loc)
      %166 = tt.extract %72, 1 : tensor<32x32xf16> -> tensor<8x16xf16> loc(#loc)
      %167 = tt.extract %74, 2 : tensor<32x32xf16> -> tensor<16x16xf16> loc(#loc)
      %168 = tt.dot %166, %167, %arg20 {allowTF32 = true, maxNumImpreciseAcc = 0 : i32} : tensor<8x16xf16> * tensor<16x16xf16> -> tensor<8x16xf32> loc(#loc)
      %169 = tt.extract %72, 5 : tensor<32x32xf16> -> tensor<8x16xf16> loc(#loc)
      %170 = tt.extract %74, 3 : tensor<32x32xf16> -> tensor<16x16xf16> loc(#loc)
      %171 = tt.dot %169, %170, %168 {allowTF32 = true, maxNumImpreciseAcc = 0 : i32} : tensor<8x16xf16> * tensor<16x16xf16> -> tensor<8x16xf32> loc(#loc)
      %172 = tt.glue %171 : tensor<8x16xf32> -> tensor<8x16xf32> loc(#loc)
      %173 = tt.extract %72, 2 : tensor<32x32xf16> -> tensor<8x16xf16> loc(#loc)
      %174 = tt.extract %74, 2 : tensor<32x32xf16> -> tensor<16x16xf16> loc(#loc)
      %175 = tt.dot %173, %174, %arg21 {allowTF32 = true, maxNumImpreciseAcc = 0 : i32} : tensor<8x16xf16> * tensor<16x16xf16> -> tensor<8x16xf32> loc(#loc)
      %176 = tt.extract %72, 6 : tensor<32x32xf16> -> tensor<8x16xf16> loc(#loc)
      %177 = tt.extract %74, 3 : tensor<32x32xf16> -> tensor<16x16xf16> loc(#loc)
      %178 = tt.dot %176, %177, %175 {allowTF32 = true, maxNumImpreciseAcc = 0 : i32} : tensor<8x16xf16> * tensor<16x16xf16> -> tensor<8x16xf32> loc(#loc)
      %179 = tt.glue %178 : tensor<8x16xf32> -> tensor<8x16xf32> loc(#loc)
      %180 = tt.extract %72, 3 : tensor<32x32xf16> -> tensor<8x16xf16> loc(#loc)
      %181 = tt.extract %74, 2 : tensor<32x32xf16> -> tensor<16x16xf16> loc(#loc)
      %182 = tt.dot %180, %181, %arg22 {allowTF32 = true, maxNumImpreciseAcc = 0 : i32} : tensor<8x16xf16> * tensor<16x16xf16> -> tensor<8x16xf32> loc(#loc)
      %183 = tt.extract %72, 7 : tensor<32x32xf16> -> tensor<8x16xf16> loc(#loc)
      %184 = tt.extract %74, 3 : tensor<32x32xf16> -> tensor<16x16xf16> loc(#loc)
      %185 = tt.dot %183, %184, %182 {allowTF32 = true, maxNumImpreciseAcc = 0 : i32} : tensor<8x16xf16> * tensor<16x16xf16> -> tensor<8x16xf32> loc(#loc)
      %186 = tt.glue %185 : tensor<8x16xf32> -> tensor<8x16xf32> loc(#loc)
      %187 = tt.advance %arg23, [%c0_i32, %c32_i32] : <tensor<32x32xf16>, 1> loc(#loc)
      %188 = tt.advance %arg24, [%c32_i32, %c0_i32] : <tensor<32x32xf16>, 1> loc(#loc)
      %189 = tt.advance %arg25, [%c32_i32, %c0_i32] : <tensor<32x32xf16>, 1> loc(#loc)
      scf.yield %81, %88, %95, %102, %109, %116, %123, %130, %137, %144, %151, %158, %165, %172, %179, %186, %187, %188, %189 : tensor<8x16xf32>, tensor<8x16xf32>, tensor<8x16xf32>, tensor<8x16xf32>, tensor<8x16xf32>, tensor<8x16xf32>, tensor<8x16xf32>, tensor<8x16xf32>, tensor<8x16xf32>, tensor<8x16xf32>, tensor<8x16xf32>, tensor<8x16xf32>, tensor<8x16xf32>, tensor<8x16xf32>, tensor<8x16xf32>, tensor<8x16xf32>, !tt.ptr<tensor<32x32xf16>, 1>, !tt.ptr<tensor<32x32xf16>, 1>, !tt.ptr<tensor<32x32xf16>, 1> loc(#loc)
    } loc(#loc)
    %25 = arith.divsi %1, %c4_i32 : i32 loc(#loc)
    %26 = arith.andi %25, %c7_i32 : i32 loc(#loc)
    %27 = arith.muli %26, %c32_i32 : i32 loc(#loc)
    %28 = arith.addi %27, %11 : i32 loc(#loc)
    %29 = arith.andi %1, %c3_i32 : i32 loc(#loc)
    %30 = arith.muli %29, %c64_i32 : i32 loc(#loc)
    %31 = arith.addi %30, %17 : i32 loc(#loc)
    %32 = tt.make_tensor_ptr %arg2, [%c4096_i64, %c4096_i64], [%c4096_i64, %c1_i64], [%28, %31] {order = array<i32: 1, 0>} : <tensor<8x16xf32>, 1> loc(#loc)
    %33 = arith.addi %28, %c8_i32 : i32 loc(#loc)
    %34 = tt.make_tensor_ptr %arg2, [%c4096_i64, %c4096_i64], [%c4096_i64, %c1_i64], [%33, %31] {order = array<i32: 1, 0>} : <tensor<8x16xf32>, 1> loc(#loc)
    %35 = arith.addi %28, %c16_i32 : i32 loc(#loc)
    %36 = tt.make_tensor_ptr %arg2, [%c4096_i64, %c4096_i64], [%c4096_i64, %c1_i64], [%35, %31] {order = array<i32: 1, 0>} : <tensor<8x16xf32>, 1> loc(#loc)
    %37 = arith.addi %28, %c24_i32 : i32 loc(#loc)
    %38 = tt.make_tensor_ptr %arg2, [%c4096_i64, %c4096_i64], [%c4096_i64, %c1_i64], [%37, %31] {order = array<i32: 1, 0>} : <tensor<8x16xf32>, 1> loc(#loc)
    %39 = arith.addi %31, %c16_i32 : i32 loc(#loc)
    %40 = tt.make_tensor_ptr %arg2, [%c4096_i64, %c4096_i64], [%c4096_i64, %c1_i64], [%28, %39] {order = array<i32: 1, 0>} : <tensor<8x16xf32>, 1> loc(#loc)
    %41 = arith.addi %28, %c8_i32 : i32 loc(#loc)
    %42 = arith.addi %31, %c16_i32 : i32 loc(#loc)
    %43 = tt.make_tensor_ptr %arg2, [%c4096_i64, %c4096_i64], [%c4096_i64, %c1_i64], [%41, %42] {order = array<i32: 1, 0>} : <tensor<8x16xf32>, 1> loc(#loc)
    %44 = arith.addi %28, %c16_i32 : i32 loc(#loc)
    %45 = arith.addi %31, %c16_i32 : i32 loc(#loc)
    %46 = tt.make_tensor_ptr %arg2, [%c4096_i64, %c4096_i64], [%c4096_i64, %c1_i64], [%44, %45] {order = array<i32: 1, 0>} : <tensor<8x16xf32>, 1> loc(#loc)
    %47 = arith.addi %28, %c24_i32 : i32 loc(#loc)
    %48 = arith.addi %31, %c16_i32 : i32 loc(#loc)
    %49 = tt.make_tensor_ptr %arg2, [%c4096_i64, %c4096_i64], [%c4096_i64, %c1_i64], [%47, %48] {order = array<i32: 1, 0>} : <tensor<8x16xf32>, 1> loc(#loc)
    %50 = arith.addi %31, %c32_i32 : i32 loc(#loc)
    %51 = tt.make_tensor_ptr %arg2, [%c4096_i64, %c4096_i64], [%c4096_i64, %c1_i64], [%28, %50] {order = array<i32: 1, 0>} : <tensor<8x16xf32>, 1> loc(#loc)
    %52 = arith.addi %28, %c8_i32 : i32 loc(#loc)
    %53 = arith.addi %31, %c32_i32 : i32 loc(#loc)
    %54 = tt.make_tensor_ptr %arg2, [%c4096_i64, %c4096_i64], [%c4096_i64, %c1_i64], [%52, %53] {order = array<i32: 1, 0>} : <tensor<8x16xf32>, 1> loc(#loc)
    %55 = arith.addi %28, %c16_i32 : i32 loc(#loc)
    %56 = arith.addi %31, %c32_i32 : i32 loc(#loc)
    %57 = tt.make_tensor_ptr %arg2, [%c4096_i64, %c4096_i64], [%c4096_i64, %c1_i64], [%55, %56] {order = array<i32: 1, 0>} : <tensor<8x16xf32>, 1> loc(#loc)
    %58 = arith.addi %28, %c24_i32 : i32 loc(#loc)
    %59 = arith.addi %31, %c32_i32 : i32 loc(#loc)
    %60 = tt.make_tensor_ptr %arg2, [%c4096_i64, %c4096_i64], [%c4096_i64, %c1_i64], [%58, %59] {order = array<i32: 1, 0>} : <tensor<8x16xf32>, 1> loc(#loc)
    %61 = arith.addi %31, %c48_i32 : i32 loc(#loc)
    %62 = tt.make_tensor_ptr %arg2, [%c4096_i64, %c4096_i64], [%c4096_i64, %c1_i64], [%28, %61] {order = array<i32: 1, 0>} : <tensor<8x16xf32>, 1> loc(#loc)
    %63 = arith.addi %28, %c8_i32 : i32 loc(#loc)
    %64 = arith.addi %31, %c48_i32 : i32 loc(#loc)
    %65 = tt.make_tensor_ptr %arg2, [%c4096_i64, %c4096_i64], [%c4096_i64, %c1_i64], [%63, %64] {order = array<i32: 1, 0>} : <tensor<8x16xf32>, 1> loc(#loc)
    %66 = arith.addi %28, %c16_i32 : i32 loc(#loc)
    %67 = arith.addi %31, %c48_i32 : i32 loc(#loc)
    %68 = tt.make_tensor_ptr %arg2, [%c4096_i64, %c4096_i64], [%c4096_i64, %c1_i64], [%66, %67] {order = array<i32: 1, 0>} : <tensor<8x16xf32>, 1> loc(#loc)
    %69 = arith.addi %28, %c24_i32 : i32 loc(#loc)
    %70 = arith.addi %31, %c48_i32 : i32 loc(#loc)
    %71 = tt.make_tensor_ptr %arg2, [%c4096_i64, %c4096_i64], [%c4096_i64, %c1_i64], [%69, %70] {order = array<i32: 1, 0>} : <tensor<8x16xf32>, 1> loc(#loc)
    tt.store %32, %24#0 {boundaryCheck = array<i32: 0, 1>, cache = 1 : i32, evict = 1 : i32} : !tt.ptr<tensor<8x16xf32>, 1>, tensor<8x16xf32> loc(#loc)
    tt.store %34, %24#1 {boundaryCheck = array<i32: 0, 1>, cache = 1 : i32, evict = 1 : i32} : !tt.ptr<tensor<8x16xf32>, 1>, tensor<8x16xf32> loc(#loc)
    tt.store %36, %24#2 {boundaryCheck = array<i32: 0, 1>, cache = 1 : i32, evict = 1 : i32} : !tt.ptr<tensor<8x16xf32>, 1>, tensor<8x16xf32> loc(#loc)
    tt.store %38, %24#3 {boundaryCheck = array<i32: 0, 1>, cache = 1 : i32, evict = 1 : i32} : !tt.ptr<tensor<8x16xf32>, 1>, tensor<8x16xf32> loc(#loc)
    tt.store %40, %24#4 {boundaryCheck = array<i32: 0, 1>, cache = 1 : i32, evict = 1 : i32} : !tt.ptr<tensor<8x16xf32>, 1>, tensor<8x16xf32> loc(#loc)
    tt.store %43, %24#5 {boundaryCheck = array<i32: 0, 1>, cache = 1 : i32, evict = 1 : i32} : !tt.ptr<tensor<8x16xf32>, 1>, tensor<8x16xf32> loc(#loc)
    tt.store %46, %24#6 {boundaryCheck = array<i32: 0, 1>, cache = 1 : i32, evict = 1 : i32} : !tt.ptr<tensor<8x16xf32>, 1>, tensor<8x16xf32> loc(#loc)
    tt.store %49, %24#7 {boundaryCheck = array<i32: 0, 1>, cache = 1 : i32, evict = 1 : i32} : !tt.ptr<tensor<8x16xf32>, 1>, tensor<8x16xf32> loc(#loc)
    tt.store %51, %24#8 {boundaryCheck = array<i32: 0, 1>, cache = 1 : i32, evict = 1 : i32} : !tt.ptr<tensor<8x16xf32>, 1>, tensor<8x16xf32> loc(#loc)
    tt.store %54, %24#9 {boundaryCheck = array<i32: 0, 1>, cache = 1 : i32, evict = 1 : i32} : !tt.ptr<tensor<8x16xf32>, 1>, tensor<8x16xf32> loc(#loc)
    tt.store %57, %24#10 {boundaryCheck = array<i32: 0, 1>, cache = 1 : i32, evict = 1 : i32} : !tt.ptr<tensor<8x16xf32>, 1>, tensor<8x16xf32> loc(#loc)
    tt.store %60, %24#11 {boundaryCheck = array<i32: 0, 1>, cache = 1 : i32, evict = 1 : i32} : !tt.ptr<tensor<8x16xf32>, 1>, tensor<8x16xf32> loc(#loc)
    tt.store %62, %24#12 {boundaryCheck = array<i32: 0, 1>, cache = 1 : i32, evict = 1 : i32} : !tt.ptr<tensor<8x16xf32>, 1>, tensor<8x16xf32> loc(#loc)
    tt.store %65, %24#13 {boundaryCheck = array<i32: 0, 1>, cache = 1 : i32, evict = 1 : i32} : !tt.ptr<tensor<8x16xf32>, 1>, tensor<8x16xf32> loc(#loc)
    tt.store %68, %24#14 {boundaryCheck = array<i32: 0, 1>, cache = 1 : i32, evict = 1 : i32} : !tt.ptr<tensor<8x16xf32>, 1>, tensor<8x16xf32> loc(#loc)
    tt.store %71, %24#15 {boundaryCheck = array<i32: 0, 1>, cache = 1 : i32, evict = 1 : i32} : !tt.ptr<tensor<8x16xf32>, 1>, tensor<8x16xf32> loc(#loc)
    tt.return loc(#loc)
  } loc(#loc)
} loc(#loc)


// -----// IR Dump Before CSE (cse) ('builtin.module' operation) //----- //
#loc = loc(unknown)
module attributes {"triton_gpu.compute-capability" = 90 : i32, "triton_gpu.num-ctas" = 1 : i32, "triton_gpu.num-warps" = 32 : i32, "triton_gpu.threads-per-warp" = 1 : i32} {
  tt.func public @matmul_kernel_with_block_pointers_0d1d2d3d4d5d(%arg0: !tt.ptr<f16, 1> {tt.divisibility = 16 : i32} loc(unknown), %arg1: !tt.ptr<f16, 1> {tt.divisibility = 16 : i32} loc(unknown), %arg2: !tt.ptr<f32, 1> {tt.divisibility = 16 : i32} loc(unknown), %arg3: i32 {tt.divisibility = 16 : i32} loc(unknown), %arg4: i32 {tt.divisibility = 16 : i32} loc(unknown), %arg5: i32 {tt.divisibility = 16 : i32} loc(unknown)) attributes {noinline = false} {
    %c3_i32 = arith.constant 3 : i32 loc(#loc)
    %c7_i32 = arith.constant 7 : i32 loc(#loc)
    %c63_i32 = arith.constant 63 : i32 loc(#loc)
    %c48_i32 = arith.constant 48 : i32 loc(#loc)
    %c24_i32 = arith.constant 24 : i32 loc(#loc)
    %c8_i32 = arith.constant 8 : i32 loc(#loc)
    %c4_i32 = arith.constant 4 : i32 loc(#loc)
    %c256_i32 = arith.constant 256 : i32 loc(#loc)
    %c4096_i64 = arith.constant 4096 : i64 loc(#loc)
    %c1_i64 = arith.constant 1 : i64 loc(#loc)
    %c0_i32 = arith.constant 0 : i32 loc(#loc)
    %c32_i32 = arith.constant 32 : i32 loc(#loc)
    %cst = arith.constant dense<0.000000e+00> : tensor<8x16xf32> loc(#loc)
    %c4096_i32 = arith.constant 4096 : i32 loc(#loc)
    %c16_i32 = arith.constant 16 : i32 loc(#loc)
    %c64_i32 = arith.constant 64 : i32 loc(#loc)
    %0 = gpu.subgroup_id : index loc(#loc)
    %1 = arith.index_cast %0 : index to i32 loc(#loc)
    %2 = tt.get_program_id x : i32 loc(#loc)
    %3 = arith.divsi %2, %c64_i32 : i32 loc(#loc)
    %4 = arith.muli %3, %c4_i32 : i32 loc(#loc)
    %5 = arith.subi %c16_i32, %4 : i32 loc(#loc)
    %6 = arith.minsi %5, %c4_i32 : i32 loc(#loc)
    %7 = arith.remsi %2, %6 : i32 loc(#loc)
    %8 = arith.addi %4, %7 : i32 loc(#loc)
    %9 = arith.andi %2, %c63_i32 : i32 loc(#loc)
    %10 = arith.divsi %9, %6 : i32 loc(#loc)
    %11 = arith.muli %8, %c256_i32 : i32 loc(#loc)
    %12 = arith.divsi %1, %c4_i32 : i32 loc(#loc)
    %13 = arith.andi %12, %c7_i32 : i32 loc(#loc)
    %14 = arith.muli %13, %c32_i32 : i32 loc(#loc)
    %15 = arith.addi %14, %11 : i32 loc(#loc)
    %16 = tt.make_tensor_ptr %arg0, [%c4096_i64, %c4096_i64], [%c4096_i64, %c1_i64], [%15, %c0_i32] {order = array<i32: 1, 0>} : <tensor<32x32xf16>, 1> loc(#loc)
    %17 = arith.muli %10, %c256_i32 : i32 loc(#loc)
    %18 = arith.andi %1, %c3_i32 : i32 loc(#loc)
    %19 = arith.muli %18, %c64_i32 : i32 loc(#loc)
    %20 = arith.addi %19, %17 : i32 loc(#loc)
    %21 = tt.make_tensor_ptr %arg1, [%c4096_i64, %c4096_i64], [%c4096_i64, %c1_i64], [%c0_i32, %20] {order = array<i32: 1, 0>} : <tensor<32x32xf16>, 1> loc(#loc)
    %22 = arith.addi %20, %c32_i32 : i32 loc(#loc)
    %23 = tt.make_tensor_ptr %arg1, [%c4096_i64, %c4096_i64], [%c4096_i64, %c1_i64], [%c0_i32, %22] {order = array<i32: 1, 0>} : <tensor<32x32xf16>, 1> loc(#loc)
    %24:19 = scf.for %arg6 = %c0_i32 to %c4096_i32 step %c32_i32 iter_args(%arg7 = %cst, %arg8 = %cst, %arg9 = %cst, %arg10 = %cst, %arg11 = %cst, %arg12 = %cst, %arg13 = %cst, %arg14 = %cst, %arg15 = %cst, %arg16 = %cst, %arg17 = %cst, %arg18 = %cst, %arg19 = %cst, %arg20 = %cst, %arg21 = %cst, %arg22 = %cst, %arg23 = %16, %arg24 = %21, %arg25 = %23) -> (tensor<8x16xf32>, tensor<8x16xf32>, tensor<8x16xf32>, tensor<8x16xf32>, tensor<8x16xf32>, tensor<8x16xf32>, tensor<8x16xf32>, tensor<8x16xf32>, tensor<8x16xf32>, tensor<8x16xf32>, tensor<8x16xf32>, tensor<8x16xf32>, tensor<8x16xf32>, tensor<8x16xf32>, tensor<8x16xf32>, tensor<8x16xf32>, !tt.ptr<tensor<32x32xf16>, 1>, !tt.ptr<tensor<32x32xf16>, 1>, !tt.ptr<tensor<32x32xf16>, 1>)  : i32 {
      %72 = tt.load %arg23 {DotIdx = 0 : i32, boundaryCheck = array<i32: 0, 1>, cache = 1 : i32, evict = 1 : i32, isVolatile = false} : !tt.ptr<tensor<32x32xf16>, 1> -> tensor<32x32xf16> loc(#loc)
      %73 = tt.load %arg24 {DotIdx = 1 : i32, boundaryCheck = array<i32: 0, 1>, cache = 1 : i32, evict = 1 : i32, isVolatile = false} : !tt.ptr<tensor<32x32xf16>, 1> -> tensor<32x32xf16> loc(#loc)
      %74 = tt.load %arg25 {DotIdx = 1 : i32, boundaryCheck = array<i32: 0, 1>, cache = 1 : i32, evict = 1 : i32, isVolatile = false} : !tt.ptr<tensor<32x32xf16>, 1> -> tensor<32x32xf16> loc(#loc)
      %75 = tt.cast %72 : tensor<32x32xf16> to tensor<32x32xi16> loc(#loc)
      %76 = tt.extract %75, 0 : tensor<32x32xi16> -> tensor<8x16xi16> loc(#loc)
      %77 = tt.cast %76 : tensor<8x16xi16> to tensor<8x16xf16> loc(#loc)
      %78 = tt.cast %73 : tensor<32x32xf16> to tensor<16x32xi32> loc(#loc)
      %79 = tt.extract %78, 0 : tensor<16x32xi32> -> tensor<8x16xi32> loc(#loc)
      %80 = tt.cast %79 : tensor<8x16xi32> to tensor<16x16xf16> loc(#loc)
      %81 = tt.dot %77, %80, %arg7 {allowTF32 = true, maxNumImpreciseAcc = 0 : i32} : tensor<8x16xf16> * tensor<16x16xf16> -> tensor<8x16xf32> loc(#loc)
      %82 = tt.extract %75, 4 : tensor<32x32xi16> -> tensor<8x16xi16> loc(#loc)
      %83 = tt.cast %82 : tensor<8x16xi16> to tensor<8x16xf16> loc(#loc)
      %84 = tt.extract %78, 1 : tensor<16x32xi32> -> tensor<8x16xi32> loc(#loc)
      %85 = tt.cast %84 : tensor<8x16xi32> to tensor<16x16xf16> loc(#loc)
      %86 = tt.dot %83, %85, %81 {allowTF32 = true, maxNumImpreciseAcc = 0 : i32} : tensor<8x16xf16> * tensor<16x16xf16> -> tensor<8x16xf32> loc(#loc)
      %87 = tt.glue %86 : tensor<8x16xf32> -> tensor<8x16xf32> loc(#loc)
      %88 = tt.extract %75, 1 : tensor<32x32xi16> -> tensor<8x16xi16> loc(#loc)
      %89 = tt.cast %88 : tensor<8x16xi16> to tensor<8x16xf16> loc(#loc)
      %90 = tt.extract %78, 0 : tensor<16x32xi32> -> tensor<8x16xi32> loc(#loc)
      %91 = tt.cast %90 : tensor<8x16xi32> to tensor<16x16xf16> loc(#loc)
      %92 = tt.dot %89, %91, %arg8 {allowTF32 = true, maxNumImpreciseAcc = 0 : i32} : tensor<8x16xf16> * tensor<16x16xf16> -> tensor<8x16xf32> loc(#loc)
      %93 = tt.extract %75, 5 : tensor<32x32xi16> -> tensor<8x16xi16> loc(#loc)
      %94 = tt.cast %93 : tensor<8x16xi16> to tensor<8x16xf16> loc(#loc)
      %95 = tt.extract %78, 1 : tensor<16x32xi32> -> tensor<8x16xi32> loc(#loc)
…
 .  @      *        )                  /      6               7        8  6               7        8  6     	          7     
   8  6               7        7        7        7        7        7        7        7        7        7        7        7        7        7        8  6     !           7     "   7     #   7     $   7     %   7     &   7     '   7     (   7     )   7     *   7     +   7     ,   7     -   7     .   8  6  /   1       0   7     2   7     3   7     4   7     5   7     6   7     7   7     8   7     9   7     :   7     ;   7     <   7     =   7     >   8  6  @   C       B   7  @   D   7  A   E   7     F   7     G   7     H   7     I   7     J   7     K   8  6     O       N   7  M   P   7  M   Q   7  M   R   7     S   7     T   7     U     V   9     Z      Y   q     [   Z   9     ]      \   q     ^   ]   9     `      _   q     a   `   9     b      Y   q     c   b   9     d      \   q     e   d        f   e   a        g   f   ^        h   g   c        i   h   [   9     j   	   Y   q     k   j        m   k   l        n   m   _        p   o   n        r   p   q        s   r   p   q        t   k   s        u   n   t        w   k   v        x   w   s        z   u   y        {   i   \        }   {   |        ~   }   z   R        ~                 x   y           i   _                               R                                R                  u        P   u        Q     W     W              V      W              V      W              V      W     @         V      W     @         V      W     @         V      W     @         V      W     @         V      W     @         V      W     @         V      W     @         V      W     @         V      W     @         V      W     @         V      W     @         V      W     @         V      W     @         V      W     @         V      W     @         V      W           Y   V      W   Q               Q              9        !                     o   o      _         Y   Q               Q              9  /      1                     o   o      _         Y   Q               Q              9  /      1                     o   o      _         Y   O  A                                     O                                       9  @      C                  y   y      O  A                !   "   #   $   %   &   '   O                 	   
                  9  @      C                  y   y      O  A               	   
                  9  @      C                  y   y      O  A            (   )   *   +   ,   -   .   /   9  @      C                  y   y      O  A                                    9  @      C                  y   y      O  A            0   1   2   3   4   5   6   7   9  @      C                  y   y      O  A                                    9  @      C                  y   y      O  A            8   9   :   ;   <   =   >   ?   9  @      C                  y   y      O                                      9  @      C                  y   y      O                                      9  @      C                  y   y      9  @      C                  y   y      9  @      C                  y   y      9  @      C                  y   y      9  @      C                  y   y      9  @      C                  y   y      9  @      C                  y   y      O                                       9  @      C                  y   y      O                 	   
                  9  @      C                  y   y      9  @      C                  y   y      9  @      C                  y   y      9  @      C                  y   y      9  @      C                  y   y      9  @      C                  y   y      9  @      C                  y   y      O                                      9  @      C                  y   y      O                                      9  @      C                  y   y      9  @      C                  y   y      9  @      C                  y   y      9  @      C                  y   y      9  @      C                  y   y      9  @      C                  y   y      9  @      C                  y   y                    R                                R                               R                                                  W   X     X          ~   y          ~   o          ~               o               |          u     	  R   9          	  
     
     ~      o   y   \         Y     |          9          	  
     
          o   y   \         Y     |          9          	  
     
          o   y   \         Y     |          9          	  
     
          o   y   \         Y     |          9          	  
     
    ~      o   y   \         Y     |          9          	  
     
         o   y   \         Y     |          9          	  
     
         o   y   \         Y     |          9          	  
     
         o   y   \         Y     |          9          	  
     
     ~      o   y   \         Y     |          9          	  
     
          o   y   \         Y     |          9          	  
     
          o   y   \         Y     |           9     !     	  
     
          o   y   \         Y      |     "     9     #     	  
     
    ~      o   y   \         Y   "  |     $     9     %     	  
     
         o   y   \         Y   $  |     &     9     '     	  
     
         o   y   \         Y   &  |     (     9     )     	  
     
         o   y   \         Y   (    8  6     *      N   7  M   +  7  M   ,  7  M   -  7     .  7     /  7     0    1  9 
    2  O   +  ,  -  .  /  0    8  

first spirv module
b'\x03\x02#\x07\x00\x04\x01\x00\x0e\x00\x06\x003\x01\x00\x00\x00\x00\x00\x00\x11\x00\x02\x00\x04\x00\x00\x00\x11\x00\x02\x00\x05\x00\x00\x00\x11\x00\x02\x00\x06\x00\x00\x00\x11\x00\x02\x00\x07\x00\x00\x00\x11\x00\x02\x00\x0b\x00\x00\x00\x11\x00\x02\x00\x16\x00\x00\x00\x11\x00\x02\x00\'\x00\x00\x00\x11\x00\x02\x00:\x00\x00\x00\x11\x00\x02\x00\xf3\x15\x00\x00\x11\x00\x02\x00\x04\x17\x00\x00\n\x00\x08\x00SPV_INTEL_kernel_attributes\x00\n\x00\x08\x00SPV_INTEL_vector_compute\x00\x00\x00\x00\x0b\x00\x05\x00\x01\x00\x00\x00OpenCL.std\x00\x00\x0e\x00\x03\x00\x02\x00\x00\x00\x02\x00\x00\x00\x0f\x00\x0f\x00\x06\x00\x00\x00*\x01\x00\x00matmul_kernel_with_block_pointers_0d1d2d3d4d5d\x00\x00\x10\x00\x03\x00*\x01\x00\x00\x1f\x00\x00\x00\x10\x00\x04\x00*\x01\x00\x00#\x00\x00\x00\x10\x00\x00\x00\x10\x00\x06\x00*\x01\x00\x00\x05\x17\x00\x00\x00\x02\x00\x00\x01\x00\x00\x00\x01\x00\x00\x00\x03\x00\x03\x00\x04\x00\x00\x00\xa0\x86\x01\x00\x05\x00\x07\x00\x05\x00\x00\x00_Z12get_local_idj\x00\x00\x00\x05\x00\x07\x00\x07\x00\x00\x00_Z14get_local_sizej\x00\x05\x00\x07\x00\t\x00\x00\x00_Z12get_group_idj\x00\x00\x00\x05\x00\x0c\x00\x0f\x00\x00\x00llvm.genx.GenISA.LSC2DBlockWrite.v8i32\x00\x00\x05\x00\x0c\x00!\x00\x00\x00llvm.genx.GenISA.LSC2DBlockRead.v64i16\x00\x00\x05\x00\x0c\x001\x00\x00\x00llvm.genx.GenISA.LSC2DBlockRead.v32i32\x00\x00\x05\x00\x10\x00C\x00\x00\x00llvm.genx.GenISA.sub.group.dpas.v8f32.v8f32.v8i16.v8i32\x00\x05\x00\x0e\x00O\x00\x00\x00matmul_kernel_with_block_pointers_0d1d2d3d4d5d\x00\x00G\x00\t\x00\x05\x00\x00\x00)\x00\x00\x00_Z12get_local_idj\x00\x00\x00\x01\x00\x00\x00G\x00\t\x00\x07\x00\x00\x00)\x00\x00\x00_Z14get_local_sizej\x00\x01\x00\x00\x00G\x00\t\x00\t\x00\x00\x00)\x00\x00\x00_Z12get_group_idj\x00\x00\x00\x01\x00\x00\x00G\x00\x0e\x00\x0f\x00\x00\x00)\x00\x00\x00llvm.genx.GenISA.LSC2DBlockWrite.v8i32\x00\x00\x01\x00\x00\x00G\x00\x0e\x00!\x00\x00\x00)\x00\x00\x00llvm.genx.GenISA.LSC2DBlockRead.v64i16\x00\x00\x01\x00\x00\x00G\x00\x0e\x001\x00\x00\x00)\x00\x00\x00llvm.genx.GenISA.LSC2DBlockRead.v32i32\x00\x00\x01\x00\x00\x00G\x00\x12\x00C\x00\x00\x00)\x00\x00\x00llvm.genx.GenISA.sub.group.dpas.v8f32.v8f32.v8i16.v8i32\x00\x01\x00\x00\x00G\x00\x10\x00O\x00\x00\x00)\x00\x00\x00matmul_kernel_with_block_pointers_0d1d2d3d4d5d\x00\x00\x00\x00\x00\x00G\x00\x03\x00n\x00\x00\x00u\x11\x00\x00G\x00\x03\x00p\x00\x00\x00u\x11\x00\x00G\x00\x03\x00u\x00\x00\x00u\x11\x00\x00G\x00\x03\x00\x83\x00\x00\x00u\x11\x00\x00G\x00\x03\x00\xb6\x00\x00\x00u\x11\x00\x00G\x00\x03\x00\xb6\x00\x00\x00v\x11\x00\x00G\x00\x03\x00\xb6\x00\x00\x00u\x11\x00\x00G\x00\x03\x00\xb6\x00\x00\x00v\x11\x00\x00\x15\x00\x04\x00\x02\x00\x00\x00@\x00\x00\x00\x00\x00\x00\x00\x15\x00\x04\x00\x03\x00\x00\x00 \x00\x00\x00\x00\x00\x00\x00\x15\x00\x04\x00\x1e\x00\x00\x00\x10\x00\x00\x00\x00\x00\x00\x00\x15\x00\x04\x00L\x00\x00\x00\x08\x00\x00\x00\x00\x00\x00\x00+\x00\x04\x00\x03\x00\x00\x00Y\x00\x00\x00\x00\x00\x00\x00+\x00\x04\x00\x03\x00\x00\x00\\\x00\x00\x00\x01\x00\x00\x00+\x00\x04\x00\x03\x00\x00\x00_\x00\x00\x00\x02\x00\x00\x00+\x00\x04\x00\x03\x00\x00\x00l\x00\x00\x00@\x00\x00\x00+\x00\x04\x00\x03\x00\x00\x00o\x00\x00\x00\x10\x00\x00\x00+\x00\x04\x00\x03\x00\x00\x00q\x00\x00\x00\x04\x00\x00\x00+\x00\x04\x00\x03\x00\x00\x00v\x00\x00\x00?\x00\x00\x00+\x00\x04\x00\x03\x00\x00\x00y\x00\x00\x00\x08\x00\x00\x00+\x00\x04\x00\x03\x00\x00\x00|\x00\x00\x00\xe0\x00\x00\x00\x01\x00\x03\x00\x03\x00\x00\x00\x80\x00\x00\x00+\x00\x04\x00\x03\x00\x00\x00\x85\x00\x00\x00\xc0\x00\x00\x00+\x00\x04\x00\x03\x00\x00\x00\x8a\x00\x00\x00 \x00\x00\x00+\x00\x04\x00\x03\x00\x00\x00\xba\x00\x00\x00\xff\x1f\x00\x00+\x00\x04\x00\x03\x00\x00\x00\xbb\x00\x00\x00\xff\x0f\x00\x00+\x00\x04\x00\x03\x00\x00\x00\xc9\x00\x00\x00\x0c\x00\x00\x00+\x00\x04\x00\x03\x00\x00\x00\xff\x00\x00\x00\xe0\x0f\x00\x00+\x00\x04\x00\x03\x00\x00\x00\x03\x01\x00\x00\x18\x00\x00\x00+\x00\x04\x00\x03\x00\x00\x00\x06\x01\x00\x000\x00\x00\x00+\x00\x04\x00\x03\x00\x00\x00\n\x01\x00\x00\xff?\x00\x00!\x00\x04\x00\x04\x00\x00\x00\x02\x00\x00\x00\x03\x00\x00\x00\x13\x00\x02\x00\x0b\x00\x00\x00\x14\x00\x02\x00\x0c\x00\x00\x00\x17\x00\x04\x00\r\x00\x00\x00\x03\x00\x00\x00\x08\x00\x00\x00!\x00\x11\x00\x0e\x00\x00\x00\x0b\x00\x00\x00\x02\x00\x00\x00\x03\x00\x00\x00\x03\x00\x00\x00\x03\x00\x00\x00\x03\x00\x00\x00\x03\x00\x00\x00\x03\x00\x00\x00\x03\x00\x00\x00\x03\x00\x00\x00\x03\x00\x00\x00\x0c\x00\x00\x00\x0c\x00\x00\x00\x03\x00\x00\x00\r\x00\x00\x00\x17\x00\x04\x00\x1f\x00\x00\x00\x1e\x00\x00\x00@\x00\x00\x00!\x00\x10\x00 \x00\x00\x00\x1f\x00\x00\x00\x02\x00\x00\x00\x03\x00\x00\x00\x03\x00\x00\x00\x03\x00\x00\x00\x03\x00\x00\x00\x03\x00\x00\x00\x03\x00\x00\x00\x03\x00\x00\x00\x03\x00\x00\x00\x03\x00\x00\x00\x0c\x00\x00\x00\x0c\x00\x00\x00\x03\x00\x00\x00\x17\x00\x04\x00/\x00\x00\x00\x03\x00\x00\x00 \x00\x00\x00!\x00\x10\x000\x00\x00\x00/\x00\x00\x00\x02\x00\x00\x00\x03\x00\x00\x00\x03\x00\x00\x00\x03\x00\x00\x00\x03\x00\x00\x00\x03\x00\x00\x00\x03\x00\x00\x00\x03\x00\x00\x00\x03\x00\x00\x00\x03\x00\x00\x00\x0c\x00\x00\x00\x0c\x00\x00\x00\x03\x00\x00\x00\x16\x00\x03\x00?\x00\x00\x00 \x00\x00\x00\x17\x00\x04\x00@\x00\x00\x00?\x00\x00\x00\x08\x00\x00\x00\x17\x00\x04\x00A\x00\x00\x00\x1e\x00\x00\x00\x08\x00\x00\x00!\x00\x0b\x00B\x00\x00\x00@\x00\x00\x00@\x00\x00\x00A\x00\x00\x00\r\x00\x00\x00\x03\x00\x00\x00\x03\x00\x00\x00\x03\x00\x00\x00\x03\x00\x00\x00\x0c\x00\x00\x00 \x00\x04\x00M\x00\x00\x00\x05\x00\x00\x00L\x00\x00\x00!\x00\t\x00N\x00\x00\x00\x0b\x00\x00\x00M\x00\x00\x00M\x00\x00\x00M\x00\x00\x00\x03\x00\x00\x00\x03\x00\x00\x00\x03\x00\x00\x00\x17\x00\x04\x00\x7f\x00\x00\x00\x03\x00\x00\x00\x02\x00\x00\x00,\x00\x05\x00\x7f\x00\x00\x00\x81\x00\x00\x00Y\x00\x00\x00\x80\x00\x00\x00,\x00\x05\x00\x7f\x00\x00\x00\x88\x00\x00\x00\x80\x00\x00\x00Y\x00\x00\x00.\x00\x03\x00@\x00\x00\x00\x95\x00\x00\x00*\x00\x03\x00\x0c\x00\x00\x00\xbc\x00\x00\x00)\x00\x03\x00\x0c\x00\x00\x00\xc0\x00\x00\x00\x01\x00\x03\x00\x1f\x00\x00\x00\xc5\x00\x00\x00\x01\x00\x03\x00/\x00\x00\x00\xc7\x00\x00\x006\x00\x05\x00\x02\x00\x00\x00\x05\x00\x00\x00\x00\x00\x00\x00\x04\x00\x00\x007\x00\x03\x00\x03\x00\x00\x00\x06\x00\x00\x008\x00\x01\x006\x00\x05\x00\x02\x00\x00\x00\x07\x00\x00\x00\x00\x00\x00\x00\x04\x00\x00\x007\x00\x03\x00\x03\x00\x00\x00\x08\x00\x00\x008\x00\x01\x006\x00\x05\x00\x02\x00\x00\x00\t\x00\x00\x00\x00\x00\x00\x00\x04\x00\x00\x007\x00\x03\x00\x03\x00\x00\x00\n\x00\x00\x008\x00\x01\x006\x00\x05\x00\x0b\x00\x00\x00\x0f\x00\x00\x00\x00\x00\x00\x00\x0e\x00\x00\x007\x00\x03\x00\x02\x00\x00\x00\x10\x00\x00\x007\x00\x03\x00\x03\x00\x00\x00\x11\x00\x00\x007\x00\x03\x00\x03\x00\x00\x00\x12\x00\x00\x007\x00\x03\x00\x03\x00\x00\x00\x13\x00\x00\x007\x00\x03\x00\x03\x00\x00\x00\x14\x00\x00\x007\x00\x03\x00\x03\x00\x00\x00\x15\x00\x00\x007\x00\x03\x00\x03\x00\x00\x00\x16\x00\x00\x007\x00\x03\x00\x03\x00\x00\x00\x17\x00\x00\x007\x00\x03\x00\x03\x00\x00\x00\x18\x00\x00\x007\x00\x03\x00\x03\x00\x00\x00\x19\x00\x00\x007\x00\x03\x00\x0c\x00\x00\x00\x1a\x00\x00\x007\x00\x03\x00\x0c\x00\x00\x00\x1b\x00\x00\x007\x00\x03\x00\x03\x00\x00\x00\x1c\x00\x00\x007\x00\x03\x00\r\x00\x00\x00\x1d\x00\x00\x008\x00\x01\x006\x00\x05\x00\x1f\x00\x00\x00!\x00\x00\x00\x00\x00\x00\x00 \x00\x00\x007\x00\x03\x00\x02\x00\x00\x00"\x00\x00\x007\x00\x03\x00\x03\x00\x00\x00#\x00\x00\x007\x00\x03\x00\x03\x00\x00\x00$\x00\x00\x007\x00\x03\x00\x03\x00\x00\x00%\x00\x00\x007\x00\x03\x00\x03\x00\x00\x00&\x00\x00\x007\x00\x03\x00\x03\x00\x00\x00\'\x00\x00\x007\x00\x03\x00\x03\x00\x00\x00(\x00\x00\x007\x00\x03\x00\x03\x00\x00\x00)\x00\x00\x007\x00\x03\x00\x03\x00\x00\x00*\x00\x00\x007\x00\x03\x00\x03\x00\x00\x00+\x00\x00\x007\x00\x03\x00\x0c\x00\x00\x00,\x00\x00\x007\x00\x03\x00\x0c\x00\x00\x00-\x00\x00\x007\x00\x03\x00\x03\x00\x00\x00.\x00\x00\x008\x00\x01\x006\x00\x05\x00/\x00\x00\x001\x00\x00\x00\x00\x00\x00\x000\x00\x00\x007\x00\x03\x00\x02\x00\x00\x002\x00\x00\x007\x00\x03\x00\x03\x00\x00\x003\x00\x00\x007\x00\x03\x00\x03\x00\x00\x004\x00\x00\x007\x00\x03\x00\x03\x00\x00\x005\x00\x00\x007\x00\x03\x00\x03\x00\x00\x006\x00\x00\x007\x00\x03\x00\x03\x00\x00\x007\x00\x00\x007\x00\x03\x00\x03\x00\x00\x008\x00\x00\x007\x00\x03\x00\x03\x00\x00\x009\x00\x00\x007\x00\x03\x00\x03\x00\x00\x00:\x00\x00\x007\x00\x03\x00\x03\x00\x00\x00;\x00\x00\x007\x00\x03\x00\x0c\x00\x00\x00<\x00\x00\x007\x00\x03\x00\x0c\x00\x00\x00=\x00\x00\x007\x00\x03\x00\x03\x00\x00\x00>\x00\x00\x008\x00\x01\x006\x00\x05\x00@\x00\x00\x00C\x00\x00\x00\x00\x00\x00\x00B\x00\x00\x007\x00\x03\x00@\x00\x00\x00D\x00\x00\x007\x00\x03\x00A\x00\x00\x00E\x00\x00\x007\x00\x03\x00\r\x00\x00\x00F\x00\x00\x007\x00\x03\x00\x03\x00\x00\x00G\x00\x00\x007\x00\x03\x00\x03\x00\x00\x00H\x00\x00\x007\x00\x03\x00\x03\x00\x00\x00I\x00\x00\x007\x00\x03\x00\x03\x00\x00\x00J\x00\x00\x007\x00\x03\x00\x0c\x00\x00\x00K\x00\x00\x008\x00\x01\x006\x00\x05\x00\x0b\x00\x00\x00O\x00\x00\x00\x00\x00\x00\x00N\x00\x00\x007\x00\x03\x00M\x00\x00\x00P\x00\x00\x007\x00\x03\x00M\x00\x00\x00Q\x00\x00\x007\x00\x03\x00M\x00\x00\x00R\x00\x00\x007\x00\x03\x00\x03\x00\x00\x00S\x00\x00\x007\x00\x03\x00\x03\x00\x00\x00T\x00\x00\x007\x00\x03\x00\x03\x00\x00\x00U\x00\x00\x00\xf8\x00\x02\x00V\x00\x00\x009\x00\x05\x00\x02\x00\x00\x00Z\x00\x00\x00\x05\x00\x00\x00Y\x00\x00\x00q\x00\x04\x00\x03\x00\x00\x00[\x00\x00\x00Z\x00\x00\x009\x00\x05\x00\x02\x00\x00\x00]\x00\x00\x00\x05\x00\x00\x00\\\x00\x00\x00q\x00\x04\x00\x03\x00\x00\x00^\x00\x00\x00]\x00\x00\x009\x00\x05\x00\x02\x00\x00\x00`\x00\x00\x00\x05\x00\x00\x00_\x00\x00\x00q\x00\x04\x00\x03\x00\x00\x00a\x00\x00\x00`\x00\x00\x009\x00\x05\x00\x02\x00\x00\x00b\x00\x00\x00\x07\x00\x00\x00Y\x00\x00\x00q\x00\x04\x00\x03\x00\x00\x00c\x00\x00\x00b\x00\x00\x009\x00\x05\x00\x02\x00\x00\x00d\x00\x00\x00\x07\x00\x00\x00\\\x00\x00\x00q\x00\x04\x00\x03\x00\x00\x00e\x00\x00\x00d\x00\x00\x00\x84\x00\x05\x00\x03\x00\x00\x00f\x00\x00\x00e\x00\x00\x00a\x00\x00\x00\x80\x00\x05\x00\x03\x00\x00\x00g\x00\x00\x00f\x00\x00\x00^\x00\x00\x00\x84\x00\x05\x00\x03\x00\x00\x00h\x00\x00\x00g\x00\x00\x00c\x00\x00\x00\x80\x00\x05\x00\x03\x00\x00\x00i\x00\x00\x00h\x00\x00\x00[\x00\x00\x009\x00\x05\x00\x02\x00\x00\x00j\x00\x00\x00\t\x00\x00\x00Y\x00\x00\x00q\x00\x04\x00\x03\x00\x00\x00k\x00\x00\x00j\x00\x00\x00\x87\x00\x05\x00\x03\x00\x00\x00m\x00\x00\x00k\x00\x00\x00l\x00\x00\x00\xc4\x00\x05\x00\x03\x00\x00\x00n\x00\x00\x00m\x00\x00\x00_\x00\x00\x00\x82\x00\x05\x00\x03\x00\x00\x00p\x00\x00\x00o\x00\x00\x00n\x00\x00\x00\xb1\x00\x05\x00\x0c\x00\x00\x00r\x00\x00\x00p\x00\x00\x00q\x00\x00\x00\xa9\x00\x06\x00\x03\x00\x00\x00s\x00\x00\x00r\x00\x00\x00p\x00\x00\x00q\x00\x00\x00\x8a\x00\x05\x00\x03\x00\x00\x00t\x00\x00\x00k\x00\x00\x00s\x00\x00\x00\x80\x00\x05\x00\x03\x00\x00\x00u\x00\x00\x00n\x00\x00\x00t\x00\x00\x00\xc7\x00\x05\x00\x03\x00\x00\x00w\x00\x00\x00k\x00\x00\x00v\x00\x00\x00\x87\x00\x05\x00\x03\x00\x00\x00x\x00\x00\x00w\x00\x00\x00s\x00\x00\x00\xc4\x00\x05\x00\x03\x00\x00\x00z\x00\x00\x00u\x00\x00\x00y\x00\x00\x00\xc2\x00\x05\x00\x03\x00\x00\x00{\x00\x00\x00i\x00\x00\x00\\\x00\x00\x00\xc7\x00\x05\x00\x03\x00\x00\x00}\x00\x00\x00{\x00\x00\x00|\x00\x00\x00\xc5\x00\x05\x00\x03\x00\x00\x00~\x00\x00\x00}\x00\x00\x00z\x00\x00\x00R\x00\x06\x00\x7f\x00\x00\x00\x82\x00\x00\x00~\x00\x00\x00\x81\x00\x00\x00\x01\x00\x00\x00\xc4\x00\x05\x00\x03\x00\x00\x00\x83\x00\x00\x00x\x00\x00\x00y\x00\x00\x00\xc4\x00\x05\x00\x03\x00\x00\x00\x84\x00\x00\x00i\x00\x00\x00_\x00\x00\x00\xc7\x00\x05\x00\x03\x00\x00\x00\x86\x00\x00\x00\x84\x00\x00\x00\x85\x00\x00\x00\xc5\x00\x05\x00\x03\x00\x00\x00\x87\x00\x00\x00\x86\x00\x00\x00\x83\x00\x00\x00R\x00\x06\x00\x7f\x00\x00\x00\x89\x00\x00\x00\x87\x00\x00\x00\x88\x00\x00\x00\x00\x00\x00\x00\xc5\x00\x05\x00\x03\x00\x00\x00\x8b\x00\x00\x00\x87\x00\x00\x00\x8a\x00\x00\x00R\x00\x06\x00\x7f\x00\x00\x00\x8c\x00\x00\x00\x8b\x00\x00\x00\x88\x00\x00\x00\x00\x00\x00\x00u\x00\x04\x00\x02\x00\x00\x00\x8d\x00\x00\x00P\x00\x00\x00u\x00\x04\x00\x02\x00\x00\x00\x8e\x00\x00\x00Q\x00\x00\x00\xf9\x00\x02\x00W\x00\x00\x00\xf8\x00\x02\x00W\x00\x00\x00\xf5\x00\x07\x00\x7f\x00\x00\x00\x90\x00\x00\x00\x8c\x00\x00\x00V\x00\x00\x00\x8f\x00\x00\x00W\x00\x00\x00\xf5\x00\x07\x00\x7f\x00\x00\x00\x92\x00\x00\x00\x89\x00\x00\x00V\x00\x00\x00\x91\x00\x00\x00W\x00\x00\x00\xf5\x00\x07\x00\x7f\x00\x00\x00\x94\x00\x00\x00\x82\x00\x00\x00V\x00\x00\x00\x93\x00\x00\x00W\x00\x00\x00\xf5\x00\x07\x00@\x00\x00\x00\x97\x00\x00\x00\x95\x00\x00\x00V\x00\x00\x00\x96\x00\x00\x00W\x00\x00\x00\xf5\x00\x07\x00@\x00\x00\x00\x99\x00\x00\x00\x95\x00\x00\x00V\x00\x00\x00\x98\x00\x00\x00W\x00\x00\x00\xf5\x00\x07\x00@\x00\x00\x00\x9b\x00\x00\x00\x95\x00\x00\x00V\x00\x00\x00\x9a\x00\x00\x00W\x00\x00\x00\xf5\x00\x07\x00@\x00\x00\x00\x9d\x00\x00\x00\x95\x00\x00\x00V\x00\x00\x00\x9c\x00\x00\x00W\x00\x00\x00\xf5\x00\x07\x00@\x00\x00\x00\x9f\x00\x00\x00\x95\x00\x00\x00V\x00\x00\x00\x9e\x00\x00\x00W\x00\x00\x00\xf5\x00\x07\x00@\x00\x00\x00\xa1\x00\x00\x00\x95\x00\x00\x00V\x00\x00\x00\xa0\x00\x00\x00W\x00\x00\x00\xf5\x00\x07\x00@\x00\x00\x00\xa3\x00\x00\x00\x95\x00\x00\x00V\x00\x00\x00\xa2\x00\x00\x00W\x00\x00\x00\xf5\x00\x07\x00@\x00\x00\x00\xa5\x00\x00\x00\x95\x00\x00\x00V\x00\x00\x00\xa4\x00\x00\x00W\x00\x00\x00\xf5\x00\x07\x00@\x00\x00\x00\xa7\x00\x00\x00\x95\x00\x00\x00V\x00\x00\x00\xa6\x00\x00\x00W\x00\x00\x00\xf5\x00\x07\x00@\x00\x00\x00\xa9\x00\x00\x00\x95\x00\x00\x00V\x00\x00\x00\xa8\x00\x00\x00W\x00\x00\x00\xf5\x00\x07\x00@\x00\x00\x00\xab\x00\x00\x00\x95\x00\x00\x00V\x00\x00\x00\xaa\x00\x00\x00W\x00\x00\x00\xf5\x00\x07\x00@\x00\x00\x00\xad\x00\x00\x00\x95\x00\x00\x00V\x00\x00\x00\xac\x00\x00\x00W\x00\x00\x00\xf5\x00\x07\x00@\x00\x00\x00\xaf\x00\x00\x00\x95\x00\x00\x00V\x00\x00\x00\xae\x00\x00\x00W\x00\x00\x00\xf5\x00\x07\x00@\x00\x00\x00\xb1\x00\x00\x00\x95\x00\x00\x00V\x00\x00\x00\xb0\x00\x00\x00W\x00\x00\x00\xf5\x00\x07\x00@\x00\x00\x00\xb3\x00\x00\x00\x95\x00\x00\x00V\x00\x00\x00\xb2\x00\x00\x00W\x00\x00\x00\xf5\x00\x07\x00@\x00\x00\x00\xb5\x00\x00\x00\x95\x00\x00\x00V\x00\x00\x00\xb4\x00\x00\x00W\x00\x00\x00\xf5\x00\x07\x00\x03\x00\x00\x00\xb7\x00\x00\x00Y\x00\x00\x00V\x00\x00\x00\xb6\x00\x00\x00W\x00\x00\x00Q\x00\x05\x00\x03\x00\x00\x00\xb8\x00\x00\x00\x94\x00\x00\x00\x00\x00\x00\x00Q\x00\x05\x00\x03\x00\x00\x00\xb9\x00\x00\x00\x94\x00\x00\x00\x01\x00\x00\x009\x00\x11\x00\x1f\x00\x00\x00\xbd\x00\x00\x00!\x00\x00\x00\x8d\x00\x00\x00\xba\x00\x00\x00\xbb\x00\x00\x00\xba\x00\x00\x00\xb8\x00\x00\x00\xb9\x00\x00\x00o\x00\x00\x00o\x00\x00\x00\x8a\x00\x00\x00_\x00\x00\x00\xbc\x00\x00\x00\xbc\x00\x00\x00Y\x00\x00\x00Q\x00\x05\x00\x03\x00\x00\x00\xbe\x00\x00\x00\x92\x00\x00\x00\x00\x00\x00\x00Q\x00\x05\x00\x03\x00\x00\x00\xbf\x00\x00\x00\x92\x00\x00\x00\x01\x00\x00\x009\x00\x11\x00/\x00\x00\x00\xc1\x00\x00\x001\x00\x00\x00\x8e\x00\x00\x00\xba\x00\x00\x00\xbb\x00\x00\x00\xba\x00\x00\x00\xbe\x00\x00\x00\xbf\x00\x00\x00o\x00\x00\x00o\x00\x00\x00\x8a\x00\x00\x00_\x00\x00\x00\xbc\x00\x00\x00\xc0\x00\x00\x00Y\x00\x00\x00Q\x00\x05\x00\x03\x00\x00\x00\xc2\x00\x00\x00\x90\x00\x00\x00\x00\x00\x00\x00Q\x00\x05\x00\x03\x00\x00\x00\xc3\x00\x00\x00\x90\x00\x00\x00\x01\x00\x00\x009\x00\x11\x00/\x00\x00\x00\xc4\x00\x00\x001\x00\x00\x00\x8e\x00\x00\x00\xba\x00\x00\x00\xbb\x00\x00\x00\xba\x00\x00\x00\xc2\x00\x00\x00\xc3\x00\x00\x00o\x00\x00\x00o\x00\x00\x00\x8a\x00\x00\x00_\x00\x00\x00\xbc\x00\x00\x00\xc0\x00\x00\x00Y\x00\x00\x00O\x00\r\x00A\x00\x00\x00\xc6\x00\x00\x00\xbd\x00\x00\x00\xc5\x00\x00\x00\x00\x00\x00\x00\x01\x00\x00\x00\x02\x00\x00\x00\x03\x00\x00\x00\x04\x00\x00\x00\x05\x00\x00\x00\x06\x00\x00\x00\x07\x00\x00\x00O\x00\r\x00\r\x00\x00\x00\xc8\x00\x00\x00\xc1\x00\x00\x00\xc7\x00\x00\x00\x00\x00\x00\x00\x01\x00\x00\x00\x02\x00\x00\x00\x03\x00\x00\x00\x04\x00\x00\x00\x05\x00\x00\x00\x06\x00\x00\x00\x07\x00\x00\x009\x00\x0c\x00@\x00\x00\x00\xca\x00\x00\x00C\x00\x00\x00\xb5\x00\x00\x00\xc6\x00\x00\x00\xc8\x00\x00\x00\xc9\x00\x00\x00\xc9\x00\x00\x00y\x00\x00\x00y\x00\x00\x00\xbc\x00\x00\x00O\x00\r\x00A\x00\x00\x00\xcb\x00\x00\x00\xbd\x00\x00\x00\xc5\x00\x00\x00 \x00\x00\x00!\x00\x00\x00"\x00\x00\x00#\x00\x00\x00$\x00\x00\x00%\x00\x00\x00&\x00\x00\x00\'\x00\x00\x00O\x00\r\x00\r\x00\x00\x00\xcc\x00\x00\x00\xc1\x00\x00\x00\xc7\x00\x00\x00\x08\x00\x00\x00\t\x00\x00\x00\n\x00\x00\x00\x0b\x00\x00\x00\x0c\x00\x00\x00\r\x00\x00\x00\x0e\x00\x00\x00\x0f\x00\x00\x009\x00\x0c\x00@\x00\x00\x00\xb4\x00\x00\x00C\x00\x00\x00\xca\x00\x00\x00\xcb\x00\x00\x00\xcc\x00\x00\x00\xc9\x00\x00\x00\xc9\x00\x00\x00y\x00\x00\x00y\x00\x00\x00\xbc\x00\x00\x00O\x00\r\x00A\x00\x00\x00\xce\x00\x00\x00\xbd\x00\x00\x00\xc5\x00\x00\x00\x08\x00\x00\x00\t\x00\x00\x00\n\x00\x00\x00\x0b\x00\x00\x00\x0c\x00\x00\x00\r\x00\x00\x00\x0e\x00\x00\x00\x0f\x00\x00\x009\x00\x0c\x00@\x00\x00\x00\xcf\x00\x00\x00C\x00\x00\x00\xb3\x00\x00\x00\xce\x00\x00\x00\xc8\x00\x00\x00\xc9\x00\x00\x00\xc9\x00\x00\x00y\x00\x00\x00y\x00\x00\x00\xbc\x00\x00\x00O\x00\r\x00A\x00\x00\x00\xd0\x00\x00\x00\xbd\x00\x00\x00\xc5\x00\x00\x00(\x00\x00\x00)\x00\x00\x00*\x00\x00\x00+\x00\x00\x00,\x00\x00\x00-\x00\x00\x00.\x00\x00\x00/\x00\x00\x009\x00\x0c\x00@\x00\x00\x00\xb2\x00\x00\x00C\x00\x00\x00\xcf\x00\x00\x00\xd0\x00\x00\x00\xcc\x00\x00\x00\xc9\x00\x00\x00\xc9\x00\x00\x00y\x00\x00\x00y\x00\x00\x00\xbc\x00\x00\x00O\x00\r\x00A\x00\x00\x00\xd2\x00\x00\x00\xbd\x00\x00\x00\xc5\x00\x00\x00\x10\x00\x00\x00\x11\x00\x00\x00\x12\x00\x00\x00\x13\x00\x00\x00\x14\x00\x00\x00\x15\x00\x00\x00\x16\x00\x00\x00\x17\x00\x00\x009\x00\x0c\x00@\x00\x00\x00\xd3\x00\x00\x00C\x00\x00\x00\xb1\x00\x00\x00\xd2\x00\x00\x00\xc8\x00\x00\x00\xc9\x00\x00\x00\xc9\x00\x00\x00y\x00\x00\x00y\x00\x00\x00\xbc\x00\x00\x00O\x00\r\x00A\x00\x00\x00\xd4\x00\x00\x00\xbd\x00\x00\x00\xc5\x00\x00\x000\x00\x00\x001\x00\x00\x002\x00\x00\x003\x00\x00\x004\x00\x00\x005\x00\x00\x006\x00\x00\x007\x00\x00\x009\x00\x0c\x00@\x00\x00\x00\xb0\x00\x00\x00C\x00\x00\x00\xd3\x00\x00\x00\xd4\x00\x00\x00\xcc\x00\x00\x00\xc9\x00\x00\x00\xc9\x00\x00\x00y\x00\x00\x00y\x00\x00\x00\xbc\x00\x00\x00O\x00\r\x00A\x00\x00\x00\xd6\x00\x00\x00\xbd\x00\x00\x00\xc5\x00\x00\x00\x18\x00\x00\x00\x19\x00\x00\x00\x1a\x00\x00\x00\x1b\x00\x00\x00\x1c\x00\x00\x00\x1d\x00\x00\x00\x1e\x00\x00\x00\x1f\x00\x00\x009\x00\x0c\x00@\x00\x00\x00\xd7\x00\x00\x00C\x00\x00\x00\xaf\x00\x00\x00\xd6\x00\x00\x00\xc8\x00\x00\x00\xc9\x00\x00\x00\xc9\x00\x00\x00y\x00\x00\x00y\x00\x00\x00\xbc\x00\x00\x00O\x00\r\x00A\x00\x00\x00\xd8\x00\x00\x00\xbd\x00\x00\x00\xc5\x00\x00\x008\x00\x00\x009\x00\x00\x00:\x00\x00\x00;\x00\x00\x00<\x00\x00\x00=\x00\x00\x00>\x00\x00\x00?\x00\x00\x009\x00\x0c\x00@\x00\x00\x00\xae\x00\x00\x00C\x00\x00\x00\xd7\x00\x00\x00\xd8\x00\x00\x00\xcc\x00\x00\x00\xc9\x00\x00\x00\xc9\x00\x00\x00y\x00\x00\x00y\x00\x00\x00\xbc\x00\x00\x00O\x00\r\x00\r\x00\x00\x00\xda\x00\x00\x00\xc1\x00\x00\x00\xc7\x00\x00\x00\x10\x00\x00\x00\x11\x00\x00\x00\x12\x00\x00\x00\x13\x00\x00\x00\x14\x00\x00\x00\x15\x00\x00\x00\x16\x00\x00\x00\x17\x00\x00\x009\x00\x0c\x00@\x00\x00\x00\xdb\x00\x00\x00C\x00\x00\x00\xad\x00\x00\x00\xc6\x00\x00\x00\xda\x00\x00\x00\xc9\x00\x00\x00\xc9\x00\x00\x00y\x00\x00\x00y\x00\x00\x00\xbc\x00\x00\x00O\x00\r\x00\r\x00\x00\x00\xdc\x00\x00\x00\xc1\x00\x00\x00\xc7\x00\x00\x00\x18\x00\x00\x00\x19\x00\x00\x00\x1a\x00\x00\x00\x1b\x00\x00\x00\x1c\x00\x00\x00\x1d\x00\x00\x00\x1e\x00\x00\x00\x1f\x00\x00\x009\x00\x0c\x00@\x00\x00\x00\xac\x00\x00\x00C\x00\x00\x00\xdb\x00\x00\x00\xcb\x00\x00\x00\xdc\x00\x00\x00\xc9\x00\x00\x00\xc9\x00\x00\x00y\x00\x00\x00y\x00\x00\x00\xbc\x00\x00\x009\x00\x0c\x00@\x00\x00\x00\xde\x00\x00\x00C\x00\x00\x00\xab\x00\x00\x00\xce\x00\x00\x00\xda\x00\x00\x00\xc9\x00\x00\x00\xc9\x00\x00\x00y\x00\x00\x00y\x00\x00\x00\xbc\x00\x00\x009\x00\x0c\x00@\x00\x00\x00\xaa\x00\x00\x00C\x00\x00\x00\xde\x00\x00\x00\xd0\x00\x00\x00\xdc\x00\x00\x00\xc9\x00\x00\x00\xc9\x00\x00\x00y\x00\x00\x00y\x00\x00\x00\xbc\x00\x00\x009\x00\x0c\x00@\x00\x00\x00\xe0\x00\x00\x00C\x00\x00\x00\xa9\x00\x00\x00\xd2\x00\x00\x00\xda\x00\x00\x00\xc9\x00\x00\x00\xc9\x00\x00\x00y\x00\x00\x00y\x00\x00\x00\xbc\x00\x00\x009\x00\x0c\x00@\x00\x00\x00\xa8\x00\x00\x00C\x00\x00\x00\xe0\x00\x00\x00\xd4\x00\x00\x00\xdc\x00\x00\x00\xc9\x00\x00\x00\xc9\x00\x00\x00y\x00\x00\x00y\x00\x00\x00\xbc\x00\x00\x009\x00\x0c\x00@\x00\x00\x00\xe2\x00\x00\x00C\x00\x00\x00\xa7\x00\x00\x00\xd6\x00\x00\x00\xda\x00\x00\x00\xc9\x00\x00\x00\xc9\x00\x00\x00y\x00\x00\x00y\x00\x00\x00\xbc\x00\x00\x009\x00\x0c\x00@\x00\x00\x00\xa6\x00\x00\x00C\x00\x00\x00\xe2\x00\x00\x00\xd8\x00\x00\x00\xdc\x00\x00\x00\xc9\x00\x00\x00\xc9\x00\x00\x00y\x00\x00\x00y\x00\x00\x00\xbc\x00\x00\x00O\x00\r\x00\r\x00\x00\x00\xe4\x00\x00\x00\xc4\x00\x00\x00\xc7\x00\x00\x00\x00\x00\x00\x00\x01\x00\x00\x00\x02\x00\x00\x00\x03\x00\x00\x00\x04\x00\x00\x00\x05\x00\x00\x00\x06\x00\x00\x00\x07\x00\x00\x009\x00\x0c\x00@\x00\x00\x00\xe5\x00\x00\x00C\x00\x00\x00\xa5\x00\x00\x00\xc6\x00\x00\x00\xe4\x00\x00\x00\xc9\x00\x00\x00\xc9\x00\x00\x00y\x00\x00\x00y\x00\x00\x00\xbc\x00\x00\x00O\x00\r\x00\r\x00\x00\x00\xe6\x00\x00\x00\xc4\x00\x00\x00\xc7\x00\x00\x00\x08\x00\x00\x00\t\x00\x00\x00\n\x00\x00\x00\x0b\x00\x00\x00\x0c\x00\x00\x00\r\x00\x00\x00\x0e\x00\x00\x00\x0f\x00\x00\x009\x00\x0c\x00@\x00\x00\x00\xa4\x00\x00\x00C\x00\x00\x00\xe5\x00\x00\x00\xcb\x00\x00\x00\xe6\x00\x00\x00\xc9\x00\x00\x00\xc9\x00\x00\x00y\x00\x00\x00y\x00\x00\x00\xbc\x00\x00\x009\x00\x0c\x00@\x00\x00\x00\xe8\x00\x00\x00C\x00\x00\x00\xa3\x00\x00\x00\xce\x00\x00\x00\xe4\x00\x00\x00\xc9\x00\x00\x00\xc9\x00\x00\x00y\x00\x00\x00y\x00\x00\x00\xbc\x00\x00\x009\x00\x0c\x00@\x00\x00\x00\xa2\x00\x00\x00C\x00\x00\x00\xe8\x00\x00\x00\xd0\x00\x00\x00\xe6\x00\x00\x00\xc9\x00\x00\x00\xc9\x00\x00\x00y\x00\x00\x00y\x00\x00\x00\xbc\x00\x00\x009\x00\x0c\x00@\x00\x00\x00\xea\x00\x00\x00C\x00\x00\x00\xa1\x00\x00\x00\xd2\x00\x00\x00\xe4\x00\x00\x00\xc9\x00\x00\x00\xc9\x00\x00\x00y\x00\x00\x00y\x00\x00\x00\xbc\x00\x00\x009\x00\x0c\x00@\x00\x00\x00\xa0\x00\x00\x00C\x00\x00\x00\xea\x00\x00\x00\xd4\x00\x00\x00\xe6\x00\x00\x00\xc9\x00\x00\x00\xc9\x00\x00\x00y\x00\x00\x00y\x00\x00\x00\xbc\x00\x00\x009\x00\x0c\x00@\x00\x00\x00\xec\x00\x00\x00C\x00\x00\x00\x9f\x00\x00\x00\xd6\x00\x00\x00\xe4\x00\x00\x00\xc9\x00\x00\x00\xc9\x00\x00\x00y\x00\x00\x00y\x00\x00\x00\xbc\x00\x00\x009\x00\x0c\x00@\x00\x00\x00\x9e\x00\x00\x00C\x00\x00\x00\xec\x00\x00\x00\xd8\x00\x00\x00\xe6\x00\x00\x00\xc9\x00\x00\x00\xc9\x00\x00\x00y\x00\x00\x00y\x00\x00\x00\xbc\x00\x00\x00O\x00\r\x00\r\x00\x00\x00\xee\x00\x00\x00\xc4\x00\x00\x00\xc7\x00\x00\x00\x10\x00\x00\x00\x11\x00\x00\x00\x12\x00\x00\x00\x13\x00\x00\x00\x14\x00\x00\x00\x15\x00\x00\x00\x16\x00\x00\x00\x17\x00\x00\x009\x00\x0c\x00@\x00\x00\x00\xef\x00\x00\x00C\x00\x00\x00\x9d\x00\x00\x00\xc6\x00\x00\x00\xee\x00\x00\x00\xc9\x00\x00\x00\xc9\x00\x00\x00y\x00\x00\x00y\x00\x00\x00\xbc\x00\x00\x00O\x00\r\x00\r\x00\x00\x00\xf0\x00\x00\x00\xc4\x00\x00\x00\xc7\x00\x00\x00\x18\x00\x00\x00\x19\x00\x00\x00\x1a\x00\x00\x00\x1b\x00\x00\x00\x1c\x00\x00\x00\x1d\x00\x00\x00\x1e\x00\x00\x00\x1f\x00\x00\x009\x00\x0c\x00@\x00\x00\x00\x9c\x00\x00\x00C\x00\x00\x00\xef\x00\x00\x00\xcb\x00\x00\x00\xf0\x00\x00\x00\xc9\x00\x00\x00\xc9\x00\x00\x00y\x00\x00\x00y\x00\x00\x00\xbc\x00\x00\x009\x00\x0c\x00@\x00\x00\x00\xf2\x00\x00\x00C\x00\x00\x00\x9b\x00\x00\x00\xce\x00\x00\x00\xee\x00\x00\x00\xc9\x00\x00\x00\xc9\x00\x00\x00y\x00\x00\x00y\x00\x00\x00\xbc\x00\x00\x009\x00\x0c\x00@\x00\x00\x00\x9a\x00\x00\x00C\x00\x00\x00\xf2\x00\x00\x00\xd0\x00\x00\x00\xf0\x00\x00\x00\xc9\x00\x00\x00\xc9\x00\x00\x00y\x00\x00\x00y\x00\x00\x00\xbc\x00\x00\x009\x00\x0c\x00@\x00\x00\x00\xf4\x00\x00\x00C\x00\x00\x00\x99\x00\x00\x00\xd2\x00\x00\x00\xee\x00\x00\x00\xc9\x00\x00\x00\xc9\x00\x00\x00y\x00\x00\x00y\x00\x00\x00\xbc\x00\x00\x009\x00\x0c\x00@\x00\x00\x00\x98\x00\x00\x00C\x00\x00\x00\xf4\x00\x00\x00\xd4\x00\x00\x00\xf0\x00\x00\x00\xc9\x00\x00\x00\xc9\x00\x00\x00y\x00\x00\x00y\x00\x00\x00\xbc\x00\x00\x009\x00\x0c\x00@\x00\x00\x00\xf6\x00\x00\x00C\x00\x00\x00\x97\x00\x00\x00\xd6\x00\x00\x00\xee\x00\x00\x00\xc9\x00\x00\x00\xc9\x00\x00\x00y\x00\x00\x00y\x00\x00\x00\xbc\x00\x00\x009\x00\x0c\x00@\x00\x00\x00\x96\x00\x00\x00C\x00\x00\x00\xf6\x00\x00\x00\xd8\x00\x00\x00\xf0\x00\x00\x00\xc9\x00\x00\x00\xc9\x00\x00\x00y\x00\x00\x00y\x00\x00\x00\xbc\x00\x00\x00\x80\x00\x05\x00\x03\x00\x00\x00\xf8\x00\x00\x00\xb8\x00\x00\x00\x8a\x00\x00\x00R\x00\x06\x00\x7f\x00\x00\x00\x93\x00\x00\x00\xf8\x00\x00\x00\x94\x00\x00\x00\x00\x00\x00\x00\x80\x00\x05\x00\x03\x00\x00\x00\xfa\x00\x00\x00\xbf\x00\x00\x00\x8a\x00\x00\x00R\x00\x06\x00\x7f\x00\x00\x00\x91\x00\x00\x00\xfa\x00\x00\x00\x92\x00\x00\x00\x01\x00\x00\x00\x80\x00\x05\x00\x03\x00\x00\x00\xfc\x00\x00\x00\xc3\x00\x00\x00\x8a\x00\x00\x00R\x00\x06\x00\x7f\x00\x00\x00\x8f\x00\x00\x00\xfc\x00\x00\x00\x90\x00\x00\x00\x01\x00\x00\x00\x80\x00\x05\x00\x03\x00\x00\x00\xb6\x00\x00\x00\xb7\x00\x00\x00\x8a\x00\x00\x00\xb0\x00\x05\x00\x0c\x00\x00\x00\x00\x01\x00\x00\xb7\x00\x00\x00\xff\x00\x00\x00\xfa\x00\x04\x00\x00\x01\x00\x00W\x00\x00\x00X\x00\x00\x00\xf8\x00\x02\x00X\x00\x00\x00\xc5\x00\x05\x00\x03\x00\x00\x00\x01\x01\x00\x00~\x00\x00\x00y\x00\x00\x00\xc5\x00\x05\x00\x03\x00\x00\x00\x02\x01\x00\x00~\x00\x00\x00o\x00\x00\x00\xc5\x00\x05\x00\x03\x00\x00\x00\x04\x01\x00\x00~\x00\x00\x00\x03\x01\x00\x00\xc5\x00\x05\x00\x03\x00\x00\x00\x05\x01\x00\x00\x87\x00\x00\x00o\x00\x00\x00\xc5\x00\x05\x00\x03\x00\x00\x00\x07\x01\x00\x00\x87\x00\x00\x00\x06\x01\x00\x00|\x00\x04\x00\r\x00\x00\x00\x08\x01\x00\x00\xb4\x00\x00\x00u\x00\x04\x00\x02\x00\x00\x00\t\x01\x00\x00R\x00\x00\x009\x00\x12\x00\x0b\x00\x00\x00\x0b\x01\x00\x00\x0f\x00\x00\x00\t\x01\x00\x00\n\x01\x00\x00\xbb\x00\x00\x00\n\x01\x00\x00\x87\x00\x00\x00~\x00\x00\x00\x8a\x00\x00\x00o\x00\x00\x00y\x00\x00\x00\\\x00\x00\x00\xbc\x00\x00\x00\xbc\x00\x00\x00Y\x00\x00\x00\x08\x01\x00\x00|\x00\x04\x00\r\x00\x00\x00\x0c\x01\x00\x00\xb2\x00\x00\x009\x00\x12\x00\x0b\x00\x00\x00\r\x01\x00\x00\x0f\x00\x00\x00\t\x01\x00\x00\n\x01\x00\x00\xbb\x00\x00\x00\n\x01\x00\x00\x87\x00\x00\x00\x01\x01\x00\x00\x8a\x00\x00\x00o\x00\x00\x00y\x00\x00\x00\\\x00\x00\x00\xbc\x00\x00\x00\xbc\x00\x00\x00Y\x00\x00\x00\x0c\x01\x00\x00|\x00\x04\x00\r\x00\x00\x00\x0e\x01\x00\x00\xb0\x00\x00\x009\x00\x12\x00\x0b\x00\x00\x00\x0f\x01\x00\x00\x0f\x00\x00\x00\t\x01\x00\x00\n\x01\x00\x00\xbb\x00\x00\x00\n\x01\x00\x00\x87\x00\x00\x00\x02\x01\x00\x00\x8a\x00\x00\x00o\x00\x00\x00y\x00\x00\x00\\\x00\x00\x00\xbc\x00\x00\x00\xbc\x00\x00\x00Y\x00\x00\x00\x0e\x01\x00\x00|\x00\x04\x00\r\x00\x00\x00\x10\x01\x00\x00\xae\x00\x00\x009\x00\x12\x00\x0b\x00\x00\x00\x11\x01\x00\x00\x0f\x00\x00\x00\t\x01\x00\x00\n\x01\x00\x00\xbb\x00\x00\x00\n\x01\x00\x00\x87\x00\x00\x00\x04\x01\x00\x00\x8a\x00\x00\x00o\x00\x00\x00y\x00\x00\x00\\\x00\x00\x00\xbc\x00\x00\x00\xbc\x00\x00\x00Y\x00\x00\x00\x10\x01\x00\x00|\x00\x04\x00\r\x00\x00\x00\x12\x01\x00\x00\xac\x00\x00\x009\x00\x12\x00\x0b\x00\x00\x00\x13\x01\x00\x00\x0f\x00\x00\x00\t\x01\x00\x00\n\x01\x00\x00\xbb\x00\x00\x00\n\x01\x00\x00\x05\x01\x00\x00~\x00\x00\x00\x8a\x00\x00\x00o\x00\x00\x00y\x00\x00\x00\\\x00\x00\x00\xbc\x00\x00\x00\xbc\x00\x00\x00Y\x00\x00\x00\x12\x01\x00\x00|\x00\x04\x00\r\x00\x00\x00\x14\x01\x00\x00\xaa\x00\x00\x009\x00\x12\x00\x0b\x00\x00\x00\x15\x01\x00\x00\x0f\x00\x00\x00\t\x01\x00\x00\n\x01\x00\x00\xbb\x00\x00\x00\n\x01\x00\x00\x05\x01\x00\x00\x01\x01\x00\x00\x8a\x00\x00\x00o\x00\x00\x00y\x00\x00\x00\\\x00\x00\x00\xbc\x00\x00\x00\xbc\x00\x00\x00Y\x00\x00\x00\x14\x01\x00\x00|\x00\x04\x00\r\x00\x00\x00\x16\x01\x00\x00\xa8\x00\x00\x009\x00\x12\x00\x0b\x00\x00\x00\x17\x01\x00\x00\x0f\x00\x00\x00\t\x01\x00\x00\n\x01\x00\x00\xbb\x00\x00\x00\n\x01\x00\x00\x05\x01\x00\x00\x02\x01\x00\x00\x8a\x00\x00\x00o\x00\x00\x00y\x00\x00\x00\\\x00\x00\x00\xbc\x00\x00\x00\xbc\x00\x00\x00Y\x00\x00\x00\x16\x01\x00\x00|\x00\x04\x00\r\x00\x00\x00\x18\x01\x00\x00\xa6\x00\x00\x009\x00\x12\x00\x0b\x00\x00\x00\x19\x01\x00\x00\x0f\x00\x00\x00\t\x01\x00\x00\n\x01\x00\x00\xbb\x00\x00\x00\n\x01\x00\x00\x05\x01\x00\x00\x04\x01\x00\x00\x8a\x00\x00\x00o\x00\x00\x00y\x00\x00\x00\\\x00\x00\x00\xbc\x00\x00\x00\xbc\x00\x00\x00Y\x00\x00\x00\x18\x01\x00\x00|\x00\x04\x00\r\x00\x00\x00\x1a\x01\x00\x00\xa4\x00\x00\x009\x00\x12\x00\x0b\x00\x00\x00\x1b\x01\x00\x00\x0f\x00\x00\x00\t\x01\x00\x00\n\x01\x00\x00\xbb\x00\x00\x00\n\x01\x00\x00\x8b\x00\x00\x00~\x00\x00\x00\x8a\x00\x00\x00o\x00\x00\x00y\x00\x00\x00\\\x00\x00\x00\xbc\x00\x00\x00\xbc\x00\x00\x00Y\x00\x00\x00\x1a\x01\x00\x00|\x00\x04\x00\r\x00\x00\x00\x1c\x01\x00\x00\xa2\x00\x00\x009\x00\x12\x00\x0b\x00\x00\x00\x1d\x01\x00\x00\x0f\x00\x00\x00\t\x01\x00\x00\n\x01\x00\x00\xbb\x00\x00\x00\n\x01\x00\x00\x8b\x00\x00\x00\x01\x01\x00\x00\x8a\x00\x00\x00o\x00\x00\x00y\x00\x00\x00\\\x00\x00\x00\xbc\x00\x00\x00\xbc\x00\x00\x00Y\x00\x00\x00\x1c\x01\x00\x00|\x00\x04\x00\r\x00\x00\x00\x1e\x01\x00\x00\xa0\x00\x00\x009\x00\x12\x00\x0b\x00\x00\x00\x1f\x01\x00\x00\x0f\x00\x00\x00\t\x01\x00\x00\n\x01\x00\x00\xbb\x00\x00\x00\n\x01\x00\x00\x8b\x00\x00\x00\x02\x01\x00\x00\x8a\x00\x00\x00o\x00\x00\x00y\x00\x00\x00\\\x00\x00\x00\xbc\x00\x00\x00\xbc\x00\x00\x00Y\x00\x00\x00\x1e\x01\x00\x00|\x00\x04\x00\r\x00\x00\x00 \x01\x00\x00\x9e\x00\x00\x009\x00\x12\x00\x0b\x00\x00\x00!\x01\x00\x00\x0f\x00\x00\x00\t\x01\x00\x00\n\x01\x00\x00\xbb\x00\x00\x00\n\x01\x00\x00\x8b\x00\x00\x00\x04\x01\x00\x00\x8a\x00\x00\x00o\x00\x00\x00y\x00\x00\x00\\\x00\x00\x00\xbc\x00\x00\x00\xbc\x00\x00\x00Y\x00\x00\x00 \x01\x00\x00|\x00\x04\x00\r\x00\x00\x00"\x01\x00\x00\x9c\x00\x00\x009\x00\x12\x00\x0b\x00\x00\x00#\x01\x00\x00\x0f\x00\x00\x00\t\x01\x00\x00\n\x01\x00\x00\xbb\x00\x00\x00\n\x01\x00\x00\x07\x01\x00\x00~\x00\x00\x00\x8a\x00\x00\x00o\x00\x00\x00y\x00\x00\x00\\\x00\x00\x00\xbc\x00\x00\x00\xbc\x00\x00\x00Y\x00\x00\x00"\x01\x00\x00|\x00\x04\x00\r\x00\x00\x00$\x01\x00\x00\x9a\x00\x00\x009\x00\x12\x00\x0b\x00\x00\x00%\x01\x00\x00\x0f\x00\x00\x00\t\x01\x00\x00\n\x01\x00\x00\xbb\x00\x00\x00\n\x01\x00\x00\x07\x01\x00\x00\x01\x01\x00\x00\x8a\x00\x00\x00o\x00\x00\x00y\x00\x00\x00\\\x00\x00\x00\xbc\x00\x00\x00\xbc\x00\x00\x00Y\x00\x00\x00$\x01\x00\x00|\x00\x04\x00\r\x00\x00\x00&\x01\x00\x00\x98\x00\x00\x009\x00\x12\x00\x0b\x00\x00\x00\'\x01\x00\x00\x0f\x00\x00\x00\t\x01\x00\x00\n\x01\x00\x00\xbb\x00\x00\x00\n\x01\x00\x00\x07\x01\x00\x00\x02\x01\x00\x00\x8a\x00\x00\x00o\x00\x00\x00y\x00\x00\x00\\\x00\x00\x00\xbc\x00\x00\x00\xbc\x00\x00\x00Y\x00\x00\x00&\x01\x00\x00|\x00\x04\x00\r\x00\x00\x00(\x01\x00\x00\x96\x00\x00\x009\x00\x12\x00\x0b\x00\x00\x00)\x01\x00\x00\x0f\x00\x00\x00\t\x01\x00\x00\n\x01\x00\x00\xbb\x00\x00\x00\n\x01\x00\x00\x07\x01\x00\x00\x04\x01\x00\x00\x8a\x00\x00\x00o\x00\x00\x00y\x00\x00\x00\\\x00\x00\x00\xbc\x00\x00\x00\xbc\x00\x00\x00Y\x00\x00\x00(\x01\x00\x00\xfd\x00\x01\x008\x00\x01\x006\x00\x05\x00\x0b\x00\x00\x00*\x01\x00\x00\x00\x00\x00\x00N\x00\x00\x007\x00\x03\x00M\x00\x00\x00+\x01\x00\x007\x00\x03\x00M\x00\x00\x00,\x01\x00\x007\x00\x03\x00M\x00\x00\x00-\x01\x00\x007\x00\x03\x00\x03\x00\x00\x00.\x01\x00\x007\x00\x03\x00\x03\x00\x00\x00/\x01\x00\x007\x00\x03\x00\x03\x00\x00\x000\x01\x00\x00\xf8\x00\x02\x001\x01\x00\x009\x00\n\x00\x0b\x00\x00\x002\x01\x00\x00O\x00\x00\x00+\x01\x00\x00,\x01\x00\x00-\x01\x00\x00.\x01\x00\x00/\x01\x00\x000\x01\x00\x00\xfd\x00\x01\x008\x00\x01\x00'create kernel:matmul_kernel_with_block_pointers_0d1d2d3d4d5d
compiled kernel ptr: 0xf2a64a0
total kernels:1
  kernel:matmul_kernel_with_block_pointers_0d1d2d3d4d5d @0xf2a64a0
threads_per_warp16
num_warps32
global_range_x131072
global_range_y1
global_range_z1
local_range_x512
2024-03-09 05:43:27,650 - numexpr.utils - INFO - Note: detected 224 virtual cores but NumExpr set to maximum of 64, check "NUMEXPR_MAX_THREADS" environment variable.
2024-03-09 05:43:27,651 - numexpr.utils - INFO - Note: NumExpr detected 224 cores but "NUMEXPR_MAX_THREADS" not set, so enforcing safe limit of 8.
2024-03-09 05:43:27,651 - numexpr.utils - INFO - NumExpr defaulting to 8 threads.
threads_per_warp16
num_warps32
global_range_x131072
global_range_y1
global_range_z1
local_range_x512
threads_per_warp16
num_warps32
global_range_x131072
global_range_y1
global_range_z1
local_range_x512
threads_per_warp16
num_warps32
global_range_x131072
global_range_y1
global_range_z1
local_range_x512
threads_per_warp16
num_warps32
global_range_x131072
global_range_y1
global_range_z1
local_range_x512
threads_per_warp16
num_warps32
global_range_x131072
global_range_y1
global_range_z1
local_range_x512
threads_per_warp16
num_warps32
global_range_x131072
global_range_y1
global_range_z1
local_range_x512
threads_per_warp16
num_warps32
global_range_x131072
global_range_y1
global_range_z1
local_range_x512
threads_per_warp16
num_warps32
global_range_x131072
global_range_y1
global_range_z1
local_range_x512
threads_per_warp16
num_warps32
global_range_x131072
global_range_y1
global_range_z1
local_range_x512
threads_per_warp16
num_warps32
global_range_x131072
global_range_y1
global_range_z1
local_range_x512
threads_per_warp16
num_warps32
global_range_x131072
global_range_y1
global_range_z1
local_range_x512
threads_per_warp16
num_warps32
global_range_x131072
global_range_y1
global_range_z1
local_range_x512
threads_per_warp16
num_warps32
global_range_x131072
global_range_y1
global_range_z1
local_range_x512
threads_per_warp16
num_warps32
global_range_x131072
global_range_y1
global_range_z1
local_range_x512
threads_per_warp16
num_warps32
global_range_x131072
global_range_y1
global_range_z1
local_range_x512
threads_per_warp16
num_warps32
global_range_x131072
global_range_y1
global_range_z1
local_range_x512
threads_per_warp16
num_warps32
global_range_x131072
global_range_y1
global_range_z1
local_range_x512
threads_per_warp16
num_warps32
global_range_x131072
global_range_y1
global_range_z1
local_range_x512
threads_per_warp16
num_warps32
global_range_x131072
global_range_y1
global_range_z1
local_range_x512
threads_per_warp16
num_warps32
global_range_x131072
global_range_y1
global_range_z1
local_range_x512
threads_per_warp16
num_warps32
global_range_x131072
global_range_y1
global_range_z1
local_range_x512
threads_per_warp16
num_warps32
global_range_x131072
global_range_y1
global_range_z1
local_range_x512
threads_per_warp16
num_warps32
global_range_x131072
global_range_y1
global_range_z1
local_range_x512
threads_per_warp16
num_warps32
global_range_x131072
global_range_y1
global_range_z1
local_range_x512
threads_per_warp16
num_warps32
global_range_x131072
global_range_y1
global_range_z1
local_range_x512
threads_per_warp16
num_warps32
global_range_x131072
global_range_y1
global_range_z1
local_range_x512
threads_per_warp16
num_warps32
global_range_x131072
global_range_y1
global_range_z1
local_range_x512
threads_per_warp16
num_warps32
global_range_x131072
global_range_y1
global_range_z1
local_range_x512
threads_per_warp16
num_warps32
global_range_x131072
global_range_y1
global_range_z1
local_range_x512
threads_per_warp16
num_warps32
global_range_x131072
global_range_y1
global_range_z1
local_range_x512
threads_per_warp16
num_warps32
global_range_x131072
global_range_y1
global_range_z1
local_range_x512
threads_per_warp16
num_warps32
global_range_x131072
global_range_y1
global_range_z1
local_range_x512
threads_per_warp16
num_warps32
global_range_x131072
global_range_y1
global_range_z1
local_range_x512
threads_per_warp16
num_warps32
global_range_x131072
global_range_y1
global_range_z1
local_range_x512
threads_per_warp16
num_warps32
global_range_x131072
global_range_y1
global_range_z1
local_range_x512
threads_per_warp16
num_warps32
global_range_x131072
global_range_y1
global_range_z1
local_range_x512
threads_per_warp16
num_warps32
global_range_x131072
global_range_y1
global_range_z1
local_range_x512
threads_per_warp16
num_warps32
global_range_x131072
global_range_y1
global_range_z1
local_range_x512
threads_per_warp16
num_warps32
global_range_x131072
global_range_y1
global_range_z1
local_range_x512
threads_per_warp16
num_warps32
global_range_x131072
global_range_y1
global_range_z1
local_range_x512
threads_per_warp16
num_warps32
global_range_x131072
global_range_y1
global_range_z1
local_range_x512
threads_per_warp16
num_warps32
global_range_x131072
global_range_y1
global_range_z1
local_range_x512
threads_per_warp16
num_warps32
global_range_x131072
global_range_y1
global_range_z1
local_range_x512
threads_per_warp16
num_warps32
global_range_x131072
global_range_y1
global_range_z1
local_range_x512
threads_per_warp16
num_warps32
global_range_x131072
global_range_y1
global_range_z1
local_range_x512
threads_per_warp16
num_warps32
global_range_x131072
global_range_y1
global_range_z1
local_range_x512
threads_per_warp16
num_warps32
global_range_x131072
global_range_y1
global_range_z1
local_range_x512
threads_per_warp16
num_warps32
global_range_x131072
global_range_y1
global_range_z1
local_range_x512
threads_per_warp16
num_warps32
global_range_x131072
global_range_y1
global_range_z1
local_range_x512
threads_per_warp16
num_warps32
global_range_x131072
global_range_y1
global_range_z1
local_range_x512
threads_per_warp16
num_warps32
global_range_x131072
global_range_y1
global_range_z1
local_range_x512
threads_per_warp16
num_warps32
global_range_x131072
global_range_y1
global_range_z1
local_range_x512
threads_per_warp16
num_warps32
global_range_x131072
global_range_y1
global_range_z1
local_range_x512
threads_per_warp16
num_warps32
global_range_x131072
global_range_y1
global_range_z1
local_range_x512
threads_per_warp16
num_warps32
global_range_x131072
global_range_y1
global_range_z1
local_range_x512
threads_per_warp16
num_warps32
global_range_x131072
global_range_y1
global_range_z1
local_range_x512
threads_per_warp16
num_warps32
global_range_x131072
global_range_y1
global_range_z1
local_range_x512
threads_per_warp16
num_warps32
global_range_x131072
global_range_y1
global_range_z1
local_range_x512
threads_per_warp16
num_warps32
global_range_x131072
global_range_y1
global_range_z1
local_range_x512
threads_per_warp16
num_warps32
global_range_x131072
global_range_y1
global_range_z1
local_range_x512
threads_per_warp16
num_warps32
global_range_x131072
global_range_y1
global_range_z1
local_range_x512
threads_per_warp16
num_warps32
global_range_x131072
global_range_y1
global_range_z1
local_range_x512
threads_per_warp16
num_warps32
global_range_x131072
global_range_y1
global_range_z1
local_range_x512
threads_per_warp16
num_warps32
global_range_x131072
global_range_y1
global_range_z1
local_range_x512
threads_per_warp16
num_warps32
global_range_x131072
global_range_y1
global_range_z1
local_range_x512
threads_per_warp16
num_warps32
global_range_x131072
global_range_y1
global_range_z1
local_range_x512
threads_per_warp16
num_warps32
global_range_x131072
global_range_y1
global_range_z1
local_range_x512
threads_per_warp16
num_warps32
global_range_x131072
global_range_y1
global_range_z1
local_range_x512
threads_per_warp16
num_warps32
global_range_x131072
global_range_y1
global_range_z1
local_range_x512
threads_per_warp16
num_warps32
global_range_x131072
global_range_y1
global_range_z1
local_range_x512
threads_per_warp16
num_warps32
global_range_x131072
global_range_y1
global_range_z1
local_range_x512
threads_per_warp16
num_warps32
global_range_x131072
global_range_y1
global_range_z1
local_range_x512
threads_per_warp16
num_warps32
global_range_x131072
global_range_y1
global_range_z1
local_range_x512
threads_per_warp16
num_warps32
global_range_x131072
global_range_y1
global_range_z1
local_range_x512
threads_per_warp16
num_warps32
global_range_x131072
global_range_y1
global_range_z1
local_range_x512
threads_per_warp16
num_warps32
global_range_x131072
global_range_y1
global_range_z1
local_range_x512
threads_per_warp16
num_warps32
global_range_x131072
global_range_y1
global_range_z1
local_range_x512
threads_per_warp16
num_warps32
global_range_x131072
global_range_y1
global_range_z1
local_range_x512
threads_per_warp16
num_warps32
global_range_x131072
global_range_y1
global_range_z1
local_range_x512
threads_per_warp16
num_warps32
global_range_x131072
global_range_y1
global_range_z1
local_range_x512
threads_per_warp16
num_warps32
global_range_x131072
global_range_y1
global_range_z1
local_range_x512
threads_per_warp16
num_warps32
global_range_x131072
global_range_y1
global_range_z1
local_range_x512
threads_per_warp16
num_warps32
global_range_x131072
global_range_y1
global_range_z1
local_range_x512
threads_per_warp16
num_warps32
global_range_x131072
global_range_y1
global_range_z1
local_range_x512
threads_per_warp16
num_warps32
global_range_x131072
global_range_y1
global_range_z1
local_range_x512
threads_per_warp16
num_warps32
global_range_x131072
global_range_y1
global_range_z1
local_range_x512
threads_per_warp16
num_warps32
global_range_x131072
global_range_y1
global_range_z1
local_range_x512
threads_per_warp16
num_warps32
global_range_x131072
global_range_y1
global_range_z1
local_range_x512
threads_per_warp16
num_warps32
global_range_x131072
global_range_y1
global_range_z1
local_range_x512
threads_per_warp16
num_warps32
global_range_x131072
global_range_y1
global_range_z1
local_range_x512
threads_per_warp16
num_warps32
global_range_x131072
global_range_y1
global_range_z1
local_range_x512
threads_per_warp16
num_warps32
global_range_x131072
global_range_y1
global_range_z1
local_range_x512
threads_per_warp16
num_warps32
global_range_x131072
global_range_y1
global_range_z1
local_range_x512
threads_per_warp16
num_warps32
global_range_x131072
global_range_y1
global_range_z1
local_range_x512
threads_per_warp16
num_warps32
global_range_x131072
global_range_y1
global_range_z1
local_range_x512
threads_per_warp16
num_warps32
global_range_x131072
global_range_y1
global_range_z1
local_range_x512
threads_per_warp16
num_warps32
global_range_x131072
global_range_y1
global_range_z1
local_range_x512
threads_per_warp16
num_warps32
global_range_x131072
global_range_y1
global_range_z1
local_range_x512
threads_per_warp16
num_warps32
global_range_x131072
global_range_y1
global_range_z1
local_range_x512
threads_per_warp16
num_warps32
global_range_x131072
global_range_y1
global_range_z1
local_range_x512
threads_per_warp16
num_warps32
global_range_x131072
global_range_y1
global_range_z1
local_range_x512
threads_per_warp16
num_warps32
global_range_x131072
global_range_y1
global_range_z1
local_range_x512
threads_per_warp16
num_warps32
global_range_x131072
global_range_y1
global_range_z1
local_range_x512
threads_per_warp16
num_warps32
global_range_x131072
global_range_y1
global_range_z1
local_range_x512
threads_per_warp16
num_warps32
global_range_x131072
global_range_y1
global_range_z1
local_range_x512
threads_per_warp16
num_warps32
global_range_x131072
global_range_y1
global_range_z1
local_range_x512
threads_per_warp16
num_warps32
global_range_x131072
global_range_y1
global_range_z1
local_range_x512
threads_per_warp16
num_warps32
global_range_x131072
global_range_y1
global_range_z1
local_range_x512
threads_per_warp16
num_warps32
global_range_x131072
global_range_y1
global_range_z1
local_range_x512

 Triton and Torch match
matmul-performance:
        M       N       K      oneDNN      Triton
0  4096.0  4096.0  4096.0  185.476433  112.392426

***** first dot info *****
***** chain ops of dotA *****
***** chain ops end *********

***** chain ops of dotB *****
***** chain ops end *********

***** chain ops of dotC *****
***** chain ops end *********
make tensor ptr 
make tensor ptr 
make tensor ptr 
lsc 
lsc 
lsc 
cast 
extract 
cast 
cast 
extract 
cast 
extract 
cast 
extract 
cast 
glue 
extract 
cast 
extract 
cast 
glue 
extract 
cast 
extract 
cast 
glue 
extract 
cast 
extract 
cast 
glue 
extract 
cast 
extract 
cast 
glue 
glue 
glue 
glue 
cast 
extract 
cast 
extract 
cast 
glue 
glue 
glue 
glue 
extract 
cast 
extract 
cast 
glue 
glue 
glue 
glue 
advance 
advance 
advance 
make tensor ptr 
make tensor ptr 
make tensor ptr 
make tensor ptr 
make tensor ptr 
make tensor ptr 
make tensor ptr 
make tensor ptr 
make tensor ptr 
make tensor ptr 
make tensor ptr 
make tensor ptr 
make tensor ptr 
make tensor ptr 
make tensor ptr 
make tensor ptr 
lsc 
lsc 
lsc 
lsc 
lsc 
lsc 
lsc 
lsc 
lsc 
lsc 
lsc 
lsc 
lsc 
lsc 
lsc 
lsc 
