// -----// IR Dump Before Inliner (inline) ('builtin.module' operation) //----- //
#loc = loc(unknown)
module {
  tt.func public @matmul_kernel_with_block_pointers_0d1d2d3d4d5d(%arg0: !tt.ptr<f16, 1> {tt.divisibility = 16 : i32} loc(unknown), %arg1: !tt.ptr<f16, 1> {tt.divisibility = 16 : i32} loc(unknown), %arg2: !tt.ptr<f32, 1> {tt.divisibility = 16 : i32} loc(unknown), %arg3: i32 {tt.divisibility = 16 : i32} loc(unknown), %arg4: i32 {tt.divisibility = 16 : i32} loc(unknown), %arg5: i32 {tt.divisibility = 16 : i32} loc(unknown)) attributes {noinline = false} {
    %0 = tt.get_program_id x : i32 loc(#loc)
    %1 = tt.call @cdiv____0cconstexpr_4096__1cconstexpr_256_() : () -> i32 loc(#loc)
    %2 = tt.call @cdiv____0cconstexpr_4096__1cconstexpr_256_() : () -> i32 loc(#loc)
    %c4_i32 = arith.constant 4 : i32 loc(#loc)
    %3 = arith.muli %2, %c4_i32 : i32 loc(#loc)
    %4 = arith.divsi %0, %3 : i32 loc(#loc)
    %c4_i32_0 = arith.constant 4 : i32 loc(#loc)
    %5 = arith.muli %4, %c4_i32_0 : i32 loc(#loc)
    %6 = arith.subi %1, %5 : i32 loc(#loc)
    %7 = tt.call @minimum__i32__1cconstexpr_4__2cconstexpr_PROPAGATE_NAN_d_NONE_(%6) : (i32) -> i32 loc(#loc)
    %8 = arith.remsi %0, %7 : i32 loc(#loc)
    %9 = arith.addi %5, %8 : i32 loc(#loc)
    %10 = arith.remsi %0, %3 : i32 loc(#loc)
    %11 = arith.divsi %10, %7 : i32 loc(#loc)
    %c256_i32 = arith.constant 256 : i32 loc(#loc)
    %12 = arith.muli %9, %c256_i32 : i32 loc(#loc)
    %c4096_i64 = arith.constant 4096 : i64 loc(#loc)
    %c4096_i64_1 = arith.constant 4096 : i64 loc(#loc)
    %c4096_i64_2 = arith.constant 4096 : i64 loc(#loc)
    %c1_i64 = arith.constant 1 : i64 loc(#loc)
    %c0_i32 = arith.constant 0 : i32 loc(#loc)
    %13 = tt.make_tensor_ptr %arg0, [%c4096_i64, %c4096_i64_1], [%c4096_i64_2, %c1_i64], [%12, %c0_i32] {order = array<i32: 1, 0>} : <tensor<256x32xf16>, 1> loc(#loc)
    %c256_i32_3 = arith.constant 256 : i32 loc(#loc)
    %14 = arith.muli %11, %c256_i32_3 : i32 loc(#loc)
    %c4096_i64_4 = arith.constant 4096 : i64 loc(#loc)
    %c4096_i64_5 = arith.constant 4096 : i64 loc(#loc)
    %c4096_i64_6 = arith.constant 4096 : i64 loc(#loc)
    %c1_i64_7 = arith.constant 1 : i64 loc(#loc)
    %c0_i32_8 = arith.constant 0 : i32 loc(#loc)
    %15 = tt.make_tensor_ptr %arg1, [%c4096_i64_4, %c4096_i64_5], [%c4096_i64_6, %c1_i64_7], [%c0_i32_8, %14] {order = array<i32: 1, 0>} : <tensor<32x256xf16>, 1> loc(#loc)
    %16 = tt.call @"zeros____0cconstexpr_(constexpr_256_, constexpr_256_)__1cconstexpr_fp32_"() : () -> tensor<256x256xf32> loc(#loc)
    %c0_i32_9 = arith.constant 0 : i32 loc(#loc)
    %c4096_i32 = arith.constant 4096 : i32 loc(#loc)
    %c32_i32 = arith.constant 32 : i32 loc(#loc)
    %17 = arith.bitcast %c0_i32_9 : i32 to i32 loc(#loc)
    %18 = arith.bitcast %c4096_i32 : i32 to i32 loc(#loc)
    %19 = arith.bitcast %c32_i32 : i32 to i32 loc(#loc)
    %20 = llvm.mlir.undef : i32 loc(#loc)
    %21:3 = scf.for %arg6 = %17 to %18 step %19 iter_args(%arg7 = %16, %arg8 = %13, %arg9 = %15) -> (tensor<256x256xf32>, !tt.ptr<tensor<256x32xf16>, 1>, !tt.ptr<tensor<32x256xf16>, 1>)  : i32 {
      %25 = tt.load %arg8 {boundaryCheck = array<i32: 0, 1>, cache = 1 : i32, evict = 1 : i32, isVolatile = false} : !tt.ptr<tensor<256x32xf16>, 1> -> tensor<256x32xf16> loc(#loc)
      %26 = tt.load %arg9 {boundaryCheck = array<i32: 0, 1>, cache = 1 : i32, evict = 1 : i32, isVolatile = false} : !tt.ptr<tensor<32x256xf16>, 1> -> tensor<32x256xf16> loc(#loc)
      %cst = arith.constant 0.000000e+00 : f32 loc(#loc)
      %cst_16 = arith.constant dense<0.000000e+00> : tensor<256x256xf32> loc(#loc)
      %27 = tt.dot %25, %26, %cst_16 {allowTF32 = true, maxNumImpreciseAcc = 0 : i32} : tensor<256x32xf16> * tensor<32x256xf16> -> tensor<256x256xf32> loc(#loc)
      %28 = arith.addf %arg7, %27 : tensor<256x256xf32> loc(#loc)
      %c0_i32_17 = arith.constant 0 : i32 loc(#loc)
      %c32_i32_18 = arith.constant 32 : i32 loc(#loc)
      %29 = tt.advance %arg8, [%c0_i32_17, %c32_i32_18] : <tensor<256x32xf16>, 1> loc(#loc)
      %c32_i32_19 = arith.constant 32 : i32 loc(#loc)
      %c0_i32_20 = arith.constant 0 : i32 loc(#loc)
      %30 = tt.advance %arg9, [%c32_i32_19, %c0_i32_20] : <tensor<32x256xf16>, 1> loc(#loc)
      scf.yield %28, %29, %30 : tensor<256x256xf32>, !tt.ptr<tensor<256x32xf16>, 1>, !tt.ptr<tensor<32x256xf16>, 1> loc(#loc)
    } loc(#loc)
    %c256_i32_10 = arith.constant 256 : i32 loc(#loc)
    %22 = arith.muli %9, %c256_i32_10 : i32 loc(#loc)
    %c256_i32_11 = arith.constant 256 : i32 loc(#loc)
    %23 = arith.muli %11, %c256_i32_11 : i32 loc(#loc)
    %c4096_i64_12 = arith.constant 4096 : i64 loc(#loc)
    %c4096_i64_13 = arith.constant 4096 : i64 loc(#loc)
    %c4096_i64_14 = arith.constant 4096 : i64 loc(#loc)
    %c1_i64_15 = arith.constant 1 : i64 loc(#loc)
    %24 = tt.make_tensor_ptr %arg2, [%c4096_i64_12, %c4096_i64_13], [%c4096_i64_14, %c1_i64_15], [%22, %23] {order = array<i32: 1, 0>} : <tensor<256x256xf32>, 1> loc(#loc)
    tt.store %24, %21#0 {boundaryCheck = array<i32: 0, 1>, cache = 1 : i32, evict = 1 : i32} : !tt.ptr<tensor<256x256xf32>, 1>, tensor<256x256xf32> loc(#loc)
    tt.return loc(#loc)
  } loc(#loc)
  tt.func private @cdiv____0cconstexpr_4096__1cconstexpr_256_() -> i32 attributes {noinline = false} {
    %c16_i32 = arith.constant 16 : i32 loc(#loc)
    tt.return %c16_i32 : i32 loc(#loc)
  } loc(#loc)
  tt.func private @minimum__i32__1cconstexpr_4__2cconstexpr_PROPAGATE_NAN_d_NONE_(%arg0: i32 loc(unknown)) -> i32 attributes {noinline = false} {
    %c4_i32 = arith.constant 4 : i32 loc(#loc)
    %0 = arith.minsi %arg0, %c4_i32 : i32 loc(#loc)
    tt.return %0 : i32 loc(#loc)
  } loc(#loc)
  tt.func private @"zeros____0cconstexpr_(constexpr_256_, constexpr_256_)__1cconstexpr_fp32_"() -> tensor<256x256xf32> attributes {noinline = false} {
    %cst = arith.constant 0.000000e+00 : f32 loc(#loc)
    %cst_0 = arith.constant dense<0.000000e+00> : tensor<256x256xf32> loc(#loc)
    tt.return %cst_0 : tensor<256x256xf32> loc(#loc)
  } loc(#loc)
} loc(#loc)


// -----// IR Dump Before Canonicalizer (canonicalize) ('tt.func' operation: @cdiv____0cconstexpr_4096__1cconstexpr_256_) //----- //
#loc = loc(unknown)
module {
  tt.func public @matmul_kernel_with_block_pointers_0d1d2d3d4d5d(%arg0: !tt.ptr<f16, 1> {tt.divisibility = 16 : i32} loc(unknown), %arg1: !tt.ptr<f16, 1> {tt.divisibility = 16 : i32} loc(unknown), %arg2: !tt.ptr<f32, 1> {tt.divisibility = 16 : i32} loc(unknown), %arg3: i32 {tt.divisibility = 16 : i32} loc(unknown), %arg4: i32 {tt.divisibility = 16 : i32} loc(unknown), %arg5: i32 {tt.divisibility = 16 : i32} loc(unknown)) attributes {noinline = false} {
    %0 = tt.get_program_id x : i32 loc(#loc)
    %1 = tt.call @cdiv____0cconstexpr_4096__1cconstexpr_256_() : () -> i32 loc(#loc)
    %2 = tt.call @cdiv____0cconstexpr_4096__1cconstexpr_256_() : () -> i32 loc(#loc)
    %c4_i32 = arith.constant 4 : i32 loc(#loc)
    %3 = arith.muli %2, %c4_i32 : i32 loc(#loc)
    %4 = arith.divsi %0, %3 : i32 loc(#loc)
    %c4_i32_0 = arith.constant 4 : i32 loc(#loc)
    %5 = arith.muli %4, %c4_i32_0 : i32 loc(#loc)
    %6 = arith.subi %1, %5 : i32 loc(#loc)
    %7 = tt.call @minimum__i32__1cconstexpr_4__2cconstexpr_PROPAGATE_NAN_d_NONE_(%6) : (i32) -> i32 loc(#loc)
    %8 = arith.remsi %0, %7 : i32 loc(#loc)
    %9 = arith.addi %5, %8 : i32 loc(#loc)
    %10 = arith.remsi %0, %3 : i32 loc(#loc)
    %11 = arith.divsi %10, %7 : i32 loc(#loc)
    %c256_i32 = arith.constant 256 : i32 loc(#loc)
    %12 = arith.muli %9, %c256_i32 : i32 loc(#loc)
    %c4096_i64 = arith.constant 4096 : i64 loc(#loc)
    %c4096_i64_1 = arith.constant 4096 : i64 loc(#loc)
    %c4096_i64_2 = arith.constant 4096 : i64 loc(#loc)
    %c1_i64 = arith.constant 1 : i64 loc(#loc)
    %c0_i32 = arith.constant 0 : i32 loc(#loc)
    %13 = tt.make_tensor_ptr %arg0, [%c4096_i64, %c4096_i64_1], [%c4096_i64_2, %c1_i64], [%12, %c0_i32] {order = array<i32: 1, 0>} : <tensor<256x32xf16>, 1> loc(#loc)
    %c256_i32_3 = arith.constant 256 : i32 loc(#loc)
    %14 = arith.muli %11, %c256_i32_3 : i32 loc(#loc)
    %c4096_i64_4 = arith.constant 4096 : i64 loc(#loc)
    %c4096_i64_5 = arith.constant 4096 : i64 loc(#loc)
    %c4096_i64_6 = arith.constant 4096 : i64 loc(#loc)
    %c1_i64_7 = arith.constant 1 : i64 loc(#loc)
    %c0_i32_8 = arith.constant 0 : i32 loc(#loc)
    %15 = tt.make_tensor_ptr %arg1, [%c4096_i64_4, %c4096_i64_5], [%c4096_i64_6, %c1_i64_7], [%c0_i32_8, %14] {order = array<i32: 1, 0>} : <tensor<32x256xf16>, 1> loc(#loc)
    %16 = tt.call @"zeros____0cconstexpr_(constexpr_256_, constexpr_256_)__1cconstexpr_fp32_"() : () -> tensor<256x256xf32> loc(#loc)
    %c0_i32_9 = arith.constant 0 : i32 loc(#loc)
    %c4096_i32 = arith.constant 4096 : i32 loc(#loc)
    %c32_i32 = arith.constant 32 : i32 loc(#loc)
    %17 = arith.bitcast %c0_i32_9 : i32 to i32 loc(#loc)
    %18 = arith.bitcast %c4096_i32 : i32 to i32 loc(#loc)
    %19 = arith.bitcast %c32_i32 : i32 to i32 loc(#loc)
    %20 = llvm.mlir.undef : i32 loc(#loc)
    %21:3 = scf.for %arg6 = %17 to %18 step %19 iter_args(%arg7 = %16, %arg8 = %13, %arg9 = %15) -> (tensor<256x256xf32>, !tt.ptr<tensor<256x32xf16>, 1>, !tt.ptr<tensor<32x256xf16>, 1>)  : i32 {
      %25 = tt.load %arg8 {boundaryCheck = array<i32: 0, 1>, cache = 1 : i32, evict = 1 : i32, isVolatile = false} : !tt.ptr<tensor<256x32xf16>, 1> -> tensor<256x32xf16> loc(#loc)
      %26 = tt.load %arg9 {boundaryCheck = array<i32: 0, 1>, cache = 1 : i32, evict = 1 : i32, isVolatile = false} : !tt.ptr<tensor<32x256xf16>, 1> -> tensor<32x256xf16> loc(#loc)
      %cst = arith.constant 0.000000e+00 : f32 loc(#loc)
      %cst_16 = arith.constant dense<0.000000e+00> : tensor<256x256xf32> loc(#loc)
      %27 = tt.dot %25, %26, %cst_16 {allowTF32 = true, maxNumImpreciseAcc = 0 : i32} : tensor<256x32xf16> * tensor<32x256xf16> -> tensor<256x256xf32> loc(#loc)
      %28 = arith.addf %arg7, %27 : tensor<256x256xf32> loc(#loc)
      %c0_i32_17 = arith.constant 0 : i32 loc(#loc)
      %c32_i32_18 = arith.constant 32 : i32 loc(#loc)
      %29 = tt.advance %arg8, [%c0_i32_17, %c32_i32_18] : <tensor<256x32xf16>, 1> loc(#loc)
      %c32_i32_19 = arith.constant 32 : i32 loc(#loc)
      %c0_i32_20 = arith.constant 0 : i32 loc(#loc)
      %30 = tt.advance %arg9, [%c32_i32_19, %c0_i32_20] : <tensor<32x256xf16>, 1> loc(#loc)
      scf.yield %28, %29, %30 : tensor<256x256xf32>, !tt.ptr<tensor<256x32xf16>, 1>, !tt.ptr<tensor<32x256xf16>, 1> loc(#loc)
    } loc(#loc)
    %c256_i32_10 = arith.constant 256 : i32 loc(#loc)
    %22 = arith.muli %9, %c256_i32_10 : i32 loc(#loc)
    %c256_i32_11 = arith.constant 256 : i32 loc(#loc)
    %23 = arith.muli %11, %c256_i32_11 : i32 loc(#loc)
    %c4096_i64_12 = arith.constant 4096 : i64 loc(#loc)
    %c4096_i64_13 = arith.constant 4096 : i64 loc(#loc)
    %c4096_i64_14 = arith.constant 4096 : i64 loc(#loc)
    %c1_i64_15 = arith.constant 1 : i64 loc(#loc)
    %24 = tt.make_tensor_ptr %arg2, [%c4096_i64_12, %c4096_i64_13], [%c4096_i64_14, %c1_i64_15], [%22, %23] {order = array<i32: 1, 0>} : <tensor<256x256xf32>, 1> loc(#loc)
    tt.store %24, %21#0 {boundaryCheck = array<i32: 0, 1>, cache = 1 : i32, evict = 1 : i32} : !tt.ptr<tensor<256x256xf32>, 1>, tensor<256x256xf32> loc(#loc)
    tt.return loc(#loc)
  } loc(#loc)
  tt.func private @cdiv____0cconstexpr_4096__1cconstexpr_256_() -> i32 attributes {noinline = false} {
    %c16_i32 = arith.constant 16 : i32 loc(#loc)
    tt.return %c16_i32 : i32 loc(#loc)
  } loc(#loc)
  tt.func private @minimum__i32__1cconstexpr_4__2cconstexpr_PROPAGATE_NAN_d_NONE_(%arg0: i32 loc(unknown)) -> i32 attributes {noinline = false} {
    %c4_i32 = arith.constant 4 : i32 loc(#loc)
    %0 = arith.minsi %arg0, %c4_i32 : i32 loc(#loc)
    tt.return %0 : i32 loc(#loc)
  } loc(#loc)
  tt.func private @"zeros____0cconstexpr_(constexpr_256_, constexpr_256_)__1cconstexpr_fp32_"() -> tensor<256x256xf32> attributes {noinline = false} {
    %cst = arith.constant 0.000000e+00 : f32 loc(#loc)
    %cst_0 = arith.constant dense<0.000000e+00> : tensor<256x256xf32> loc(#loc)
    tt.return %cst_0 : tensor<256x256xf32> loc(#loc)
  } loc(#loc)
} loc(#loc)


// -----// IR Dump Before Canonicalizer (canonicalize) ('tt.func' operation: @minimum__i32__1cconstexpr_4__2cconstexpr_PROPAGATE_NAN_d_NONE_) //----- //
#loc = loc(unknown)
module {
  tt.func public @matmul_kernel_with_block_pointers_0d1d2d3d4d5d(%arg0: !tt.ptr<f16, 1> {tt.divisibility = 16 : i32} loc(unknown), %arg1: !tt.ptr<f16, 1> {tt.divisibility = 16 : i32} loc(unknown), %arg2: !tt.ptr<f32, 1> {tt.divisibility = 16 : i32} loc(unknown), %arg3: i32 {tt.divisibility = 16 : i32} loc(unknown), %arg4: i32 {tt.divisibility = 16 : i32} loc(unknown), %arg5: i32 {tt.divisibility = 16 : i32} loc(unknown)) attributes {noinline = false} {
    %0 = tt.get_program_id x : i32 loc(#loc)
    %1 = tt.call @cdiv____0cconstexpr_4096__1cconstexpr_256_() : () -> i32 loc(#loc)
    %2 = tt.call @cdiv____0cconstexpr_4096__1cconstexpr_256_() : () -> i32 loc(#loc)
    %c4_i32 = arith.constant 4 : i32 loc(#loc)
    %3 = arith.muli %2, %c4_i32 : i32 loc(#loc)
    %4 = arith.divsi %0, %3 : i32 loc(#loc)
    %c4_i32_0 = arith.constant 4 : i32 loc(#loc)
    %5 = arith.muli %4, %c4_i32_0 : i32 loc(#loc)
    %6 = arith.subi %1, %5 : i32 loc(#loc)
    %7 = tt.call @minimum__i32__1cconstexpr_4__2cconstexpr_PROPAGATE_NAN_d_NONE_(%6) : (i32) -> i32 loc(#loc)
    %8 = arith.remsi %0, %7 : i32 loc(#loc)
    %9 = arith.addi %5, %8 : i32 loc(#loc)
    %10 = arith.remsi %0, %3 : i32 loc(#loc)
    %11 = arith.divsi %10, %7 : i32 loc(#loc)
    %c256_i32 = arith.constant 256 : i32 loc(#loc)
    %12 = arith.muli %9, %c256_i32 : i32 loc(#loc)
    %c4096_i64 = arith.constant 4096 : i64 loc(#loc)
    %c4096_i64_1 = arith.constant 4096 : i64 loc(#loc)
    %c4096_i64_2 = arith.constant 4096 : i64 loc(#loc)
    %c1_i64 = arith.constant 1 : i64 loc(#loc)
    %c0_i32 = arith.constant 0 : i32 loc(#loc)
    %13 = tt.make_tensor_ptr %arg0, [%c4096_i64, %c4096_i64_1], [%c4096_i64_2, %c1_i64], [%12, %c0_i32] {order = array<i32: 1, 0>} : <tensor<256x32xf16>, 1> loc(#loc)
    %c256_i32_3 = arith.constant 256 : i32 loc(#loc)
    %14 = arith.muli %11, %c256_i32_3 : i32 loc(#loc)
    %c4096_i64_4 = arith.constant 4096 : i64 loc(#loc)
    %c4096_i64_5 = arith.constant 4096 : i64 loc(#loc)
    %c4096_i64_6 = arith.constant 4096 : i64 loc(#loc)
    %c1_i64_7 = arith.constant 1 : i64 loc(#loc)
    %c0_i32_8 = arith.constant 0 : i32 loc(#loc)
    %15 = tt.make_tensor_ptr %arg1, [%c4096_i64_4, %c4096_i64_5], [%c4096_i64_6, %c1_i64_7], [%c0_i32_8, %14] {order = array<i32: 1, 0>} : <tensor<32x256xf16>, 1> loc(#loc)
    %16 = tt.call @"zeros____0cconstexpr_(constexpr_256_, constexpr_256_)__1cconstexpr_fp32_"() : () -> tensor<256x256xf32> loc(#loc)
    %c0_i32_9 = arith.constant 0 : i32 loc(#loc)
    %c4096_i32 = arith.constant 4096 : i32 loc(#loc)
    %c32_i32 = arith.constant 32 : i32 loc(#loc)
    %17 = arith.bitcast %c0_i32_9 : i32 to i32 loc(#loc)
    %18 = arith.bitcast %c4096_i32 : i32 to i32 loc(#loc)
    %19 = arith.bitcast %c32_i32 : i32 to i32 loc(#loc)
    %20 = llvm.mlir.undef : i32 loc(#loc)
    %21:3 = scf.for %arg6 = %17 to %18 step %19 iter_args(%arg7 = %16, %arg8 = %13, %arg9 = %15) -> (tensor<256x256xf32>, !tt.ptr<tensor<256x32xf16>, 1>, !tt.ptr<tensor<32x256xf16>, 1>)  : i32 {
      %25 = tt.load %arg8 {boundaryCheck = array<i32: 0, 1>, cache = 1 : i32, evict = 1 : i32, isVolatile = false} : !tt.ptr<tensor<256x32xf16>, 1> -> tensor<256x32xf16> loc(#loc)
      %26 = tt.load %arg9 {boundaryCheck = array<i32: 0, 1>, cache = 1 : i32, evict = 1 : i32, isVolatile = false} : !tt.ptr<tensor<32x256xf16>, 1> -> tensor<32x256xf16> loc(#loc)
      %cst = arith.constant 0.000000e+00 : f32 loc(#loc)
      %cst_16 = arith.constant dense<0.000000e+00> : tensor<256x256xf32> loc(#loc)
      %27 = tt.dot %25, %26, %cst_16 {allowTF32 = true, maxNumImpreciseAcc = 0 : i32} : tensor<256x32xf16> * tensor<32x256xf16> -> tensor<256x256xf32> loc(#loc)
      %28 = arith.addf %arg7, %27 : tensor<256x256xf32> loc(#loc)
      %c0_i32_17 = arith.constant 0 : i32 loc(#loc)
      %c32_i32_18 = arith.constant 32 : i32 loc(#loc)
      %29 = tt.advance %arg8, [%c0_i32_17, %c32_i32_18] : <tensor<256x32xf16>, 1> loc(#loc)
      %c32_i32_19 = arith.constant 32 : i32 loc(#loc)
      %c0_i32_20 = arith.constant 0 : i32 loc(#loc)
      %30 = tt.advance %arg9, [%c32_i32_19, %c0_i32_20] : <tensor<32x256xf16>, 1> loc(#loc)
      scf.yield %28, %29, %30 : tensor<256x256xf32>, !tt.ptr<tensor<256x32xf16>, 1>, !tt.ptr<tensor<32x256xf16>, 1> loc(#loc)
    } loc(#loc)
    %c256_i32_10 = arith.constant 256 : i32 loc(#loc)
    %22 = arith.muli %9, %c256_i32_10 : i32 loc(#loc)
    %c256_i32_11 = arith.constant 256 : i32 loc(#loc)
    %23 = arith.muli %11, %c256_i32_11 : i32 loc(#loc)
    %c4096_i64_12 = arith.constant 4096 : i64 loc(#loc)
    %c4096_i64_13 = arith.constant 4096 : i64 loc(#loc)
    %c4096_i64_14 = arith.constant 4096 : i64 loc(#loc)
    %c1_i64_15 = arith.constant 1 : i64 loc(#loc)
    %24 = tt.make_tensor_ptr %arg2, [%c4096_i64_12, %c4096_i64_13], [%c4096_i64_14, %c1_i64_15], [%22, %23] {order = array<i32: 1, 0>} : <tensor<256x256xf32>, 1> loc(#loc)
    tt.store %24, %21#0 {boundaryCheck = array<i32: 0, 1>, cache = 1 : i32, evict = 1 : i32} : !tt.ptr<tensor<256x256xf32>, 1>, tensor<256x256xf32> loc(#loc)
    tt.return loc(#loc)
  } loc(#loc)
  tt.func private @cdiv____0cconstexpr_4096__1cconstexpr_256_() -> i32 attributes {noinline = false} {
    %c16_i32 = arith.constant 16 : i32 loc(#loc)
    tt.return %c16_i32 : i32 loc(#loc)
  } loc(#loc)
  tt.func private @minimum__i32__1cconstexpr_4__2cconstexpr_PROPAGATE_NAN_d_NONE_(%arg0: i32 loc(unknown)) -> i32 attributes {noinline = false} {
    %c4_i32 = arith.constant 4 : i32 loc(#loc)
    %0 = arith.minsi %arg0, %c4_i32 : i32 loc(#loc)
    tt.return %0 : i32 loc(#loc)
  } loc(#loc)
  tt.func private @"zeros____0cconstexpr_(constexpr_256_, constexpr_256_)__1cconstexpr_fp32_"() -> tensor<256x256xf32> attributes {noinline = false} {
    %cst = arith.constant 0.000000e+00 : f32 loc(#loc)
    %cst_0 = arith.constant dense<0.000000e+00> : tensor<256x256xf32> loc(#loc)
    tt.return %cst_0 : tensor<256x256xf32> loc(#loc)
  } loc(#loc)
} loc(#loc)


// -----// IR Dump Before Canonicalizer (canonicalize) ('tt.func' operation: @zeros____0cconstexpr_(constexpr_256_, constexpr_256_)__1cconstexpr_fp32_) //----- //
#loc = loc(unknown)
module {
  tt.func public @matmul_kernel_with_block_pointers_0d1d2d3d4d5d(%arg0: !tt.ptr<f16, 1> {tt.divisibility = 16 : i32} loc(unknown), %arg1: !tt.ptr<f16, 1> {tt.divisibility = 16 : i32} loc(unknown), %arg2: !tt.ptr<f32, 1> {tt.divisibility = 16 : i32} loc(unknown), %arg3: i32 {tt.divisibility = 16 : i32} loc(unknown), %arg4: i32 {tt.divisibility = 16 : i32} loc(unknown), %arg5: i32 {tt.divisibility = 16 : i32} loc(unknown)) attributes {noinline = false} {
    %0 = tt.get_program_id x : i32 loc(#loc)
    %1 = tt.call @cdiv____0cconstexpr_4096__1cconstexpr_256_() : () -> i32 loc(#loc)
    %2 = tt.call @cdiv____0cconstexpr_4096__1cconstexpr_256_() : () -> i32 loc(#loc)
    %c4_i32 = arith.constant 4 : i32 loc(#loc)
    %3 = arith.muli %2, %c4_i32 : i32 loc(#loc)
    %4 = arith.divsi %0, %3 : i32 loc(#loc)
    %c4_i32_0 = arith.constant 4 : i32 loc(#loc)
    %5 = arith.muli %4, %c4_i32_0 : i32 loc(#loc)
    %6 = arith.subi %1, %5 : i32 loc(#loc)
    %7 = tt.call @minimum__i32__1cconstexpr_4__2cconstexpr_PROPAGATE_NAN_d_NONE_(%6) : (i32) -> i32 loc(#loc)
    %8 = arith.remsi %0, %7 : i32 loc(#loc)
    %9 = arith.addi %5, %8 : i32 loc(#loc)
    %10 = arith.remsi %0, %3 : i32 loc(#loc)
    %11 = arith.divsi %10, %7 : i32 loc(#loc)
    %c256_i32 = arith.constant 256 : i32 loc(#loc)
    %12 = arith.muli %9, %c256_i32 : i32 loc(#loc)
    %c4096_i64 = arith.constant 4096 : i64 loc(#loc)
    %c4096_i64_1 = arith.constant 4096 : i64 loc(#loc)
    %c4096_i64_2 = arith.constant 4096 : i64 loc(#loc)
    %c1_i64 = arith.constant 1 : i64 loc(#loc)
    %c0_i32 = arith.constant 0 : i32 loc(#loc)
    %13 = tt.make_tensor_ptr %arg0, [%c4096_i64, %c4096_i64_1], [%c4096_i64_2, %c1_i64], [%12, %c0_i32] {order = array<i32: 1, 0>} : <tensor<256x32xf16>, 1> loc(#loc)
    %c256_i32_3 = arith.constant 256 : i32 loc(#loc)
    %14 = arith.muli %11, %c256_i32_3 : i32 loc(#loc)
    %c4096_i64_4 = arith.constant 4096 : i64 loc(#loc)
    %c4096_i64_5 = arith.constant 4096 : i64 loc(#loc)
    %c4096_i64_6 = arith.constant 4096 : i64 loc(#loc)
    %c1_i64_7 = arith.constant 1 : i64 loc(#loc)
    %c0_i32_8 = arith.constant 0 : i32 loc(#loc)
    %15 = tt.make_tensor_ptr %arg1, [%c4096_i64_4, %c4096_i64_5], [%c4096_i64_6, %c1_i64_7], [%c0_i32_8, %14] {order = array<i32: 1, 0>} : <tensor<32x256xf16>, 1> loc(#loc)
    %16 = tt.call @"zeros____0cconstexpr_(constexpr_256_, constexpr_256_)__1cconstexpr_fp32_"() : () -> tensor<256x256xf32> loc(#loc)
    %c0_i32_9 = arith.constant 0 : i32 loc(#loc)
    %c4096_i32 = arith.constant 4096 : i32 loc(#loc)
    %c32_i32 = arith.constant 32 : i32 loc(#loc)
    %17 = arith.bitcast %c0_i32_9 : i32 to i32 loc(#loc)
    %18 = arith.bitcast %c4096_i32 : i32 to i32 loc(#loc)
    %19 = arith.bitcast %c32_i32 : i32 to i32 loc(#loc)
    %20 = llvm.mlir.undef : i32 loc(#loc)
    %21:3 = scf.for %arg6 = %17 to %18 step %19 iter_args(%arg7 = %16, %arg8 = %13, %arg9 = %15) -> (tensor<256x256xf32>, !tt.ptr<tensor<256x32xf16>, 1>, !tt.ptr<tensor<32x256xf16>, 1>)  : i32 {
      %25 = tt.load %arg8 {boundaryCheck = array<i32: 0, 1>, cache = 1 : i32, evict = 1 : i32, isVolatile = false} : !tt.ptr<tensor<256x32xf16>, 1> -> tensor<256x32xf16> loc(#loc)
      %26 = tt.load %arg9 {boundaryCheck = array<i32: 0, 1>, cache = 1 : i32, evict = 1 : i32, isVolatile = false} : !tt.ptr<tensor<32x256xf16>, 1> -> tensor<32x256xf16> loc(#loc)
      %cst = arith.constant 0.000000e+00 : f32 loc(#loc)
      %cst_16 = arith.constant dense<0.000000e+00> : tensor<256x256xf32> loc(#loc)
      %27 = tt.dot %25, %26, %cst_16 {allowTF32 = true, maxNumImpreciseAcc = 0 : i32} : tensor<256x32xf16> * tensor<32x256xf16> -> tensor<256x256xf32> loc(#loc)
      %28 = arith.addf %arg7, %27 : tensor<256x256xf32> loc(#loc)
      %c0_i32_17 = arith.constant 0 : i32 loc(#loc)
      %c32_i32_18 = arith.constant 32 : i32 loc(#loc)
      %29 = tt.advance %arg8, [%c0_i32_17, %c32_i32_18] : <tensor<256x32xf16>, 1> loc(#loc)
      %c32_i32_19 = arith.constant 32 : i32 loc(#loc)
      %c0_i32_20 = arith.constant 0 : i32 loc(#loc)
      %30 = tt.advance %arg9, [%c32_i32_19, %c0_i32_20] : <tensor<32x256xf16>, 1> loc(#loc)
      scf.yield %28, %29, %30 : tensor<256x256xf32>, !tt.ptr<tensor<256x32xf16>, 1>, !tt.ptr<tensor<32x256xf16>, 1> loc(#loc)
    } loc(#loc)
    %c256_i32_10 = arith.constant 256 : i32 loc(#loc)
    %22 = arith.muli %9, %c256_i32_10 : i32 loc(#loc)
    %c256_i32_11 = arith.constant 256 : i32 loc(#loc)
    %23 = arith.muli %11, %c256_i32_11 : i32 loc(#loc)
    %c4096_i64_12 = arith.constant 4096 : i64 loc(#loc)
    %c4096_i64_13 = arith.constant 4096 : i64 loc(#loc)
    %c4096_i64_14 = arith.constant 4096 : i64 loc(#loc)
    %c1_i64_15 = arith.constant 1 : i64 loc(#loc)
    %24 = tt.make_tensor_ptr %arg2, [%c4096_i64_12, %c4096_i64_13], [%c4096_i64_14, %c1_i64_15], [%22, %23] {order = array<i32: 1, 0>} : <tensor<256x256xf32>, 1> loc(#loc)
    tt.store %24, %21#0 {boundaryCheck = array<i32: 0, 1>, cache = 1 : i32, evict = 1 : i32} : !tt.ptr<tensor<256x256xf32>, 1>, tensor<256x256xf32> loc(#loc)
    tt.return loc(#loc)
  } loc(#loc)
  tt.func private @cdiv____0cconstexpr_4096__1cconstexpr_256_() -> i32 attributes {noinline = false} {
    %c16_i32 = arith.constant 16 : i32 loc(#loc)
    tt.return %c16_i32 : i32 loc(#loc)
  } loc(#loc)
  tt.func private @minimum__i32__1cconstexpr_4__2cconstexpr_PROPAGATE_NAN_d_NONE_(%arg0: i32 loc(unknown)) -> i32 attributes {noinline = false} {
    %c4_i32 = arith.constant 4 : i32 loc(#loc)
    %0 = arith.minsi %arg0, %c4_i32 : i32 loc(#loc)
    tt.return %0 : i32 loc(#loc)
  } loc(#loc)
  tt.func private @"zeros____0cconstexpr_(constexpr_256_, constexpr_256_)__1cconstexpr_fp32_"() -> tensor<256x256xf32> attributes {noinline = false} {
    %cst = arith.constant 0.000000e+00 : f32 loc(#loc)
    %cst_0 = arith.constant dense<0.000000e+00> : tensor<256x256xf32> loc(#loc)
    tt.return %cst_0 : tensor<256x256xf32> loc(#loc)
  } loc(#loc)
} loc(#loc)


// -----// IR Dump Before Canonicalizer (canonicalize) ('tt.func' operation: @matmul_kernel_with_block_pointers_0d1d2d3d4d5d) //----- //
#loc = loc(unknown)
module {
  tt.func public @matmul_kernel_with_block_pointers_0d1d2d3d4d5d(%arg0: !tt.ptr<f16, 1> {tt.divisibility = 16 : i32} loc(unknown), %arg1: !tt.ptr<f16, 1> {tt.divisibility = 16 : i32} loc(unknown), %arg2: !tt.ptr<f32, 1> {tt.divisibility = 16 : i32} loc(unknown), %arg3: i32 {tt.divisibility = 16 : i32} loc(unknown), %arg4: i32 {tt.divisibility = 16 : i32} loc(unknown), %arg5: i32 {tt.divisibility = 16 : i32} loc(unknown)) attributes {noinline = false} {
    %0 = tt.get_program_id x : i32 loc(#loc)
    %1 = tt.call @cdiv____0cconstexpr_4096__1cconstexpr_256_() : () -> i32 loc(#loc)
    %2 = tt.call @cdiv____0cconstexpr_4096__1cconstexpr_256_() : () -> i32 loc(#loc)
    %c4_i32 = arith.constant 4 : i32 loc(#loc)
    %3 = arith.muli %2, %c4_i32 : i32 loc(#loc)
    %4 = arith.divsi %0, %3 : i32 loc(#loc)
    %c4_i32_0 = arith.constant 4 : i32 loc(#loc)
    %5 = arith.muli %4, %c4_i32_0 : i32 loc(#loc)
    %6 = arith.subi %1, %5 : i32 loc(#loc)
    %7 = tt.call @minimum__i32__1cconstexpr_4__2cconstexpr_PROPAGATE_NAN_d_NONE_(%6) : (i32) -> i32 loc(#loc)
    %8 = arith.remsi %0, %7 : i32 loc(#loc)
    %9 = arith.addi %5, %8 : i32 loc(#loc)
    %10 = arith.remsi %0, %3 : i32 loc(#loc)
    %11 = arith.divsi %10, %7 : i32 loc(#loc)
    %c256_i32 = arith.constant 256 : i32 loc(#loc)
    %12 = arith.muli %9, %c256_i32 : i32 loc(#loc)
    %c4096_i64 = arith.constant 4096 : i64 loc(#loc)
    %c4096_i64_1 = arith.constant 4096 : i64 loc(#loc)
    %c4096_i64_2 = arith.constant 4096 : i64 loc(#loc)
    %c1_i64 = arith.constant 1 : i64 loc(#loc)
    %c0_i32 = arith.constant 0 : i32 loc(#loc)
    %13 = tt.make_tensor_ptr %arg0, [%c4096_i64, %c4096_i64_1], [%c4096_i64_2, %c1_i64], [%12, %c0_i32] {order = array<i32: 1, 0>} : <tensor<256x32xf16>, 1> loc(#loc)
    %c256_i32_3 = arith.constant 256 : i32 loc(#loc)
    %14 = arith.muli %11, %c256_i32_3 : i32 loc(#loc)
    %c4096_i64_4 = arith.constant 4096 : i64 loc(#loc)
    %c4096_i64_5 = arith.constant 4096 : i64 loc(#loc)
    %c4096_i64_6 = arith.constant 4096 : i64 loc(#loc)
    %c1_i64_7 = arith.constant 1 : i64 loc(#loc)
    %c0_i32_8 = arith.constant 0 : i32 loc(#loc)
    %15 = tt.make_tensor_ptr %arg1, [%c4096_i64_4, %c4096_i64_5], [%c4096_i64_6, %c1_i64_7], [%c0_i32_8, %14] {order = array<i32: 1, 0>} : <tensor<32x256xf16>, 1> loc(#loc)
    %16 = tt.call @"zeros____0cconstexpr_(constexpr_256_, constexpr_256_)__1cconstexpr_fp32_"() : () -> tensor<256x256xf32> loc(#loc)
    %c0_i32_9 = arith.constant 0 : i32 loc(#loc)
    %c4096_i32 = arith.constant 4096 : i32 loc(#loc)
    %c32_i32 = arith.constant 32 : i32 loc(#loc)
    %17 = arith.bitcast %c0_i32_9 : i32 to i32 loc(#loc)
    %18 = arith.bitcast %c4096_i32 : i32 to i32 loc(#loc)
    %19 = arith.bitcast %c32_i32 : i32 to i32 loc(#loc)
    %20 = llvm.mlir.undef : i32 loc(#loc)
    %21:3 = scf.for %arg6 = %17 to %18 step %19 iter_args(%arg7 = %16, %arg8 = %13, %arg9 = %15) -> (tensor<256x256xf32>, !tt.ptr<tensor<256x32xf16>, 1>, !tt.ptr<tensor<32x256xf16>, 1>)  : i32 {
      %25 = tt.load %arg8 {boundaryCheck = array<i32: 0, 1>, cache = 1 : i32, evict = 1 : i32, isVolatile = false} : !tt.ptr<tensor<256x32xf16>, 1> -> tensor<256x32xf16> loc(#loc)
      %26 = tt.load %arg9 {boundaryCheck = array<i32: 0, 1>, cache = 1 : i32, evict = 1 : i32, isVolatile = false} : !tt.ptr<tensor<32x256xf16>, 1> -> tensor<32x256xf16> loc(#loc)
      %cst = arith.constant 0.000000e+00 : f32 loc(#loc)
      %cst_16 = arith.constant dense<0.000000e+00> : tensor<256x256xf32> loc(#loc)
      %27 = tt.dot %25, %26, %cst_16 {allowTF32 = true, maxNumImpreciseAcc = 0 : i32} : tensor<256x32xf16> * tensor<32x256xf16> -> tensor<256x256xf32> loc(#loc)
      %28 = arith.addf %arg7, %27 : tensor<256x256xf32> loc(#loc)
      %c0_i32_17 = arith.constant 0 : i32 loc(#loc)
      %c32_i32_18 = arith.constant 32 : i32 loc(#loc)
      %29 = tt.advance %arg8, [%c0_i32_17, %c32_i32_18] : <tensor<256x32xf16>, 1> loc(#loc)
      %c32_i32_19 = arith.constant 32 : i32 loc(#loc)
      %c0_i32_20 = arith.constant 0 : i32 loc(#loc)
      %30 = tt.advance %arg9, [%c32_i32_19, %c0_i32_20] : <tensor<32x256xf16>, 1> loc(#loc)
      scf.yield %28, %29, %30 : tensor<256x256xf32>, !tt.ptr<tensor<256x32xf16>, 1>, !tt.ptr<tensor<32x256xf16>, 1> loc(#loc)
    } loc(#loc)
    %c256_i32_10 = arith.constant 256 : i32 loc(#loc)
    %22 = arith.muli %9, %c256_i32_10 : i32 loc(#loc)
    %c256_i32_11 = arith.constant 256 : i32 loc(#loc)
    %23 = arith.muli %11, %c256_i32_11 : i32 loc(#loc)
    %c4096_i64_12 = arith.constant 4096 : i64 loc(#loc)
    %c4096_i64_13 = arith.constant 4096 : i64 loc(#loc)
    %c4096_i64_14 = arith.constant 4096 : i64 loc(#loc)
    %c1_i64_15 = arith.constant 1 : i64 loc(#loc)
    %24 = tt.make_tensor_ptr %arg2, [%c4096_i64_12, %c4096_i64_13], [%c4096_i64_14, %c1_i64_15], [%22, %23] {order = array<i32: 1, 0>} : <tensor<256x256xf32>, 1> loc(#loc)
    tt.store %24, %21#0 {boundaryCheck = array<i32: 0, 1>, cache = 1 : i32, evict = 1 : i32} : !tt.ptr<tensor<256x256xf32>, 1>, tensor<256x256xf32> loc(#loc)
    tt.return loc(#loc)
  } loc(#loc)
  tt.func private @cdiv____0cconstexpr_4096__1cconstexpr_256_() -> i32 attributes {noinline = false} {
    %c16_i32 = arith.constant 16 : i32 loc(#loc)
    tt.return %c16_i32 : i32 loc(#loc)
  } loc(#loc)
  tt.func private @minimum__i32__1cconstexpr_4__2cconstexpr_PROPAGATE_NAN_d_NONE_(%arg0: i32 loc(unknown)) -> i32 attributes {noinline = false} {
    %c4_i32 = arith.constant 4 : i32 loc(#loc)
    %0 = arith.minsi %arg0, %c4_i32 : i32 loc(#loc)
    tt.return %0 : i32 loc(#loc)
  } loc(#loc)
  tt.func private @"zeros____0cconstexpr_(constexpr_256_, constexpr_256_)__1cconstexpr_fp32_"() -> tensor<256x256xf32> attributes {noinline = false} {
    %cst = arith.constant dense<0.000000e+00> : tensor<256x256xf32> loc(#loc)
    tt.return %cst : tensor<256x256xf32> loc(#loc)
  } loc(#loc)
} loc(#loc)


// -----// IR Dump Before Canonicalizer (canonicalize) ('tt.func' operation: @matmul_kernel_with_block_pointers_0d1d2d3d4d5d) //----- //
#loc = loc(unknown)
module {
  tt.func public @matmul_kernel_with_block_pointers_0d1d2d3d4d5d(%arg0: !tt.ptr<f16, 1> {tt.divisibility = 16 : i32} loc(unknown), %arg1: !tt.ptr<f16, 1> {tt.divisibility = 16 : i32} loc(unknown), %arg2: !tt.ptr<f32, 1> {tt.divisibility = 16 : i32} loc(unknown), %arg3: i32 {tt.divisibility = 16 : i32} loc(unknown), %arg4: i32 {tt.divisibility = 16 : i32} loc(unknown), %arg5: i32 {tt.divisibility = 16 : i32} loc(unknown)) attributes {noinline = false} {
    %c4096_i32 = arith.constant 4096 : i32 loc(#loc)
    %cst = arith.constant dense<0.000000e+00> : tensor<256x256xf32> loc(#loc)
    %c32_i32 = arith.constant 32 : i32 loc(#loc)
    %c0_i32 = arith.constant 0 : i32 loc(#loc)
    %c1_i64 = arith.constant 1 : i64 loc(#loc)
    %c4096_i64 = arith.constant 4096 : i64 loc(#loc)
    %c256_i32 = arith.constant 256 : i32 loc(#loc)
    %c4_i32 = arith.constant 4 : i32 loc(#loc)
    %0 = tt.get_program_id x : i32 loc(#loc)
    %c16_i32 = arith.constant 16 : i32 loc(#loc)
    %c16_i32_0 = arith.constant 16 : i32 loc(#loc)
    %1 = arith.muli %c16_i32_0, %c4_i32 : i32 loc(#loc)
    %2 = arith.divsi %0, %1 : i32 loc(#loc)
    %3 = arith.muli %2, %c4_i32 : i32 loc(#loc)
    %4 = arith.subi %c16_i32, %3 : i32 loc(#loc)
    %c4_i32_1 = arith.constant 4 : i32 loc(#loc)
    %5 = arith.minsi %4, %c4_i32_1 : i32 loc(#loc)
    %6 = arith.remsi %0, %5 : i32 loc(#loc)
    %7 = arith.addi %3, %6 : i32 loc(#loc)
    %8 = arith.remsi %0, %1 : i32 loc(#loc)
    %9 = arith.divsi %8, %5 : i32 loc(#loc)
    %10 = arith.muli %7, %c256_i32 : i32 loc(#loc)
    %11 = tt.make_tensor_ptr %arg0, [%c4096_i64, %c4096_i64], [%c4096_i64, %c1_i64], [%10, %c0_i32] {order = array<i32: 1, 0>} : <tensor<256x32xf16>, 1> loc(#loc)
    %12 = arith.muli %9, %c256_i32 : i32 loc(#loc)
    %13 = tt.make_tensor_ptr %arg1, [%c4096_i64, %c4096_i64], [%c4096_i64, %c1_i64], [%c0_i32, %12] {order = array<i32: 1, 0>} : <tensor<32x256xf16>, 1> loc(#loc)
    %cst_2 = arith.constant dense<0.000000e+00> : tensor<256x256xf32> loc(#loc)
    %14:3 = scf.for %arg6 = %c0_i32 to %c4096_i32 step %c32_i32 iter_args(%arg7 = %cst_2, %arg8 = %11, %arg9 = %13) -> (tensor<256x256xf32>, !tt.ptr<tensor<256x32xf16>, 1>, !tt.ptr<tensor<32x256xf16>, 1>)  : i32 {
      %18 = tt.load %arg8 {boundaryCheck = array<i32: 0, 1>, cache = 1 : i32, evict = 1 : i32, isVolatile = false} : !tt.ptr<tensor<256x32xf16>, 1> -> tensor<256x32xf16> loc(#loc)
      %19 = tt.load %arg9 {boundaryCheck = array<i32: 0, 1>, cache = 1 : i32, evict = 1 : i32, isVolatile = false} : !tt.ptr<tensor<32x256xf16>, 1> -> tensor<32x256xf16> loc(#loc)
      %20 = tt.dot %18, %19, %cst {allowTF32 = true, maxNumImpreciseAcc = 0 : i32} : tensor<256x32xf16> * tensor<32x256xf16> -> tensor<256x256xf32> loc(#loc)
      %21 = arith.addf %arg7, %20 : tensor<256x256xf32> loc(#loc)
      %22 = tt.advance %arg8, [%c0_i32, %c32_i32] : <tensor<256x32xf16>, 1> loc(#loc)
      %23 = tt.advance %arg9, [%c32_i32, %c0_i32] : <tensor<32x256xf16>, 1> loc(#loc)
      scf.yield %21, %22, %23 : tensor<256x256xf32>, !tt.ptr<tensor<256x32xf16>, 1>, !tt.ptr<tensor<32x256xf16>, 1> loc(#loc)
    } loc(#loc)
    %15 = arith.muli %7, %c256_i32 : i32 loc(#loc)
    %16 = arith.muli %9, %c256_i32 : i32 loc(#loc)
    %17 = tt.make_tensor_ptr %arg2, [%c4096_i64, %c4096_i64], [%c4096_i64, %c1_i64], [%15, %16] {order = array<i32: 1, 0>} : <tensor<256x256xf32>, 1> loc(#loc)
    tt.store %17, %14#0 {boundaryCheck = array<i32: 0, 1>, cache = 1 : i32, evict = 1 : i32} : !tt.ptr<tensor<256x256xf32>, 1>, tensor<256x256xf32> loc(#loc)
    tt.return loc(#loc)
  } loc(#loc)
  tt.func private @cdiv____0cconstexpr_4096__1cconstexpr_256_() -> i32 attributes {noinline = false} loc(#loc)
  tt.func private @minimum__i32__1cconstexpr_4__2cconstexpr_PROPAGATE_NAN_d_NONE_(i32) -> i32 attributes {noinline = false} loc(#loc)
  tt.func private @"zeros____0cconstexpr_(constexpr_256_, constexpr_256_)__1cconstexpr_fp32_"() -> tensor<256x256xf32> attributes {noinline = false} loc(#loc)
} loc(#loc)


// -----// IR Dump Before TritonCombineOps (triton-combine) ('builtin.module' operation) //----- //
#loc = loc(unknown)
module {
  tt.func public @matmul_kernel_with_block_pointers_0d1d2d3d4d5d(%arg0: !tt.ptr<f16, 1> {tt.divisibility = 16 : i32} loc(unknown), %arg1: !tt.ptr<f16, 1> {tt.divisibility = 16 : i32} loc(unknown), %arg2: !tt.ptr<f32, 1> {tt.divisibility = 16 : i32} loc(unknown), %arg3: i32 {tt.divisibility = 16 : i32} loc(unknown), %arg4: i32 {tt.divisibility = 16 : i32} loc(unknown), %arg5: i32 {tt.divisibility = 16 : i32} loc(unknown)) attributes {noinline = false} {
    %c64_i32 = arith.constant 64 : i32 loc(#loc)
    %c16_i32 = arith.constant 16 : i32 loc(#loc)
    %c4096_i32 = arith.constant 4096 : i32 loc(#loc)
    %cst = arith.constant dense<0.000000e+00> : tensor<256x256xf32> loc(#loc)
    %c32_i32 = arith.constant 32 : i32 loc(#loc)
    %c0_i32 = arith.constant 0 : i32 loc(#loc)
    %c1_i64 = arith.constant 1 : i64 loc(#loc)
    %c4096_i64 = arith.constant 4096 : i64 loc(#loc)
    %c256_i32 = arith.constant 256 : i32 loc(#loc)
    %c4_i32 = arith.constant 4 : i32 loc(#loc)
    %0 = tt.get_program_id x : i32 loc(#loc)
    %1 = arith.divsi %0, %c64_i32 : i32 loc(#loc)
    %2 = arith.muli %1, %c4_i32 : i32 loc(#loc)
    %3 = arith.subi %c16_i32, %2 : i32 loc(#loc)
    %4 = arith.minsi %3, %c4_i32 : i32 loc(#loc)
    %5 = arith.remsi %0, %4 : i32 loc(#loc)
    %6 = arith.addi %2, %5 : i32 loc(#loc)
    %7 = arith.remsi %0, %c64_i32 : i32 loc(#loc)
    %8 = arith.divsi %7, %4 : i32 loc(#loc)
    %9 = arith.muli %6, %c256_i32 : i32 loc(#loc)
    %10 = tt.make_tensor_ptr %arg0, [%c4096_i64, %c4096_i64], [%c4096_i64, %c1_i64], [%9, %c0_i32] {order = array<i32: 1, 0>} : <tensor<256x32xf16>, 1> loc(#loc)
    %11 = arith.muli %8, %c256_i32 : i32 loc(#loc)
    %12 = tt.make_tensor_ptr %arg1, [%c4096_i64, %c4096_i64], [%c4096_i64, %c1_i64], [%c0_i32, %11] {order = array<i32: 1, 0>} : <tensor<32x256xf16>, 1> loc(#loc)
    %13:3 = scf.for %arg6 = %c0_i32 to %c4096_i32 step %c32_i32 iter_args(%arg7 = %cst, %arg8 = %10, %arg9 = %12) -> (tensor<256x256xf32>, !tt.ptr<tensor<256x32xf16>, 1>, !tt.ptr<tensor<32x256xf16>, 1>)  : i32 {
      %17 = tt.load %arg8 {boundaryCheck = array<i32: 0, 1>, cache = 1 : i32, evict = 1 : i32, isVolatile = false} : !tt.ptr<tensor<256x32xf16>, 1> -> tensor<256x32xf16> loc(#loc)
      %18 = tt.load %arg9 {boundaryCheck = array<i32: 0, 1>, cache = 1 : i32, evict = 1 : i32, isVolatile = false} : !tt.ptr<tensor<32x256xf16>, 1> -> tensor<32x256xf16> loc(#loc)
      %19 = tt.dot %17, %18, %cst {allowTF32 = true, maxNumImpreciseAcc = 0 : i32} : tensor<256x32xf16> * tensor<32x256xf16> -> tensor<256x256xf32> loc(#loc)
      %20 = arith.addf %arg7, %19 : tensor<256x256xf32> loc(#loc)
      %21 = tt.advance %arg8, [%c0_i32, %c32_i32] : <tensor<256x32xf16>, 1> loc(#loc)
      %22 = tt.advance %arg9, [%c32_i32, %c0_i32] : <tensor<32x256xf16>, 1> loc(#loc)
      scf.yield %20, %21, %22 : tensor<256x256xf32>, !tt.ptr<tensor<256x32xf16>, 1>, !tt.ptr<tensor<32x256xf16>, 1> loc(#loc)
    } loc(#loc)
    %14 = arith.muli %6, %c256_i32 : i32 loc(#loc)
    %15 = arith.muli %8, %c256_i32 : i32 loc(#loc)
    %16 = tt.make_tensor_ptr %arg2, [%c4096_i64, %c4096_i64], [%c4096_i64, %c1_i64], [%14, %15] {order = array<i32: 1, 0>} : <tensor<256x256xf32>, 1> loc(#loc)
    tt.store %16, %13#0 {boundaryCheck = array<i32: 0, 1>, cache = 1 : i32, evict = 1 : i32} : !tt.ptr<tensor<256x256xf32>, 1>, tensor<256x256xf32> loc(#loc)
    tt.return loc(#loc)
  } loc(#loc)
} loc(#loc)


// -----// IR Dump Before Canonicalizer (canonicalize) ('builtin.module' operation) //----- //
#loc = loc(unknown)
module {
  tt.func public @matmul_kernel_with_block_pointers_0d1d2d3d4d5d(%arg0: !tt.ptr<f16, 1> {tt.divisibility = 16 : i32} loc(unknown), %arg1: !tt.ptr<f16, 1> {tt.divisibility = 16 : i32} loc(unknown), %arg2: !tt.ptr<f32, 1> {tt.divisibility = 16 : i32} loc(unknown), %arg3: i32 {tt.divisibility = 16 : i32} loc(unknown), %arg4: i32 {tt.divisibility = 16 : i32} loc(unknown), %arg5: i32 {tt.divisibility = 16 : i32} loc(unknown)) attributes {noinline = false} {
    %c64_i32 = arith.constant 64 : i32 loc(#loc)
    %c16_i32 = arith.constant 16 : i32 loc(#loc)
    %c4096_i32 = arith.constant 4096 : i32 loc(#loc)
    %cst = arith.constant dense<0.000000e+00> : tensor<256x256xf32> loc(#loc)
    %c32_i32 = arith.constant 32 : i32 loc(#loc)
    %c0_i32 = arith.constant 0 : i32 loc(#loc)
    %c1_i64 = arith.constant 1 : i64 loc(#loc)
    %c4096_i64 = arith.constant 4096 : i64 loc(#loc)
    %c256_i32 = arith.constant 256 : i32 loc(#loc)
    %c4_i32 = arith.constant 4 : i32 loc(#loc)
    %0 = tt.get_program_id x : i32 loc(#loc)
    %1 = arith.divsi %0, %c64_i32 : i32 loc(#loc)
    %2 = arith.muli %1, %c4_i32 : i32 loc(#loc)
    %3 = arith.subi %c16_i32, %2 : i32 loc(#loc)
    %4 = arith.minsi %3, %c4_i32 : i32 loc(#loc)
    %5 = arith.remsi %0, %4 : i32 loc(#loc)
    %6 = arith.addi %2, %5 : i32 loc(#loc)
    %7 = arith.remsi %0, %c64_i32 : i32 loc(#loc)
    %8 = arith.divsi %7, %4 : i32 loc(#loc)
    %9 = arith.muli %6, %c256_i32 : i32 loc(#loc)
    %10 = tt.make_tensor_ptr %arg0, [%c4096_i64, %c4096_i64], [%c4096_i64, %c1_i64], [%9, %c0_i32] {order = array<i32: 1, 0>} : <tensor<256x32xf16>, 1> loc(#loc)
    %11 = arith.muli %8, %c256_i32 : i32 loc(#loc)
    %12 = tt.make_tensor_ptr %arg1, [%c4096_i64, %c4096_i64], [%c4096_i64, %c1_i64], [%c0_i32, %11] {order = array<i32: 1, 0>} : <tensor<32x256xf16>, 1> loc(#loc)
    %13:3 = scf.for %arg6 = %c0_i32 to %c4096_i32 step %c32_i32 iter_args(%arg7 = %cst, %arg8 = %10, %arg9 = %12) -> (tensor<256x256xf32>, !tt.ptr<tensor<256x32xf16>, 1>, !tt.ptr<tensor<32x256xf16>, 1>)  : i32 {
      %17 = tt.load %arg8 {boundaryCheck = array<i32: 0, 1>, cache = 1 : i32, evict = 1 : i32, isVolatile = false} : !tt.ptr<tensor<256x32xf16>, 1> -> tensor<256x32xf16> loc(#loc)
      %18 = tt.load %arg9 {boundaryCheck = array<i32: 0, 1>, cache = 1 : i32, evict = 1 : i32, isVolatile = false} : !tt.ptr<tensor<32x256xf16>, 1> -> tensor<32x256xf16> loc(#loc)
      %19 = tt.dot %17, %18, %arg7 {allowTF32 = true, maxNumImpreciseAcc = 0 : i32} : tensor<256x32xf16> * tensor<32x256xf16> -> tensor<256x256xf32> loc(#loc)
      %20 = tt.advance %arg8, [%c0_i32, %c32_i32] : <tensor<256x32xf16>, 1> loc(#loc)
      %21 = tt.advance %arg9, [%c32_i32, %c0_i32] : <tensor<32x256xf16>, 1> loc(#loc)
      scf.yield %19, %20, %21 : tensor<256x256xf32>, !tt.ptr<tensor<256x32xf16>, 1>, !tt.ptr<tensor<32x256xf16>, 1> loc(#loc)
    } loc(#loc)
    %14 = arith.muli %6, %c256_i32 : i32 loc(#loc)
    %15 = arith.muli %8, %c256_i32 : i32 loc(#loc)
    %16 = tt.make_tensor_ptr %arg2, [%c4096_i64, %c4096_i64], [%c4096_i64, %c1_i64], [%14, %15] {order = array<i32: 1, 0>} : <tensor<256x256xf32>, 1> loc(#loc)
    tt.store %16, %13#0 {boundaryCheck = array<i32: 0, 1>, cache = 1 : i32, evict = 1 : i32} : !tt.ptr<tensor<256x256xf32>, 1>, tensor<256x256xf32> loc(#loc)
    tt.return loc(#loc)
  } loc(#loc)
} loc(#loc)


// -----// IR Dump Before TritonReorderBroadcast (triton-reorder-broadcast) ('builtin.module' operation) //----- //
#loc = loc(unknown)
module {
  tt.func public @matmul_kernel_with_block_pointers_0d1d2d3d4d5d(%arg0: !tt.ptr<f16, 1> {tt.divisibility = 16 : i32} loc(unknown), %arg1: !tt.ptr<f16, 1> {tt.divisibility = 16 : i32} loc(unknown), %arg2: !tt.ptr<f32, 1> {tt.divisibility = 16 : i32} loc(unknown), %arg3: i32 {tt.divisibility = 16 : i32} loc(unknown), %arg4: i32 {tt.divisibility = 16 : i32} loc(unknown), %arg5: i32 {tt.divisibility = 16 : i32} loc(unknown)) attributes {noinline = false} {
    %c64_i32 = arith.constant 64 : i32 loc(#loc)
    %c16_i32 = arith.constant 16 : i32 loc(#loc)
    %c4096_i32 = arith.constant 4096 : i32 loc(#loc)
    %cst = arith.constant dense<0.000000e+00> : tensor<256x256xf32> loc(#loc)
    %c32_i32 = arith.constant 32 : i32 loc(#loc)
    %c0_i32 = arith.constant 0 : i32 loc(#loc)
    %c1_i64 = arith.constant 1 : i64 loc(#loc)
    %c4096_i64 = arith.constant 4096 : i64 loc(#loc)
    %c256_i32 = arith.constant 256 : i32 loc(#loc)
    %c4_i32 = arith.constant 4 : i32 loc(#loc)
    %0 = tt.get_program_id x : i32 loc(#loc)
    %1 = arith.divsi %0, %c64_i32 : i32 loc(#loc)
    %2 = arith.muli %1, %c4_i32 : i32 loc(#loc)
    %3 = arith.subi %c16_i32, %2 : i32 loc(#loc)
    %4 = arith.minsi %3, %c4_i32 : i32 loc(#loc)
    %5 = arith.remsi %0, %4 : i32 loc(#loc)
    %6 = arith.addi %2, %5 : i32 loc(#loc)
    %7 = arith.remsi %0, %c64_i32 : i32 loc(#loc)
    %8 = arith.divsi %7, %4 : i32 loc(#loc)
    %9 = arith.muli %6, %c256_i32 : i32 loc(#loc)
    %10 = tt.make_tensor_ptr %arg0, [%c4096_i64, %c4096_i64], [%c4096_i64, %c1_i64], [%9, %c0_i32] {order = array<i32: 1, 0>} : <tensor<256x32xf16>, 1> loc(#loc)
    %11 = arith.muli %8, %c256_i32 : i32 loc(#loc)
    %12 = tt.make_tensor_ptr %arg1, [%c4096_i64, %c4096_i64], [%c4096_i64, %c1_i64], [%c0_i32, %11] {order = array<i32: 1, 0>} : <tensor<32x256xf16>, 1> loc(#loc)
    %13:3 = scf.for %arg6 = %c0_i32 to %c4096_i32 step %c32_i32 iter_args(%arg7 = %cst, %arg8 = %10, %arg9 = %12) -> (tensor<256x256xf32>, !tt.ptr<tensor<256x32xf16>, 1>, !tt.ptr<tensor<32x256xf16>, 1>)  : i32 {
      %17 = tt.load %arg8 {boundaryCheck = array<i32: 0, 1>, cache = 1 : i32, evict = 1 : i32, isVolatile = false} : !tt.ptr<tensor<256x32xf16>, 1> -> tensor<256x32xf16> loc(#loc)
      %18 = tt.load %arg9 {boundaryCheck = array<i32: 0, 1>, cache = 1 : i32, evict = 1 : i32, isVolatile = false} : !tt.ptr<tensor<32x256xf16>, 1> -> tensor<32x256xf16> loc(#loc)
      %19 = tt.dot %17, %18, %arg7 {allowTF32 = true, maxNumImpreciseAcc = 0 : i32} : tensor<256x32xf16> * tensor<32x256xf16> -> tensor<256x256xf32> loc(#loc)
      %20 = tt.advance %arg8, [%c0_i32, %c32_i32] : <tensor<256x32xf16>, 1> loc(#loc)
      %21 = tt.advance %arg9, [%c32_i32, %c0_i32] : <tensor<32x256xf16>, 1> loc(#loc)
      scf.yield %19, %20, %21 : tensor<256x256xf32>, !tt.ptr<tensor<256x32xf16>, 1>, !tt.ptr<tensor<32x256xf16>, 1> loc(#loc)
    } loc(#loc)
    %14 = arith.muli %6, %c256_i32 : i32 loc(#loc)
    %15 = arith.muli %8, %c256_i32 : i32 loc(#loc)
    %16 = tt.make_tensor_ptr %arg2, [%c4096_i64, %c4096_i64], [%c4096_i64, %c1_i64], [%14, %15] {order = array<i32: 1, 0>} : <tensor<256x256xf32>, 1> loc(#loc)
    tt.store %16, %13#0 {boundaryCheck = array<i32: 0, 1>, cache = 1 : i32, evict = 1 : i32} : !tt.ptr<tensor<256x256xf32>, 1>, tensor<256x256xf32> loc(#loc)
    tt.return loc(#loc)
  } loc(#loc)
} loc(#loc)


// -----// IR Dump Before CSE (cse) ('builtin.module' operation) //----- //
#loc = loc(unknown)
module {
  tt.func public @matmul_kernel_with_block_pointers_0d1d2d3d4d5d(%arg0: !tt.ptr<f16, 1> {tt.divisibility = 16 : i32} loc(unknown), %arg1: !tt.ptr<f16, 1> {tt.divisibility = 16 : i32} loc(unknown), %arg2: !tt.ptr<f32, 1> {tt.divisibility = 16 : i32} loc(unknown), %arg3: i32 {tt.divisibility = 16 : i32} loc(unknown), %arg4: i32 {tt.divisibility = 16 : i32} loc(unknown), %arg5: i32 {tt.divisibility = 16 : i32} loc(unknown)) attributes {noinline = false} {
    %c64_i32 = arith.constant 64 : i32 loc(#loc)
    %c16_i32 = arith.constant 16 : i32 loc(#loc)
    %c4096_i32 = arith.constant 4096 : i32 loc(#loc)
    %cst = arith.constant dense<0.000000e+00> : tensor<256x256xf32> loc(#loc)
    %c32_i32 = arith.constant 32 : i32 loc(#loc)
    %c0_i32 = arith.constant 0 : i32 loc(#loc)
    %c1_i64 = arith.constant 1 : i64 loc(#loc)
    %c4096_i64 = arith.constant 4096 : i64 loc(#loc)
    %c256_i32 = arith.constant 256 : i32 loc(#loc)
    %c4_i32 = arith.constant 4 : i32 loc(#loc)
    %0 = tt.get_program_id x : i32 loc(#loc)
    %1 = arith.divsi %0, %c64_i32 : i32 loc(#loc)
    %2 = arith.muli %1, %c4_i32 : i32 loc(#loc)
    %3 = arith.subi %c16_i32, %2 : i32 loc(#loc)
    %4 = arith.minsi %3, %c4_i32 : i32 loc(#loc)
    %5 = arith.remsi %0, %4 : i32 loc(#loc)
    %6 = arith.addi %2, %5 : i32 loc(#loc)
    %7 = arith.remsi %0, %c64_i32 : i32 loc(#loc)
    %8 = arith.divsi %7, %4 : i32 loc(#loc)
    %9 = arith.muli %6, %c256_i32 : i32 loc(#loc)
    %10 = tt.make_tensor_ptr %arg0, [%c4096_i64, %c4096_i64], [%c4096_i64, %c1_i64], [%9, %c0_i32] {order = array<i32: 1, 0>} : <tensor<256x32xf16>, 1> loc(#loc)
    %11 = arith.muli %8, %c256_i32 : i32 loc(#loc)
    %12 = tt.make_tensor_ptr %arg1, [%c4096_i64, %c4096_i64], [%c4096_i64, %c1_i64], [%c0_i32, %11] {order = array<i32: 1, 0>} : <tensor<32x256xf16>, 1> loc(#loc)
    %13:3 = scf.for %arg6 = %c0_i32 to %c4096_i32 step %c32_i32 iter_args(%arg7 = %cst, %arg8 = %10, %arg9 = %12) -> (tensor<256x256xf32>, !tt.ptr<tensor<256x32xf16>, 1>, !tt.ptr<tensor<32x256xf16>, 1>)  : i32 {
      %17 = tt.load %arg8 {boundaryCheck = array<i32: 0, 1>, cache = 1 : i32, evict = 1 : i32, isVolatile = false} : !tt.ptr<tensor<256x32xf16>, 1> -> tensor<256x32xf16> loc(#loc)
      %18 = tt.load %arg9 {boundaryCheck = array<i32: 0, 1>, cache = 1 : i32, evict = 1 : i32, isVolatile = false} : !tt.ptr<tensor<32x256xf16>, 1> -> tensor<32x256xf16> loc(#loc)
      %19 = tt.dot %17, %18, %arg7 {allowTF32 = true, maxNumImpreciseAcc = 0 : i32} : tensor<256x32xf16> * tensor<32x256xf16> -> tensor<256x256xf32> loc(#loc)
      %20 = tt.advance %arg8, [%c0_i32, %c32_i32] : <tensor<256x32xf16>, 1> loc(#loc)
      %21 = tt.advance %arg9, [%c32_i32, %c0_i32] : <tensor<32x256xf16>, 1> loc(#loc)
      scf.yield %19, %20, %21 : tensor<256x256xf32>, !tt.ptr<tensor<256x32xf16>, 1>, !tt.ptr<tensor<32x256xf16>, 1> loc(#loc)
    } loc(#loc)
    %14 = arith.muli %6, %c256_i32 : i32 loc(#loc)
    %15 = arith.muli %8, %c256_i32 : i32 loc(#loc)
    %16 = tt.make_tensor_ptr %arg2, [%c4096_i64, %c4096_i64], [%c4096_i64, %c1_i64], [%14, %15] {order = array<i32: 1, 0>} : <tensor<256x256xf32>, 1> loc(#loc)
    tt.store %16, %13#0 {boundaryCheck = array<i32: 0, 1>, cache = 1 : i32, evict = 1 : i32} : !tt.ptr<tensor<256x256xf32>, 1>, tensor<256x256xf32> loc(#loc)
    tt.return loc(#loc)
  } loc(#loc)
} loc(#loc)


// -----// IR Dump Before LoopInvariantCodeMotion (loop-invariant-code-motion) ('builtin.module' operation) //----- //
#loc = loc(unknown)
module {
  tt.func public @matmul_kernel_with_block_pointers_0d1d2d3d4d5d(%arg0: !tt.ptr<f16, 1> {tt.divisibility = 16 : i32} loc(unknown), %arg1: !tt.ptr<f16, 1> {tt.divisibility = 16 : i32} loc(unknown), %arg2: !tt.ptr<f32, 1> {tt.divisibility = 16 : i32} loc(unknown), %arg3: i32 {tt.divisibility = 16 : i32} loc(unknown), %arg4: i32 {tt.divisibility = 16 : i32} loc(unknown), %arg5: i32 {tt.divisibility = 16 : i32} loc(unknown)) attributes {noinline = false} {
    %c64_i32 = arith.constant 64 : i32 loc(#loc)
    %c16_i32 = arith.constant 16 : i32 loc(#loc)
    %c4096_i32 = arith.constant 4096 : i32 loc(#loc)
    %cst = arith.constant dense<0.000000e+00> : tensor<256x256xf32> loc(#loc)
    %c32_i32 = arith.constant 32 : i32 loc(#loc)
    %c0_i32 = arith.constant 0 : i32 loc(#loc)
    %c1_i64 = arith.constant 1 : i64 loc(#loc)
    %c4096_i64 = arith.constant 4096 : i64 loc(#loc)
    %c256_i32 = arith.constant 256 : i32 loc(#loc)
    %c4_i32 = arith.constant 4 : i32 loc(#loc)
    %0 = tt.get_program_id x : i32 loc(#loc)
    %1 = arith.divsi %0, %c64_i32 : i32 loc(#loc)
    %2 = arith.muli %1, %c4_i32 : i32 loc(#loc)
    %3 = arith.subi %c16_i32, %2 : i32 loc(#loc)
    %4 = arith.minsi %3, %c4_i32 : i32 loc(#loc)
    %5 = arith.remsi %0, %4 : i32 loc(#loc)
    %6 = arith.addi %2, %5 : i32 loc(#loc)
    %7 = arith.remsi %0, %c64_i32 : i32 loc(#loc)
    %8 = arith.divsi %7, %4 : i32 loc(#loc)
    %9 = arith.muli %6, %c256_i32 : i32 loc(#loc)
    %10 = tt.make_tensor_ptr %arg0, [%c4096_i64, %c4096_i64], [%c4096_i64, %c1_i64], [%9, %c0_i32] {order = array<i32: 1, 0>} : <tensor<256x32xf16>, 1> loc(#loc)
    %11 = arith.muli %8, %c256_i32 : i32 loc(#loc)
    %12 = tt.make_tensor_ptr %arg1, [%c4096_i64, %c4096_i64], [%c4096_i64, %c1_i64], [%c0_i32, %11] {order = array<i32: 1, 0>} : <tensor<32x256xf16>, 1> loc(#loc)
    %13:3 = scf.for %arg6 = %c0_i32 to %c4096_i32 step %c32_i32 iter_args(%arg7 = %cst, %arg8 = %10, %arg9 = %12) -> (tensor<256x256xf32>, !tt.ptr<tensor<256x32xf16>, 1>, !tt.ptr<tensor<32x256xf16>, 1>)  : i32 {
      %15 = tt.load %arg8 {boundaryCheck = array<i32: 0, 1>, cache = 1 : i32, evict = 1 : i32, isVolatile = false} : !tt.ptr<tensor<256x32xf16>, 1> -> tensor<256x32xf16> loc(#loc)
      %16 = tt.load %arg9 {boundaryCheck = array<i32: 0, 1>, cache = 1 : i32, evict = 1 : i32, isVolatile = false} : !tt.ptr<tensor<32x256xf16>, 1> -> tensor<32x256xf16> loc(#loc)
      %17 = tt.dot %15, %16, %arg7 {allowTF32 = true, maxNumImpreciseAcc = 0 : i32} : tensor<256x32xf16> * tensor<32x256xf16> -> tensor<256x256xf32> loc(#loc)
      %18 = tt.advance %arg8, [%c0_i32, %c32_i32] : <tensor<256x32xf16>, 1> loc(#loc)
      %19 = tt.advance %arg9, [%c32_i32, %c0_i32] : <tensor<32x256xf16>, 1> loc(#loc)
      scf.yield %17, %18, %19 : tensor<256x256xf32>, !tt.ptr<tensor<256x32xf16>, 1>, !tt.ptr<tensor<32x256xf16>, 1> loc(#loc)
    } loc(#loc)
    %14 = tt.make_tensor_ptr %arg2, [%c4096_i64, %c4096_i64], [%c4096_i64, %c1_i64], [%9, %11] {order = array<i32: 1, 0>} : <tensor<256x256xf32>, 1> loc(#loc)
    tt.store %14, %13#0 {boundaryCheck = array<i32: 0, 1>, cache = 1 : i32, evict = 1 : i32} : !tt.ptr<tensor<256x256xf32>, 1>, tensor<256x256xf32> loc(#loc)
    tt.return loc(#loc)
  } loc(#loc)
} loc(#loc)


// -----// IR Dump Before SymbolDCE (symbol-dce) ('builtin.module' operation) //----- //
#loc = loc(unknown)
module {
  tt.func public @matmul_kernel_with_block_pointers_0d1d2d3d4d5d(%arg0: !tt.ptr<f16, 1> {tt.divisibility = 16 : i32} loc(unknown), %arg1: !tt.ptr<f16, 1> {tt.divisibility = 16 : i32} loc(unknown), %arg2: !tt.ptr<f32, 1> {tt.divisibility = 16 : i32} loc(unknown), %arg3: i32 {tt.divisibility = 16 : i32} loc(unknown), %arg4: i32 {tt.divisibility = 16 : i32} loc(unknown), %arg5: i32 {tt.divisibility = 16 : i32} loc(unknown)) attributes {noinline = false} {
    %c64_i32 = arith.constant 64 : i32 loc(#loc)
    %c16_i32 = arith.constant 16 : i32 loc(#loc)
    %c4096_i32 = arith.constant 4096 : i32 loc(#loc)
    %cst = arith.constant dense<0.000000e+00> : tensor<256x256xf32> loc(#loc)
    %c32_i32 = arith.constant 32 : i32 loc(#loc)
    %c0_i32 = arith.constant 0 : i32 loc(#loc)
    %c1_i64 = arith.constant 1 : i64 loc(#loc)
    %c4096_i64 = arith.constant 4096 : i64 loc(#loc)
    %c256_i32 = arith.constant 256 : i32 loc(#loc)
    %c4_i32 = arith.constant 4 : i32 loc(#loc)
    %0 = tt.get_program_id x : i32 loc(#loc)
    %1 = arith.divsi %0, %c64_i32 : i32 loc(#loc)
    %2 = arith.muli %1, %c4_i32 : i32 loc(#loc)
    %3 = arith.subi %c16_i32, %2 : i32 loc(#loc)
    %4 = arith.minsi %3, %c4_i32 : i32 loc(#loc)
    %5 = arith.remsi %0, %4 : i32 loc(#loc)
    %6 = arith.addi %2, %5 : i32 loc(#loc)
    %7 = arith.remsi %0, %c64_i32 : i32 loc(#loc)
    %8 = arith.divsi %7, %4 : i32 loc(#loc)
    %9 = arith.muli %6, %c256_i32 : i32 loc(#loc)
    %10 = tt.make_tensor_ptr %arg0, [%c4096_i64, %c4096_i64], [%c4096_i64, %c1_i64], [%9, %c0_i32] {order = array<i32: 1, 0>} : <tensor<256x32xf16>, 1> loc(#loc)
    %11 = arith.muli %8, %c256_i32 : i32 loc(#loc)
    %12 = tt.make_tensor_ptr %arg1, [%c4096_i64, %c4096_i64], [%c4096_i64, %c1_i64], [%c0_i32, %11] {order = array<i32: 1, 0>} : <tensor<32x256xf16>, 1> loc(#loc)
    %13:3 = scf.for %arg6 = %c0_i32 to %c4096_i32 step %c32_i32 iter_args(%arg7 = %cst, %arg8 = %10, %arg9 = %12) -> (tensor<256x256xf32>, !tt.ptr<tensor<256x32xf16>, 1>, !tt.ptr<tensor<32x256xf16>, 1>)  : i32 {
      %15 = tt.load %arg8 {boundaryCheck = array<i32: 0, 1>, cache = 1 : i32, evict = 1 : i32, isVolatile = false} : !tt.ptr<tensor<256x32xf16>, 1> -> tensor<256x32xf16> loc(#loc)
      %16 = tt.load %arg9 {boundaryCheck = array<i32: 0, 1>, cache = 1 : i32, evict = 1 : i32, isVolatile = false} : !tt.ptr<tensor<32x256xf16>, 1> -> tensor<32x256xf16> loc(#loc)
      %17 = tt.dot %15, %16, %arg7 {allowTF32 = true, maxNumImpreciseAcc = 0 : i32} : tensor<256x32xf16> * tensor<32x256xf16> -> tensor<256x256xf32> loc(#loc)
      %18 = tt.advance %arg8, [%c0_i32, %c32_i32] : <tensor<256x32xf16>, 1> loc(#loc)
      %19 = tt.advance %arg9, [%c32_i32, %c0_i32] : <tensor<32x256xf16>, 1> loc(#loc)
      scf.yield %17, %18, %19 : tensor<256x256xf32>, !tt.ptr<tensor<256x32xf16>, 1>, !tt.ptr<tensor<32x256xf16>, 1> loc(#loc)
    } loc(#loc)
    %14 = tt.make_tensor_ptr %arg2, [%c4096_i64, %c4096_i64], [%c4096_i64, %c1_i64], [%9, %11] {order = array<i32: 1, 0>} : <tensor<256x256xf32>, 1> loc(#loc)
    tt.store %14, %13#0 {boundaryCheck = array<i32: 0, 1>, cache = 1 : i32, evict = 1 : i32} : !tt.ptr<tensor<256x256xf32>, 1>, tensor<256x256xf32> loc(#loc)
    tt.return loc(#loc)
  } loc(#loc)
} loc(#loc)


// -----// IR Dump Before ConvertTritonToTritonGPUWarp (convert-triton-to-tritongpu-warp) ('builtin.module' operation) //----- //
#loc = loc(unknown)
module {
  tt.func public @matmul_kernel_with_block_pointers_0d1d2d3d4d5d(%arg0: !tt.ptr<f16, 1> {tt.divisibility = 16 : i32} loc(unknown), %arg1: !tt.ptr<f16, 1> {tt.divisibility = 16 : i32} loc(unknown), %arg2: !tt.ptr<f32, 1> {tt.divisibility = 16 : i32} loc(unknown), %arg3: i32 {tt.divisibility = 16 : i32} loc(unknown), %arg4: i32 {tt.divisibility = 16 : i32} loc(unknown), %arg5: i32 {tt.divisibility = 16 : i32} loc(unknown)) attributes {noinline = false} {
    %c64_i32 = arith.constant 64 : i32 loc(#loc)
    %c16_i32 = arith.constant 16 : i32 loc(#loc)
    %c4096_i32 = arith.constant 4096 : i32 loc(#loc)
    %cst = arith.constant dense<0.000000e+00> : tensor<256x256xf32> loc(#loc)
    %c32_i32 = arith.constant 32 : i32 loc(#loc)
    %c0_i32 = arith.constant 0 : i32 loc(#loc)
    %c1_i64 = arith.constant 1 : i64 loc(#loc)
    %c4096_i64 = arith.constant 4096 : i64 loc(#loc)
    %c256_i32 = arith.constant 256 : i32 loc(#loc)
    %c4_i32 = arith.constant 4 : i32 loc(#loc)
    %0 = tt.get_program_id x : i32 loc(#loc)
    %1 = arith.divsi %0, %c64_i32 : i32 loc(#loc)
    %2 = arith.muli %1, %c4_i32 : i32 loc(#loc)
    %3 = arith.subi %c16_i32, %2 : i32 loc(#loc)
    %4 = arith.minsi %3, %c4_i32 : i32 loc(#loc)
    %5 = arith.remsi %0, %4 : i32 loc(#loc)
    %6 = arith.addi %2, %5 : i32 loc(#loc)
    %7 = arith.remsi %0, %c64_i32 : i32 loc(#loc)
    %8 = arith.divsi %7, %4 : i32 loc(#loc)
    %9 = arith.muli %6, %c256_i32 : i32 loc(#loc)
    %10 = tt.make_tensor_ptr %arg0, [%c4096_i64, %c4096_i64], [%c4096_i64, %c1_i64], [%9, %c0_i32] {order = array<i32: 1, 0>} : <tensor<256x32xf16>, 1> loc(#loc)
    %11 = arith.muli %8, %c256_i32 : i32 loc(#loc)
    %12 = tt.make_tensor_ptr %arg1, [%c4096_i64, %c4096_i64], [%c4096_i64, %c1_i64], [%c0_i32, %11] {order = array<i32: 1, 0>} : <tensor<32x256xf16>, 1> loc(#loc)
    %13:3 = scf.for %arg6 = %c0_i32 to %c4096_i32 step %c32_i32 iter_args(%arg7 = %cst, %arg8 = %10, %arg9 = %12) -> (tensor<256x256xf32>, !tt.ptr<tensor<256x32xf16>, 1>, !tt.ptr<tensor<32x256xf16>, 1>)  : i32 {
      %15 = tt.load %arg8 {boundaryCheck = array<i32: 0, 1>, cache = 1 : i32, evict = 1 : i32, isVolatile = false} : !tt.ptr<tensor<256x32xf16>, 1> -> tensor<256x32xf16> loc(#loc)
      %16 = tt.load %arg9 {boundaryCheck = array<i32: 0, 1>, cache = 1 : i32, evict = 1 : i32, isVolatile = false} : !tt.ptr<tensor<32x256xf16>, 1> -> tensor<32x256xf16> loc(#loc)
      %17 = tt.dot %15, %16, %arg7 {allowTF32 = true, maxNumImpreciseAcc = 0 : i32} : tensor<256x32xf16> * tensor<32x256xf16> -> tensor<256x256xf32> loc(#loc)
      %18 = tt.advance %arg8, [%c0_i32, %c32_i32] : <tensor<256x32xf16>, 1> loc(#loc)
      %19 = tt.advance %arg9, [%c32_i32, %c0_i32] : <tensor<32x256xf16>, 1> loc(#loc)
      scf.yield %17, %18, %19 : tensor<256x256xf32>, !tt.ptr<tensor<256x32xf16>, 1>, !tt.ptr<tensor<32x256xf16>, 1> loc(#loc)
    } loc(#loc)
    %14 = tt.make_tensor_ptr %arg2, [%c4096_i64, %c4096_i64], [%c4096_i64, %c1_i64], [%9, %11] {order = array<i32: 1, 0>} : <tensor<256x256xf32>, 1> loc(#loc)
    tt.store %14, %13#0 {boundaryCheck = array<i32: 0, 1>, cache = 1 : i32, evict = 1 : i32} : !tt.ptr<tensor<256x256xf32>, 1>, tensor<256x256xf32> loc(#loc)
    tt.return loc(#loc)
  } loc(#loc)
} loc(#loc)


%17 = tt.dot %15, %16, %arg7 {allowTF32 = true, maxNumImpreciseAcc = 0 : i32} : tensor<256x32xf16> * tensor<32x256xf16> -> tensor<256x256xf32>
%15 = tt.load %arg8 {boundaryCheck = array<i32: 0, 1>, cache = 1 : i32, evict = 1 : i32, isVolatile = false} : !tt.ptr<tensor<256x32xf16>, 1> -> tensor<256x32xf16>
<block argument> of type '!tt.ptr<tensor<256x32xf16>, 1>' at index: 2
%10 = tt.make_tensor_ptr %arg0, [%c4096_i64, %c4096_i64], [%c4096_i64, %c1_i64], [%9, %c0_i32] {order = array<i32: 1, 0>} : <tensor<256x32xf16>, 1>
%15 = tt.load %arg8 {boundaryCheck = array<i32: 0, 1>, cache = 1 : i32, evict = 1 : i32, isVolatile = false} : !tt.ptr<tensor<256x32xf16>, 1> -> tensor<256x32xf16>
%18 = tt.advance %arg8, [%c0_i32, %c32_i32] : <tensor<256x32xf16>, 1>
%16 = tt.load %arg9 {boundaryCheck = array<i32: 0, 1>, cache = 1 : i32, evict = 1 : i32, isVolatile = false} : !tt.ptr<tensor<32x256xf16>, 1> -> tensor<32x256xf16>
<block argument> of type '!tt.ptr<tensor<32x256xf16>, 1>' at index: 3
%12 = tt.make_tensor_ptr %arg1, [%c4096_i64, %c4096_i64], [%c4096_i64, %c1_i64], [%c0_i32, %11] {order = array<i32: 1, 0>} : <tensor<32x256xf16>, 1>
%16 = tt.load %arg9 {boundaryCheck = array<i32: 0, 1>, cache = 1 : i32, evict = 1 : i32, isVolatile = false} : !tt.ptr<tensor<32x256xf16>, 1> -> tensor<32x256xf16>
%19 = tt.advance %arg9, [%c32_i32, %c0_i32] : <tensor<32x256xf16>, 1>
%cst = arith.constant dense<0.000000e+00> : tensor<256x256xf32>
<block argument> of type 'tensor<256x256xf32>' at index: 1
%17 = tt.dot %15, %16, %arg7 {allowTF32 = true, maxNumImpreciseAcc = 0 : i32} : tensor<256x32xf16> * tensor<32x256xf16> -> tensor<256x256xf32>
// -----// IR Dump Before TritonGPUPrefetchBlock (tritongpu-prefetch-block) ('builtin.module' operation) //----- //
#blocked = #triton_gpu.blocked<{sizePerThread = [32, 64], threadsPerWarp = [1, 1], warpsPerCTA = [8, 4], order = [1, 0]}>
#loc = loc(unknown)
module attributes {"triton_gpu.compute-capability" = 90 : i32, "triton_gpu.num-ctas" = 1 : i32, "triton_gpu.num-warps" = 32 : i32, "triton_gpu.threads-per-warp" = 1 : i32} {
  tt.func public @matmul_kernel_with_block_pointers_0d1d2d3d4d5d(%arg0: !tt.ptr<f16, 1> {tt.divisibility = 16 : i32} loc(unknown), %arg1: !tt.ptr<f16, 1> {tt.divisibility = 16 : i32} loc(unknown), %arg2: !tt.ptr<f32, 1> {tt.divisibility = 16 : i32} loc(unknown), %arg3: i32 {tt.divisibility = 16 : i32} loc(unknown), %arg4: i32 {tt.divisibility = 16 : i32} loc(unknown), %arg5: i32 {tt.divisibility = 16 : i32} loc(unknown)) attributes {noinline = false} {
    %c64_i32 = arith.constant 64 : i32 loc(#loc)
    %c16_i32 = arith.constant 16 : i32 loc(#loc)
    %c4096_i32 = arith.constant 4096 : i32 loc(#loc)
    %cst = arith.constant dense<0.000000e+00> : tensor<256x256xf32, #blocked> loc(#loc)
    %c32_i32 = arith.constant 32 : i32 loc(#loc)
    %c0_i32 = arith.constant 0 : i32 loc(#loc)
    %c1_i64 = arith.constant 1 : i64 loc(#loc)
    %c4096_i64 = arith.constant 4096 : i64 loc(#loc)
    %c256_i32 = arith.constant 256 : i32 loc(#loc)
    %c4_i32 = arith.constant 4 : i32 loc(#loc)
    %0 = tt.get_program_id x : i32 loc(#loc)
    %1 = arith.divsi %0, %c64_i32 : i32 loc(#loc)
    %2 = arith.muli %1, %c4_i32 : i32 loc(#loc)
    %3 = arith.subi %c16_i32, %2 : i32 loc(#loc)
    %4 = arith.minsi %3, %c4_i32 : i32 loc(#loc)
    %5 = arith.remsi %0, %4 : i32 loc(#loc)
    %6 = arith.addi %2, %5 : i32 loc(#loc)
    %7 = arith.remsi %0, %c64_i32 : i32 loc(#loc)
    %8 = arith.divsi %7, %4 : i32 loc(#loc)
    %9 = arith.muli %6, %c256_i32 : i32 loc(#loc)
    %10 = tt.make_tensor_ptr %arg0, [%c4096_i64, %c4096_i64], [%c4096_i64, %c1_i64], [%9, %c0_i32] {order = array<i32: 1, 0>} : <tensor<256x32xf16, #triton_gpu.dot_op<{opIdx = 0, parent = #blocked}>>, 1> loc(#loc)
    %11 = arith.muli %8, %c256_i32 : i32 loc(#loc)
    %12 = tt.make_tensor_ptr %arg1, [%c4096_i64, %c4096_i64], [%c4096_i64, %c1_i64], [%c0_i32, %11] {order = array<i32: 1, 0>} : <tensor<32x256xf16, #triton_gpu.dot_op<{opIdx = 1, parent = #blocked}>>, 1> loc(#loc)
    %13:3 = scf.for %arg6 = %c0_i32 to %c4096_i32 step %c32_i32 iter_args(%arg7 = %cst, %arg8 = %10, %arg9 = %12) -> (tensor<256x256xf32, #blocked>, !tt.ptr<tensor<256x32xf16, #triton_gpu.dot_op<{opIdx = 0, parent = #blocked}>>, 1>, !tt.ptr<tensor<32x256xf16, #triton_gpu.dot_op<{opIdx = 1, parent = #blocked}>>, 1>)  : i32 {
      %15 = tt.load %arg8 {boundaryCheck = array<i32: 0, 1>, cache = 1 : i32, evict = 1 : i32, isVolatile = false} : !tt.ptr<tensor<256x32xf16, #triton_gpu.dot_op<{opIdx = 0, parent = #blocked}>>, 1> -> tensor<256x32xf16, #triton_gpu.dot_op<{opIdx = 0, parent = #blocked}>> loc(#loc)
      %16 = tt.load %arg9 {boundaryCheck = array<i32: 0, 1>, cache = 1 : i32, evict = 1 : i32, isVolatile = false} : !tt.ptr<tensor<32x256xf16, #triton_gpu.dot_op<{opIdx = 1, parent = #blocked}>>, 1> -> tensor<32x256xf16, #triton_gpu.dot_op<{opIdx = 1, parent = #blocked}>> loc(#loc)
      %17 = tt.dot %15, %16, %arg7 {allowTF32 = true, maxNumImpreciseAcc = 0 : i32} : tensor<256x32xf16, #triton_gpu.dot_op<{opIdx = 0, parent = #blocked}>> * tensor<32x256xf16, #triton_gpu.dot_op<{opIdx = 1, parent = #blocked}>> -> tensor<256x256xf32, #blocked> loc(#loc)
      %18 = tt.advance %arg8, [%c0_i32, %c32_i32] : <tensor<256x32xf16, #triton_gpu.dot_op<{opIdx = 0, parent = #blocked}>>, 1> loc(#loc)
      %19 = tt.advance %arg9, [%c32_i32, %c0_i32] : <tensor<32x256xf16, #triton_gpu.dot_op<{opIdx = 1, parent = #blocked}>>, 1> loc(#loc)
      scf.yield %17, %18, %19 : tensor<256x256xf32, #blocked>, !tt.ptr<tensor<256x32xf16, #triton_gpu.dot_op<{opIdx = 0, parent = #blocked}>>, 1>, !tt.ptr<tensor<32x256xf16, #triton_gpu.dot_op<{opIdx = 1, parent = #blocked}>>, 1> loc(#loc)
    } {triton_gpu.workload = 3 : i32} loc(#loc)
    %14 = tt.make_tensor_ptr %arg2, [%c4096_i64, %c4096_i64], [%c4096_i64, %c1_i64], [%9, %11] {order = array<i32: 1, 0>} : <tensor<256x256xf32, #blocked>, 1> loc(#loc)
    tt.store %14, %13#0 {boundaryCheck = array<i32: 0, 1>, cache = 1 : i32, evict = 1 : i32} : !tt.ptr<tensor<256x256xf32, #blocked>, 1>, tensor<256x256xf32, #blocked> loc(#loc)
    tt.return loc(#loc)
  } loc(#loc)
} loc(#loc)


%31:5 = "scf.for"(%5, %2, %4, %3, %24, %30, %23, %29) ({
^bb0(%arg6: i32, %arg7: tensor<256x256xf32, #triton_gpu.blocked<{sizePerThread = [32, 64], threadsPerWarp = [1, 1], warpsPerCTA = [8, 4], order = [1, 0]}>>, %arg8: !tt.ptr<tensor<256x32xf16, #triton_gpu.dot_op<{opIdx = 0, parent = #triton_gpu.blocked<{sizePerThread = [32, 64], threadsPerWarp = [1, 1], warpsPerCTA = [8, 4], order = [1, 0]}>}>>, 1>, %arg9: !tt.ptr<tensor<32x256xf16, #triton_gpu.dot_op<{opIdx = 1, parent = #triton_gpu.blocked<{sizePerThread = [32, 64], threadsPerWarp = [1, 1], warpsPerCTA = [8, 4], order = [1, 0]}>}>>, 1>, %arg10: !tt.ptr<tensor<256x32xf16, #triton_gpu.blocked<{sizePerThread = [8, 32], threadsPerWarp = [1, 1], warpsPerCTA = [32, 1], order = [1, 0]}>>, 1>, %arg11: !tt.ptr<tensor<32x256xf16, #triton_gpu.blocked<{sizePerThread = [8, 32], threadsPerWarp = [1, 1], warpsPerCTA = [4, 8], order = [1, 0]}>>, 1>):
  %34 = "tt.load"(%arg8) <{boundaryCheck = array<i32: 0, 1>, cache = 1 : i32, evict = 1 : i32, isVolatile = false, operandSegmentSizes = array<i32: 1, 0, 0>}> : (!tt.ptr<tensor<256x32xf16, #triton_gpu.dot_op<{opIdx = 0, parent = #triton_gpu.blocked<{sizePerThread = [32, 64], threadsPerWarp = [1, 1], warpsPerCTA = [8, 4], order = [1, 0]}>}>>, 1>) -> tensor<256x32xf16, #triton_gpu.dot_op<{opIdx = 0, parent = #triton_gpu.blocked<{sizePerThread = [32, 64], threadsPerWarp = [1, 1], warpsPerCTA = [8, 4], order = [1, 0]}>}>>
  %35 = "tt.load"(%arg9) <{boundaryCheck = array<i32: 0, 1>, cache = 1 : i32, evict = 1 : i32, isVolatile = false, operandSegmentSizes = array<i32: 1, 0, 0>}> : (!tt.ptr<tensor<32x256xf16, #triton_gpu.dot_op<{opIdx = 1, parent = #triton_gpu.blocked<{sizePerThread = [32, 64], threadsPerWarp = [1, 1], warpsPerCTA = [8, 4], order = [1, 0]}>}>>, 1>) -> tensor<32x256xf16, #triton_gpu.dot_op<{opIdx = 1, parent = #triton_gpu.blocked<{sizePerThread = [32, 64], threadsPerWarp = [1, 1], warpsPerCTA = [8, 4], order = [1, 0]}>}>>
  %36 = "tt.dot"(%34, %35, %arg7) <{allowTF32 = true, maxNumImpreciseAcc = 0 : i32}> : (tensor<256x32xf16, #triton_gpu.dot_op<{opIdx = 0, parent = #triton_gpu.blocked<{sizePerThread = [32, 64], threadsPerWarp = [1, 1], warpsPerCTA = [8, 4], order = [1, 0]}>}>>, tensor<32x256xf16, #triton_gpu.dot_op<{opIdx = 1, parent = #triton_gpu.blocked<{sizePerThread = [32, 64], threadsPerWarp = [1, 1], warpsPerCTA = [8, 4], order = [1, 0]}>}>>, tensor<256x256xf32, #triton_gpu.blocked<{sizePerThread = [32, 64], threadsPerWarp = [1, 1], warpsPerCTA = [8, 4], order = [1, 0]}>>) -> tensor<256x256xf32, #triton_gpu.blocked<{sizePerThread = [32, 64], threadsPerWarp = [1, 1], warpsPerCTA = [8, 4], order = [1, 0]}>>
  %37 = "tt.advance"(%arg8, %5, %4) : (!tt.ptr<tensor<256x32xf16, #triton_gpu.dot_op<{opIdx = 0, parent = #triton_gpu.blocked<{sizePerThread = [32, 64], threadsPerWarp = [1, 1], warpsPerCTA = [8, 4], order = [1, 0]}>}>>, 1>, i32, i32) -> !tt.ptr<tensor<256x32xf16, #triton_gpu.dot_op<{opIdx = 0, parent = #triton_gpu.blocked<{sizePerThread = [32, 64], threadsPerWarp = [1, 1], warpsPerCTA = [8, 4], order = [1, 0]}>}>>, 1>
  %38 = "tt.advance"(%arg9, %4, %5) : (!tt.ptr<tensor<32x256xf16, #triton_gpu.dot_op<{opIdx = 1, parent = #triton_gpu.blocked<{sizePerThread = [32, 64], threadsPerWarp = [1, 1], warpsPerCTA = [8, 4], order = [1, 0]}>}>>, 1>, i32, i32) -> !tt.ptr<tensor<32x256xf16, #triton_gpu.dot_op<{opIdx = 1, parent = #triton_gpu.blocked<{sizePerThread = [32, 64], threadsPerWarp = [1, 1], warpsPerCTA = [8, 4], order = [1, 0]}>}>>, 1>
  "scf.yield"(%36, %37, %38) : (tensor<256x256xf32, #triton_gpu.blocked<{sizePerThread = [32, 64], threadsPerWarp = [1, 1], warpsPerCTA = [8, 4], order = [1, 0]}>>, !tt.ptr<tensor<256x32xf16, #triton_gpu.dot_op<{opIdx = 0, parent = #triton_gpu.blocked<{sizePerThread = [32, 64], threadsPerWarp = [1, 1], warpsPerCTA = [8, 4], order = [1, 0]}>}>>, 1>, !tt.ptr<tensor<32x256xf16, #triton_gpu.dot_op<{opIdx = 1, parent = #triton_gpu.blocked<{sizePerThread = [32, 64], threadsPerWarp = [1, 1], warpsPerCTA = [8, 4], order = [1, 0]}>}>>, 1>) -> ()
}) : (i32, i32, i32, tensor<256x256xf32, #triton_gpu.blocked<{sizePerThread = [32, 64], threadsPerWarp = [1, 1], warpsPerCTA = [8, 4], order = [1, 0]}>>, !tt.ptr<tensor<256x32xf16, #triton_gpu.dot_op<{opIdx = 0, parent = #triton_gpu.blocked<{sizePerThread = [32, 64], threadsPerWarp = [1, 1], warpsPerCTA = [8, 4], order = [1, 0]}>}>>, 1>, !tt.ptr<tensor<32x256xf16, #triton_gpu.dot_op<{opIdx = 1, parent = #triton_gpu.blocked<{sizePerThread = [32, 64], threadsPerWarp = [1, 1], warpsPerCTA = [8, 4], order = [1, 0]}>}>>, 1>, !tt.ptr<tensor<256x32xf16, #triton_gpu.blocked<{sizePerThread = [8, 32], threadsPerWarp = [1, 1], warpsPerCTA = [32, 1], order = [1, 0]}>>, 1>, !tt.ptr<tensor<32x256xf16, #triton_gpu.blocked<{sizePerThread = [8, 32], threadsPerWarp = [1, 1], warpsPerCTA = [4, 8], order = [1, 0]}>>, 1>) -> (tensor<256x256xf32, #triton_gpu.blocked<{sizePerThread = [32, 64], threadsPerWarp = [1, 1], warpsPerCTA = [8, 4], order = [1, 0]}>>, !tt.ptr<tensor<256x32xf16, #triton_gpu.dot_op<{opIdx = 0, parent = #triton_gpu.blocked<{sizePerThread = [32, 64], threadsPerWarp = [1, 1], warpsPerCTA = [8, 4], order = [1, 0]}>}>>, 1>, !tt.ptr<tensor<32x256xf16, #triton_gpu.dot_op<{opIdx = 1, parent = #triton_gpu.blocked<{sizePerThread = [32, 64], threadsPerWarp = [1, 1], warpsPerCTA = [8, 4], order = [1, 0]}>}>>, 1>, !tt.ptr<tensor<256x32xf16, #triton_gpu.blocked<{sizePerThread = [8, 32], threadsPerWarp = [1, 1], warpsPerCTA = [32, 1], order = [1, 0]}>>, 1>, !tt.ptr<tensor<32x256xf16, #triton_gpu.blocked<{sizePerThread = [8, 32], threadsPerWarp = [1, 1], warpsPerCTA = [4, 8], order = [1, 0]}>>, 1>)
%21:5 = scf.for %arg6 = %c0_i32 to %c4096_i32 step %c32_i32 iter_args(%arg7 = %cst, %arg8 = %14, %arg9 = %20, %arg10 = %13, %arg11 = %19) -> (tensor<256x256xf32, #triton_gpu.blocked<{sizePerThread = [32, 64], threadsPerWarp = [1, 1], warpsPerCTA = [8, 4], order = [1, 0]}>>, !tt.ptr<tensor<256x32xf16, #triton_gpu.dot_op<{opIdx = 0, parent = #triton_gpu.blocked<{sizePerThread = [32, 64], threadsPerWarp = [1, 1], warpsPerCTA = [8, 4], order = [1, 0]}>}>>, 1>, !tt.ptr<tensor<32x256xf16, #triton_gpu.dot_op<{opIdx = 1, parent = #triton_gpu.blocked<{sizePerThread = [32, 64], threadsPerWarp = [1, 1], warpsPerCTA = [8, 4], order = [1, 0]}>}>>, 1>, !tt.ptr<tensor<256x32xf16, #triton_gpu.blocked<{sizePerThread = [8, 32], threadsPerWarp = [1, 1], warpsPerCTA = [32, 1], order = [1, 0]}>>, 1>, !tt.ptr<tensor<32x256xf16, #triton_gpu.blocked<{sizePerThread = [8, 32], threadsPerWarp = [1, 1], warpsPerCTA = [4, 8], order = [1, 0]}>>, 1>)  : i32 {
  gpu.barrier
  %23 = tt.load %arg8 {boundaryCheck = array<i32: 0, 1>, cache = 1 : i32, evict = 1 : i32, isVolatile = false} : !tt.ptr<tensor<256x32xf16, #triton_gpu.dot_op<{opIdx = 0, parent = #triton_gpu.blocked<{sizePerThread = [32, 64], threadsPerWarp = [1, 1], warpsPerCTA = [8, 4], order = [1, 0]}>}>>, 1> -> tensor<256x32xf16, #triton_gpu.dot_op<{opIdx = 0, parent = #triton_gpu.blocked<{sizePerThread = [32, 64], threadsPerWarp = [1, 1], warpsPerCTA = [8, 4], order = [1, 0]}>}>>
  %24 = tt.load %arg9 {boundaryCheck = array<i32: 0, 1>, cache = 1 : i32, evict = 1 : i32, isVolatile = false} : !tt.ptr<tensor<32x256xf16, #triton_gpu.dot_op<{opIdx = 1, parent = #triton_gpu.blocked<{sizePerThread = [32, 64], threadsPerWarp = [1, 1], warpsPerCTA = [8, 4], order = [1, 0]}>}>>, 1> -> tensor<32x256xf16, #triton_gpu.dot_op<{opIdx = 1, parent = #triton_gpu.blocked<{sizePerThread = [32, 64], threadsPerWarp = [1, 1], warpsPerCTA = [8, 4], order = [1, 0]}>}>>
  %25 = tt.dot %23, %24, %arg7 {allowTF32 = true, maxNumImpreciseAcc = 0 : i32} : tensor<256x32xf16, #triton_gpu.dot_op<{opIdx = 0, parent = #triton_gpu.blocked<{sizePerThread = [32, 64], threadsPerWarp = [1, 1], warpsPerCTA = [8, 4], order = [1, 0]}>}>> * tensor<32x256xf16, #triton_gpu.dot_op<{opIdx = 1, parent = #triton_gpu.blocked<{sizePerThread = [32, 64], threadsPerWarp = [1, 1], warpsPerCTA = [8, 4], order = [1, 0]}>}>> -> tensor<256x256xf32, #triton_gpu.blocked<{sizePerThread = [32, 64], threadsPerWarp = [1, 1], warpsPerCTA = [8, 4], order = [1, 0]}>>
  tt.prefetch %arg10 {cache = 1 : i32, evict = 1 : i32, isVolatile = false} : !tt.ptr<tensor<256x32xf16, #triton_gpu.blocked<{sizePerThread = [8, 32], threadsPerWarp = [1, 1], warpsPerCTA = [32, 1], order = [1, 0]}>>, 1>
  %26 = tt.advance %arg10, [%c0_i32, %c32_i32] : <tensor<256x32xf16, #triton_gpu.blocked<{sizePerThread = [8, 32], threadsPerWarp = [1, 1], warpsPerCTA = [32, 1], order = [1, 0]}>>, 1>
  %27 = tt.advance %arg8, [%c0_i32, %c32_i32] : <tensor<256x32xf16, #triton_gpu.dot_op<{opIdx = 0, parent = #triton_gpu.blocked<{sizePerThread = [32, 64], threadsPerWarp = [1, 1], warpsPerCTA = [8, 4], order = [1, 0]}>}>>, 1>
  tt.prefetch %arg11 {cache = 1 : i32, evict = 1 : i32, isVolatile = false} : !tt.ptr<tensor<32x256xf16, #triton_gpu.blocked<{sizePerThread = [8, 32], threadsPerWarp = [1, 1], warpsPerCTA = [4, 8], order = [1, 0]}>>, 1>
  %28 = tt.advance %arg11, [%c32_i32, %c0_i32] : <tensor<32x256xf16, #triton_gpu.blocked<{sizePerThread = [8, 32], threadsPerWarp = [1, 1], warpsPerCTA = [4, 8], order = [1, 0]}>>, 1>
  %29 = tt.advance %arg9, [%c32_i32, %c0_i32] : <tensor<32x256xf16, #triton_gpu.dot_op<{opIdx = 1, parent = #triton_gpu.blocked<{sizePerThread = [32, 64], threadsPerWarp = [1, 1], warpsPerCTA = [8, 4], order = [1, 0]}>}>>, 1>
  scf.yield %25, %27, %29, %26, %28 : tensor<256x256xf32, #triton_gpu.blocked<{sizePerThread = [32, 64], threadsPerWarp = [1, 1], warpsPerCTA = [8, 4], order = [1, 0]}>>, !tt.ptr<tensor<256x32xf16, #triton_gpu.dot_op<{opIdx = 0, parent = #triton_gpu.blocked<{sizePerThread = [32, 64], threadsPerWarp = [1, 1], warpsPerCTA = [8, 4], order = [1, 0]}>}>>, 1>, !tt.ptr<tensor<32x256xf16, #triton_gpu.dot_op<{opIdx = 1, parent = #triton_gpu.blocked<{sizePerThread = [32, 64], threadsPerWarp = [1, 1], warpsPerCTA = [8, 4], order = [1, 0]}>}>>, 1>, !tt.ptr<tensor<256x32xf16, #triton_gpu.blocked<{sizePerThread = [8, 32], threadsPerWarp = [1, 1], warpsPerCTA = [32, 1], order = [1, 0]}>>, 1>, !tt.ptr<tensor<32x256xf16, #triton_gpu.blocked<{sizePerThread = [8, 32], threadsPerWarp = [1, 1], warpsPerCTA = [4, 8], order = [1, 0]}>>, 1>
}
// -----// IR Dump Before TritonGPUDistributeToWarps (tritongpu-distribute-to-warps) ('builtin.module' operation) //----- //
#blocked = #triton_gpu.blocked<{sizePerThread = [32, 64], threadsPerWarp = [1, 1], warpsPerCTA = [8, 4], order = [1, 0]}>
#blocked1 = #triton_gpu.blocked<{sizePerThread = [8, 32], threadsPerWarp = [1, 1], warpsPerCTA = [32, 1], order = [1, 0]}>
#blocked2 = #triton_gpu.blocked<{sizePerThread = [8, 32], threadsPerWarp = [1, 1], warpsPerCTA = [4, 8], order = [1, 0]}>
#loc = loc(unknown)
module attributes {"triton_gpu.compute-capability" = 90 : i32, "triton_gpu.num-ctas" = 1 : i32, "triton_gpu.num-warps" = 32 : i32, "triton_gpu.threads-per-warp" = 1 : i32} {
  tt.func public @matmul_kernel_with_block_pointers_0d1d2d3d4d5d(%arg0: !tt.ptr<f16, 1> {tt.divisibility = 16 : i32} loc(unknown), %arg1: !tt.ptr<f16, 1> {tt.divisibility = 16 : i32} loc(unknown), %arg2: !tt.ptr<f32, 1> {tt.divisibility = 16 : i32} loc(unknown), %arg3: i32 {tt.divisibility = 16 : i32} loc(unknown), %arg4: i32 {tt.divisibility = 16 : i32} loc(unknown), %arg5: i32 {tt.divisibility = 16 : i32} loc(unknown)) attributes {noinline = false} {
    %c64_i32 = arith.constant 64 : i32 loc(#loc)
    %c16_i32 = arith.constant 16 : i32 loc(#loc)
    %c4096_i32 = arith.constant 4096 : i32 loc(#loc)
    %cst = arith.constant dense<0.000000e+00> : tensor<256x256xf32, #blocked> loc(#loc)
    %c32_i32 = arith.constant 32 : i32 loc(#loc)
    %c0_i32 = arith.constant 0 : i32 loc(#loc)
    %c1_i64 = arith.constant 1 : i64 loc(#loc)
    %c4096_i64 = arith.constant 4096 : i64 loc(#loc)
    %c256_i32 = arith.constant 256 : i32 loc(#loc)
    %c4_i32 = arith.constant 4 : i32 loc(#loc)
    %0 = tt.get_program_id x : i32 loc(#loc)
    %1 = arith.divsi %0, %c64_i32 : i32 loc(#loc)
    %2 = arith.muli %1, %c4_i32 : i32 loc(#loc)
    %3 = arith.subi %c16_i32, %2 : i32 loc(#loc)
    %4 = arith.minsi %3, %c4_i32 : i32 loc(#loc)
    %5 = arith.remsi %0, %4 : i32 loc(#loc)
    %6 = arith.addi %2, %5 : i32 loc(#loc)
    %7 = arith.remsi %0, %c64_i32 : i32 loc(#loc)
    %8 = arith.divsi %7, %4 : i32 loc(#loc)
    %9 = arith.muli %6, %c256_i32 : i32 loc(#loc)
    %10 = tt.make_tensor_ptr %arg0, [%c4096_i64, %c4096_i64], [%c4096_i64, %c1_i64], [%9, %c0_i32] {order = array<i32: 1, 0>} : <tensor<256x32xf16, #blocked1>, 1> loc(#loc)
    tt.prefetch %10 {cache = 1 : i32, evict = 1 : i32, isVolatile = false} : !tt.ptr<tensor<256x32xf16, #blocked1>, 1> loc(#loc)
    %11 = tt.advance %10, [%c0_i32, %c32_i32] : <tensor<256x32xf16, #blocked1>, 1> loc(#loc)
    tt.prefetch %11 {cache = 1 : i32, evict = 1 : i32, isVolatile = false} : !tt.ptr<tensor<256x32xf16, #blocked1>, 1> loc(#loc)
    %12 = tt.advance %11, [%c0_i32, %c32_i32] : <tensor<256x32xf16, #blocked1>, 1> loc(#loc)
    tt.prefetch %12 {cache = 1 : i32, evict = 1 : i32, isVolatile = false} : !tt.ptr<tensor<256x32xf16, #blocked1>, 1> loc(#loc)
    %13 = tt.advance %12, [%c0_i32, %c32_i32] : <tensor<256x32xf16, #blocked1>, 1> loc(#loc)
    %14 = tt.make_tensor_ptr %arg0, [%c4096_i64, %c4096_i64], [%c4096_i64, %c1_i64], [%9, %c0_i32] {order = array<i32: 1, 0>} : <tensor<256x32xf16, #triton_gpu.dot_op<{opIdx = 0, parent = #blocked}>>, 1> loc(#loc)
    %15 = arith.muli %8, %c256_i32 : i32 loc(#loc)
    %16 = tt.make_tensor_ptr %arg1, [%c4096_i64, %c4096_i64], [%c4096_i64, %c1_i64], [%c0_i32, %15] {order = array<i32: 1, 0>} : <tensor<32x256xf16, #blocked2>, 1> loc(#loc)
    tt.prefetch %16 {cache = 1 : i32, evict = 1 : i32, isVolatile = false} : !tt.ptr<tensor<32x256xf16, #blocked2>, 1> loc(#loc)
    %17 = tt.advance %16, [%c32_i32, %c0_i32] : <tensor<32x256xf16, #blocked2>, 1> loc(#loc)
    tt.prefetch %17 {cache = 1 : i32, evict = 1 : i32, isVolatile = false} : !tt.ptr<tensor<32x256xf16, #blocked2>, 1> loc(#loc)
    %18 = tt.advance %17, [%c32_i32, %c0_i32] : <tensor<32x256xf16, #blocked2>, 1> loc(#loc)
    tt.prefetch %18 {cache = 1 : i32, evict = 1 : i32, isVolatile = false} : !tt.ptr<tensor<32x256xf16, #blocked2>, 1> loc(#loc)
    %19 = tt.advance %18, [%c32_i32, %c0_i32] : <tensor<32x256xf16, #blocked2>, 1> loc(#loc)
    %20 = tt.make_tensor_ptr %arg1, [%c4096_i64, %c4096_i64], [%c4096_i64, %c1_i64], [%c0_i32, %15] {order = array<i32: 1, 0>} : <tensor<32x256xf16, #triton_gpu.dot_op<{opIdx = 1, parent = #blocked}>>, 1> loc(#loc)
    %21:5 = scf.for %arg6 = %c0_i32 to %c4096_i32 step %c32_i32 iter_args(%arg7 = %cst, %arg8 = %14, %arg9 = %20, %arg10 = %13, %arg11 = %19) -> (tensor<256x256xf32, #blocked>, !tt.ptr<tensor<256x32xf16, #triton_gpu.dot_op<{opIdx = 0, parent = #blocked}>>, 1>, !tt.ptr<tensor<32x256xf16, #triton_gpu.dot_op<{opIdx = 1, parent = #blocked}>>, 1>, !tt.ptr<tensor<256x32xf16, #blocked1>, 1>, !tt.ptr<tensor<32x256xf16, #blocked2>, 1>)  : i32 {
      gpu.barrier loc(#loc)
      %23 = tt.load %arg8 {boundaryCheck = array<i32: 0, 1>, cache = 1 : i32, evict = 1 : i32, isVolatile = false} : !tt.ptr<tensor<256x32xf16, #triton_gpu.dot_op<{opIdx = 0, parent = #blocked}>>, 1> -> tensor<256x32xf16, #triton_gpu.dot_op<{opIdx = 0, parent = #blocked}>> loc(#loc)
      %24 = tt.load %arg9 {boundaryCheck = array<i32: 0, 1>, cache = 1 : i32, evict = 1 : i32, isVolatile = false} : !tt.ptr<tensor<32x256xf16, #triton_gpu.dot_op<{opIdx = 1, parent = #blocked}>>, 1> -> tensor<32x256xf16, #triton_gpu.dot_op<{opIdx = 1, parent = #blocked}>> loc(#loc)
      %25 = tt.dot %23, %24, %arg7 {allowTF32 = true, maxNumImpreciseAcc = 0 : i32} : tensor<256x32xf16, #triton_gpu.dot_op<{opIdx = 0, parent = #blocked}>> * tensor<32x256xf16, #triton_gpu.dot_op<{opIdx = 1, parent = #blocked}>> -> tensor<256x256xf32, #blocked> loc(#loc)
      tt.prefetch %arg10 {cache = 1 : i32, evict = 1 : i32, isVolatile = false} : !tt.ptr<tensor<256x32xf16, #blocked1>, 1> loc(#loc)
      %26 = tt.advance %arg10, [%c0_i32, %c32_i32] : <tensor<256x32xf16, #blocked1>, 1> loc(#loc)
      %27 = tt.advance %arg8, [%c0_i32, %c32_i32] : <tensor<256x32xf16, #triton_gpu.dot_op<{opIdx = 0, parent = #blocked}>>, 1> loc(#loc)
      tt.prefetch %arg11 {cache = 1 : i32, evict = 1 : i32, isVolatile = false} : !tt.ptr<tensor<32x256xf16, #blocked2>, 1> loc(#loc)
      %28 = tt.advance %arg11, [%c32_i32, %c0_i32] : <tensor<32x256xf16, #blocked2>, 1> loc(#loc)
      %29 = tt.advance %arg9, [%c32_i32, %c0_i32] : <tensor<32x256xf16, #triton_gpu.dot_op<{opIdx = 1, parent = #blocked}>>, 1> loc(#loc)
      scf.yield %25, %27, %29, %26, %28 : tensor<256x256xf32, #blocked>, !tt.ptr<tensor<256x32xf16, #triton_gpu.dot_op<{opIdx = 0, parent = #blocked}>>, 1>, !tt.ptr<tensor<32x256xf16, #triton_gpu.dot_op<{opIdx = 1, parent = #blocked}>>, 1>, !tt.ptr<tensor<256x32xf16, #blocked1>, 1>, !tt.ptr<tensor<32x256xf16, #blocked2>, 1> loc(#loc)
    } loc(#loc)
    %22 = tt.make_tensor_ptr %arg2, [%c4096_i64, %c4096_i64], [%c4096_i64, %c1_i64], [%9, %15] {order = array<i32: 1, 0>} : <tensor<256x256xf32, #blocked>, 1> loc(#loc)
    tt.store %22, %21#0 {boundaryCheck = array<i32: 0, 1>, cache = 1 : i32, evict = 1 : i32} : !tt.ptr<tensor<256x256xf32, #blocked>, 1>, tensor<256x256xf32, #blocked> loc(#loc)
    tt.return loc(#loc)
  } loc(#loc)
} loc(#loc)


// -----// IR Dump Before TritonGPUMatchTargetSize (tritongpu-match-target-size) ('builtin.module' operation) //----- //
#loc = loc(unknown)
#warp = #triton_gpu.warp<{sizePerThread = [32, 64], threadsPerWarp = [1, 1], order = [1, 0]}>
#warp1 = #triton_gpu.warp<{sizePerThread = [8, 32], threadsPerWarp = [1, 1], order = [1, 0]}>
module attributes {"triton_gpu.compute-capability" = 90 : i32, "triton_gpu.num-ctas" = 1 : i32, "triton_gpu.num-warps" = 32 : i32, "triton_gpu.threads-per-warp" = 1 : i32} {
  tt.func public @matmul_kernel_with_block_pointers_0d1d2d3d4d5d(%arg0: !tt.ptr<f16, 1> {tt.divisibility = 16 : i32} loc(unknown), %arg1: !tt.ptr<f16, 1> {tt.divisibility = 16 : i32} loc(unknown), %arg2: !tt.ptr<f32, 1> {tt.divisibility = 16 : i32} loc(unknown), %arg3: i32 {tt.divisibility = 16 : i32} loc(unknown), %arg4: i32 {tt.divisibility = 16 : i32} loc(unknown), %arg5: i32 {tt.divisibility = 16 : i32} loc(unknown)) attributes {noinline = false} {
    %0 = gpu.subgroup_id : index loc(#loc)
    %1 = arith.index_cast %0 : index to i32 loc(#loc)
    %c64_i32 = arith.constant 64 : i32 loc(#loc)
    %c16_i32 = arith.constant 16 : i32 loc(#loc)
    %c4096_i32 = arith.constant 4096 : i32 loc(#loc)
    %cst = arith.constant dense<0.000000e+00> : tensor<32x64xf32, #warp> loc(#loc)
    %c32_i32 = arith.constant 32 : i32 loc(#loc)
    %c0_i32 = arith.constant 0 : i32 loc(#loc)
    %c1_i64 = arith.constant 1 : i64 loc(#loc)
    %c4096_i64 = arith.constant 4096 : i64 loc(#loc)
    %c256_i32 = arith.constant 256 : i32 loc(#loc)
    %c4_i32 = arith.constant 4 : i32 loc(#loc)
    %2 = tt.get_program_id x : i32 loc(#loc)
    %3 = arith.divsi %2, %c64_i32 : i32 loc(#loc)
    %4 = arith.muli %3, %c4_i32 : i32 loc(#loc)
    %5 = arith.subi %c16_i32, %4 : i32 loc(#loc)
    %6 = arith.minsi %5, %c4_i32 : i32 loc(#loc)
    %7 = arith.remsi %2, %6 : i32 loc(#loc)
    %8 = arith.addi %4, %7 : i32 loc(#loc)
    %9 = arith.remsi %2, %c64_i32 : i32 loc(#loc)
    %10 = arith.divsi %9, %6 : i32 loc(#loc)
    %11 = arith.muli %8, %c256_i32 : i32 loc(#loc)
    %c8_i32 = arith.constant 8 : i32 loc(#loc)
    %12 = arith.muli %1, %c8_i32 : i32 loc(#loc)
    %13 = arith.addi %12, %11 : i32 loc(#loc)
    %14 = tt.make_tensor_ptr %arg0, [%c4096_i64, %c4096_i64], [%c4096_i64, %c1_i64], [%13, %c0_i32] {order = array<i32: 1, 0>} : <tensor<8x32xf16, #warp1>, 1> loc(#loc)
    tt.prefetch %14 {cache = 1 : i32, evict = 1 : i32, isVolatile = false} : !tt.ptr<tensor<8x32xf16, #warp1>, 1> loc(#loc)
    %15 = tt.advance %14, [%c0_i32, %c32_i32] : <tensor<8x32xf16, #warp1>, 1> loc(#loc)
    tt.prefetch %15 {cache = 1 : i32, evict = 1 : i32, isVolatile = false} : !tt.ptr<tensor<8x32xf16, #warp1>, 1> loc(#loc)
    %16 = tt.advance %15, [%c0_i32, %c32_i32] : <tensor<8x32xf16, #warp1>, 1> loc(#loc)
    tt.prefetch %16 {cache = 1 : i32, evict = 1 : i32, isVolatile = false} : !tt.ptr<tensor<8x32xf16, #warp1>, 1> loc(#loc)
    %17 = tt.advance %16, [%c0_i32, %c32_i32] : <tensor<8x32xf16, #warp1>, 1> loc(#loc)
    %c4_i32_0 = arith.constant 4 : i32 loc(#loc)
    %18 = arith.divsi %1, %c4_i32_0 : i32 loc(#loc)
    %c8_i32_1 = arith.constant 8 : i32 loc(#loc)
    %19 = arith.remsi %18, %c8_i32_1 : i32 loc(#loc)
    %c32_i32_2 = arith.constant 32 : i32 loc(#loc)
    %20 = arith.muli %19, %c32_i32_2 : i32 loc(#loc)
    %21 = arith.addi %20, %11 : i32 loc(#loc)
    %c4_i32_3 = arith.constant 4 : i32 loc(#loc)
    %22 = arith.remsi %1, %c4_i32_3 : i32 loc(#loc)
    %23 = tt.make_tensor_ptr %arg0, [%c4096_i64, %c4096_i64], [%c4096_i64, %c1_i64], [%21, %c0_i32] {order = array<i32: 1, 0>} : <tensor<32x32xf16, #triton_gpu.dot_op<{opIdx = 0, parent = #warp}>>, 1> loc(#loc)
    %24 = arith.muli %10, %c256_i32 : i32 loc(#loc)
    %c8_i32_4 = arith.constant 8 : i32 loc(#loc)
    %25 = arith.divsi %1, %c8_i32_4 : i32 loc(#loc)
    %c4_i32_5 = arith.constant 4 : i32 loc(#loc)
    %26 = arith.remsi %25, %c4_i32_5 : i32 loc(#loc)
    %c8_i32_6 = arith.constant 8 : i32 loc(#loc)
    %27 = arith.muli %26, %c8_i32_6 : i32 loc(#loc)
    %28 = arith.addi %27, %c0_i32 : i32 loc(#loc)
    %c8_i32_7 = arith.constant 8 : i32 loc(#loc)
    %29 = arith.remsi %1, %c8_i32_7 : i32 loc(#loc)
    %c8_i32_8 = arith.constant 8 : i32 loc(#loc)
    %30 = arith.remsi %29, %c8_i32_8 : i32 loc(#loc)
    %c32_i32_9 = arith.constant 32 : i32 loc(#loc)
    %31 = arith.muli %30, %c32_i32_9 : i32 loc(#loc)
    %32 = arith.addi %31, %24 : i32 loc(#loc)
    %33 = tt.make_tensor_ptr %arg1, [%c4096_i64, %c4096_i64], [%c4096_i64, %c1_i64], [%28, %32] {order = array<i32: 1, 0>} : <tensor<8x32xf16, #warp1>, 1> loc(#loc)
    tt.prefetch %33 {cache = 1 : i32, evict = 1 : i32, isVolatile = false} : !tt.ptr<tensor<8x32xf16, #warp1>, 1> loc(#loc)
    %34 = tt.advance %33, [%c32_i32, %c0_i32] : <tensor<8x32xf16, #warp1>, 1> loc(#loc)
    tt.prefetch %34 {cache = 1 : i32, evict = 1 : i32, isVolatile = false} : !tt.ptr<tensor<8x32xf16, #warp1>, 1> loc(#loc)
    %35 = tt.advance %34, [%c32_i32, %c0_i32] : <tensor<8x32xf16, #warp1>, 1> loc(#loc)
    tt.prefetch %35 {cache = 1 : i32, evict = 1 : i32, isVolatile = false} : !tt.ptr<tensor<8x32xf16, #warp1>, 1> loc(#loc)
    %36 = tt.advance %35, [%c32_i32, %c0_i32] : <tensor<8x32xf16, #warp1>, 1> loc(#loc)
    %c4_i32_10 = arith.constant 4 : i32 loc(#loc)
    %37 = arith.divsi %1, %c4_i32_10 : i32 loc(#loc)
    %c4_i32_11 = arith.constant 4 : i32 loc(#loc)
    %38 = arith.remsi %1, %c4_i32_11 : i32 loc(#loc)
    %c4_i32_12 = arith.constant 4 : i32 loc(#loc)
    %39 = arith.remsi %38, %c4_i32_12 : i32 loc(#loc)
    %c64_i32_13 = arith.constant 64 : i32 loc(#loc)
    %40 = arith.muli %39, %c64_i32_13 : i32 loc(#loc)
    %41 = arith.addi %40, %24 : i32 loc(#loc)
    %42 = tt.make_tensor_ptr %arg1, [%c4096_i64, %c4096_i64], [%c4096_i64, %c1_i64], [%c0_i32, %41] {order = array<i32: 1, 0>} : <tensor<32x64xf16, #triton_gpu.dot_op<{opIdx = 1, parent = #warp}>>, 1> loc(#loc)
    %43:5 = scf.for %arg6 = %c0_i32 to %c4096_i32 step %c32_i32 iter_args(%arg7 = %cst, %arg8 = %23, %arg9 = %42, %arg10 = %17, %arg11 = %36) -> (tensor<32x64xf32, #warp>, !tt.ptr<tensor<32x32xf16, #triton_gpu.dot_op<{opIdx = 0, parent = #warp}>>, 1>, !tt.ptr<tensor<32x64xf16, #triton_gpu.dot_op<{opIdx = 1, parent = #warp}>>, 1>, !tt.ptr<tensor<8x32xf16, #warp1>, 1>, !tt.ptr<tensor<8x32xf16, #warp1>, 1>)  : i32 {
      gpu.barrier loc(#loc)
      %53 = tt.load %arg8 {boundaryCheck = array<i32: 0, 1>, cache = 1 : i32, evict = 1 : i32, isVolatile = false} : !tt.ptr<tensor<32x32xf16, #triton_gpu.dot_op<{opIdx = 0, parent = #warp}>>, 1> -> tensor<32x32xf16, #triton_gpu.dot_op<{opIdx = 0, parent = #warp}>> loc(#loc)
      %54 = tt.load %arg9 {boundaryCheck = array<i32: 0, 1>, cache = 1 : i32, evict = 1 : i32, isVolatile = false} : !tt.ptr<tensor<32x64xf16, #triton_gpu.dot_op<{opIdx = 1, parent = #warp}>>, 1> -> tensor<32x64xf16, #triton_gpu.dot_op<{opIdx = 1, parent = #warp}>> loc(#loc)
      %55 = tt.dot %53, %54, %arg7 {allowTF32 = true, maxNumImpreciseAcc = 0 : i32} : tensor<32x32xf16, #triton_gpu.dot_op<{opIdx = 0, parent = #warp}>> * tensor<32x64xf16, #triton_gpu.dot_op<{opIdx = 1, parent = #warp}>> -> tensor<32x64xf32, #warp> loc(#loc)
      tt.prefetch %arg10 {cache = 1 : i32, evict = 1 : i32, isVolatile = false} : !tt.ptr<tensor<8x32xf16, #warp1>, 1> loc(#loc)
      %56 = tt.advance %arg10, [%c0_i32, %c32_i32] : <tensor<8x32xf16, #warp1>, 1> loc(#loc)
      %57 = tt.advance %arg8, [%c0_i32, %c32_i32] : <tensor<32x32xf16, #triton_gpu.dot_op<{opIdx = 0, parent = #warp}>>, 1> loc(#loc)
      tt.prefetch %arg11 {cache = 1 : i32, evict = 1 : i32, isVolatile = false} : !tt.ptr<tensor<8x32xf16, #warp1>, 1> loc(#loc)
      %58 = tt.advance %arg11, [%c32_i32, %c0_i32] : <tensor<8x32xf16, #warp1>, 1> loc(#loc)
      %59 = tt.advance %arg9, [%c32_i32, %c0_i32] : <tensor<32x64xf16, #triton_gpu.dot_op<{opIdx = 1, parent = #warp}>>, 1> loc(#loc)
      scf.yield %55, %57, %59, %56, %58 : tensor<32x64xf32, #warp>, !tt.ptr<tensor<32x32xf16, #triton_gpu.dot_op<{opIdx = 0, parent = #warp}>>, 1>, !tt.ptr<tensor<32x64xf16, #triton_gpu.dot_op<{opIdx = 1, parent = #warp}>>, 1>, !tt.ptr<tensor<8x32xf16, #warp1>, 1>, !tt.ptr<tensor<8x32xf16, #warp1>, 1> loc(#loc)
    } loc(#loc)
    %c4_i32_14 = arith.constant 4 : i32 loc(#loc)
    %44 = arith.divsi %1, %c4_i32_14 : i32 loc(#loc)
    %c8_i32_15 = arith.constant 8 : i32 loc(#loc)
    %45 = arith.remsi %44, %c8_i32_15 : i32 loc(#loc)
    %c32_i32_16 = arith.constant 32 : i32 loc(#loc)
    %46 = arith.muli %45, %c32_i32_16 : i32 loc(#loc)
    %47 = arith.addi %46, %11 : i32 loc(#loc)
    %c4_i32_17 = arith.constant 4 : i32 loc(#loc)
    %48 = arith.remsi %1, %c4_i32_17 : i32 loc(#loc)
    %c4_i32_18 = arith.constant 4 : i32 loc(#loc)
    %49 = arith.remsi %48, %c4_i32_18 : i32 loc(#loc)
    %c64_i32_19 = arith.constant 64 : i32 loc(#loc)
    %50 = arith.muli %49, %c64_i32_19 : i32 loc(#loc)
    %51 = arith.addi %50, %24 : i32 loc(#loc)
    %52 = tt.make_tensor_ptr %arg2, [%c4096_i64, %c4096_i64], [%c4096_i64, %c1_i64], [%47, %51] {order = array<i32: 1, 0>} : <tensor<32x64xf32, #warp>, 1> loc(#loc)
    tt.store %52, %43#0 {boundaryCheck = array<i32: 0, 1>, cache = 1 : i32, evict = 1 : i32} : !tt.ptr<tensor<32x64xf32, #warp>, 1>, tensor<32x64xf32, #warp> loc(#loc)
    tt.return loc(#loc)
  } loc(#loc)
} loc(#loc)


module attributes {"triton_gpu.compute-capability" = 90 : i32, "triton_gpu.num-ctas" = 1 : i32, "triton_gpu.num-warps" = 32 : i32, "triton_gpu.threads-per-warp" = 1 : i32} {
  tt.func public @matmul_kernel_with_block_pointers_0d1d2d3d4d5d(%arg0: !tt.ptr<f16, 1> {tt.divisibility = 16 : i32}, %arg1: !tt.ptr<f16, 1> {tt.divisibility = 16 : i32}, %arg2: !tt.ptr<f32, 1> {tt.divisibility = 16 : i32}, %arg3: i32 {tt.divisibility = 16 : i32}, %arg4: i32 {tt.divisibility = 16 : i32}, %arg5: i32 {tt.divisibility = 16 : i32}) attributes {noinline = false} {
    %0 = gpu.subgroup_id : index
    %1 = arith.index_cast %0 : index to i32
    %c64_i32 = arith.constant 64 : i32
    %c16_i32 = arith.constant 16 : i32
    %c4096_i32 = arith.constant 4096 : i32
    %cst = arith.constant dense<0.000000e+00> : tensor<8x16xf32>
    %cst_0 = arith.constant dense<0.000000e+00> : tensor<8x16xf32>
    %cst_1 = arith.constant dense<0.000000e+00> : tensor<8x16xf32>
    %cst_2 = arith.constant dense<0.000000e+00> : tensor<8x16xf32>
    %cst_3 = arith.constant dense<0.000000e+00> : tensor<8x16xf32>
    %cst_4 = arith.constant dense<0.000000e+00> : tensor<8x16xf32>
    %cst_5 = arith.constant dense<0.000000e+00> : tensor<8x16xf32>
    %cst_6 = arith.constant dense<0.000000e+00> : tensor<8x16xf32>
    %cst_7 = arith.constant dense<0.000000e+00> : tensor<8x16xf32>
    %cst_8 = arith.constant dense<0.000000e+00> : tensor<8x16xf32>
    %cst_9 = arith.constant dense<0.000000e+00> : tensor<8x16xf32>
    %cst_10 = arith.constant dense<0.000000e+00> : tensor<8x16xf32>
    %cst_11 = arith.constant dense<0.000000e+00> : tensor<8x16xf32>
    %cst_12 = arith.constant dense<0.000000e+00> : tensor<8x16xf32>
    %cst_13 = arith.constant dense<0.000000e+00> : tensor<8x16xf32>
    %cst_14 = arith.constant dense<0.000000e+00> : tensor<8x16xf32>
    %2 = tt.glue %cst, %cst_0, %cst_1, %cst_2, %cst_3, %cst_4, %cst_5, %cst_6, %cst_7, %cst_8, %cst_9, %cst_10, %cst_11, %cst_12, %cst_13, %cst_14 : tensor<8x16xf32>, tensor<8x16xf32>, tensor<8x16xf32>, tensor<8x16xf32>, tensor<8x16xf32>, tensor<8x16xf32>, tensor<8x16xf32>, tensor<8x16xf32>, tensor<8x16xf32>, tensor<8x16xf32>, tensor<8x16xf32>, tensor<8x16xf32>, tensor<8x16xf32>, tensor<8x16xf32>, tensor<8x16xf32>, tensor<8x16xf32> -> tensor<32x64xf32, #triton_gpu.warp<{sizePerThread = [32, 64], threadsPerWarp = [1, 1], order = [1, 0]}>>
    %c32_i32 = arith.constant 32 : i32
    %c0_i32 = arith.constant 0 : i32
    %c1_i64 = arith.constant 1 : i64
    %c4096_i64 = arith.constant 4096 : i64
    %c256_i32 = arith.constant 256 : i32
    %c4_i32 = arith.constant 4 : i32
    %3 = tt.get_program_id x : i32
    %4 = arith.divsi %3, %c64_i32 : i32
    %5 = arith.muli %4, %c4_i32 : i32
    %6 = arith.subi %c16_i32, %5 : i32
    %7 = arith.minsi %6, %c4_i32 : i32
    %8 = arith.remsi %3, %7 : i32
    %9 = arith.addi %5, %8 : i32
    %10 = arith.remsi %3, %c64_i32 : i32
    %11 = arith.divsi %10, %7 : i32
    %12 = arith.muli %9, %c256_i32 : i32
    %c8_i32 = arith.constant 8 : i32
    %13 = arith.muli %1, %c8_i32 : i32
    %14 = arith.addi %13, %12 : i32
    %15 = tt.make_tensor_ptr %arg0, [%c4096_i64, %c4096_i64], [%c4096_i64, %c1_i64], [%14, %c0_i32] {order = array<i32: 1, 0>} : <tensor<8x16xf16>, 1>
    %c16_i32_15 = arith.constant 16 : i32
    %16 = arith.addi %c0_i32, %c16_i32_15 : i32
    %17 = tt.make_tensor_ptr %arg0, [%c4096_i64, %c4096_i64], [%c4096_i64, %c1_i64], [%14, %16] {order = array<i32: 1, 0>} : <tensor<8x16xf16>, 1>
    %18 = tt.glue %15, %17 : !tt.ptr<tensor<8x16xf16>, 1>, !tt.ptr<tensor<8x16xf16>, 1> -> !tt.ptr<tensor<8x32xf16, #triton_gpu.warp<{sizePerThread = [8, 32], threadsPerWarp = [1, 1], order = [1, 0]}>>, 1>
    %19 = tt.extract %18, 0 : !tt.ptr<tensor<8x32xf16, #triton_gpu.warp<{sizePerThread = [8, 32], threadsPerWarp = [1, 1], order = [1, 0]}>>, 1> -> !tt.ptr<tensor<8x16xf16>, 1>
    tt.prefetch %19 {cache = 1 : i32, evict = 1 : i32, isVolatile = false} : !tt.ptr<tensor<8x16xf16>, 1>
    %20 = tt.extract %18, 1 : !tt.ptr<tensor<8x32xf16, #triton_gpu.warp<{sizePerThread = [8, 32], threadsPerWarp = [1, 1], order = [1, 0]}>>, 1> -> !tt.ptr<tensor<8x16xf16>, 1>
    tt.prefetch %20 {cache = 1 : i32, evict = 1 : i32, isVolatile = false} : !tt.ptr<tensor<8x16xf16>, 1>
    %21 = tt.extract %18, 0 : !tt.ptr<tensor<8x32xf16, #triton_gpu.warp<{sizePerThread = [8, 32], threadsPerWarp = [1, 1], order = [1, 0]}>>, 1> -> !tt.ptr<tensor<8x16xf16>, 1>
    %22 = tt.advance %21, [%c0_i32, %c32_i32] : <tensor<8x16xf16>, 1>
    %23 = tt.extract %18, 1 : !tt.ptr<tensor<8x32xf16, #triton_gpu.warp<{sizePerThread = [8, 32], threadsPerWarp = [1, 1], order = [1, 0]}>>, 1> -> !tt.ptr<tensor<8x16xf16>, 1>
    %24 = tt.advance %23, [%c0_i32, %c32_i32] : <tensor<8x16xf16>, 1>
    %25 = tt.glue %22, %24 : !tt.ptr<tensor<8x16xf16>, 1>, !tt.ptr<tensor<8x16xf16>, 1> -> !tt.ptr<tensor<8x32xf16, #triton_gpu.warp<{sizePerThread = [8, 32], threadsPerWarp = [1, 1], order = [1, 0]}>>, 1>
    %26 = tt.extract %25, 0 : !tt.ptr<tensor<8x32xf16, #triton_gpu.warp<{sizePerThread = [8, 32], threadsPerWarp = [1, 1], order = [1, 0]}>>, 1> -> !tt.ptr<tensor<8x16xf16>, 1>
    tt.prefetch %26 {cache = 1 : i32, evict = 1 : i32, isVolatile = false} : !tt.ptr<tensor<8x16xf16>, 1>
    %27 = tt.extract %25, 1 : !tt.ptr<tensor<8x32xf16, #triton_gpu.warp<{sizePerThread = [8, 32], threadsPerWarp = [1, 1], order = [1, 0]}>>, 1> -> !tt.ptr<tensor<8x16xf16>, 1>
    tt.prefetch %27 {cache = 1 : i32, evict = 1 : i32, isVolatile = false} : !tt.ptr<tensor<8x16xf16>, 1>
    %28 = tt.extract %25, 0 : !tt.ptr<tensor<8x32xf16, #triton_gpu.warp<{sizePerThread = [8, 32], threadsPerWarp = [1, 1], order = [1, 0]}>>, 1> -> !tt.ptr<tensor<8x16xf16>, 1>
    %29 = tt.advance %28, [%c0_i32, %c32_i32] : <tensor<8x16xf16>, 1>
    %30 = tt.extract %25, 1 : !tt.ptr<tensor<8x32xf16, #triton_gpu.warp<{sizePerThread = [8, 32], threadsPerWarp = [1, 1], order = [1, 0]}>>, 1> -> !tt.ptr<tensor<8x16xf16>, 1>
    %31 = tt.advance %30, [%c0_i32, %c32_i32] : <tensor<8x16xf16>, 1>
    %32 = tt.glue %29, %31 : !tt.ptr<tensor<8x16xf16>, 1>, !tt.ptr<tensor<8x16xf16>, 1> -> !tt.ptr<tensor<8x32xf16, #triton_gpu.warp<{sizePerThread = [8, 32], threadsPerWarp = [1, 1], order = [1, 0]}>>, 1>
    %33 = tt.extract %32, 0 : !tt.ptr<tensor<8x32xf16, #triton_gpu.warp<{sizePerThread = [8, 32], threadsPerWarp = [1, 1], order = [1, 0]}>>, 1> -> !tt.ptr<tensor<8x16xf16>, 1>
    tt.prefetch %33 {cache = 1 : i32, evict = 1 : i32, isVolatile = false} : !tt.ptr<tensor<8x16xf16>, 1>
    %34 = tt.extract %32, 1 : !tt.ptr<tensor<8x32xf16, #triton_gpu.warp<{sizePerThread = [8, 32], threadsPerWarp = [1, 1], order = [1, 0]}>>, 1> -> !tt.ptr<tensor<8x16xf16>, 1>
    tt.prefetch %34 {cache = 1 : i32, evict = 1 : i32, isVolatile = false} : !tt.ptr<tensor<8x16xf16>, 1>
    %35 = tt.extract %32, 0 : !tt.ptr<tensor<8x32xf16, #triton_gpu.warp<{sizePerThread = [8, 32], threadsPerWarp = [1, 1], order = [1, 0]}>>, 1> -> !tt.ptr<tensor<8x16xf16>, 1>
    %36 = tt.advance %35, [%c0_i32, %c32_i32] : <tensor<8x16xf16>, 1>
    %37 = tt.extract %32, 1 : !tt.ptr<tensor<8x32xf16, #triton_gpu.warp<{sizePerThread = [8, 32], threadsPerWarp = [1, 1], order = [1, 0]}>>, 1> -> !tt.ptr<tensor<8x16xf16>, 1>
    %38 = tt.advance %37, [%c0_i32, %c32_i32] : <tensor<8x16xf16>, 1>
    %39 = tt.glue %36, %38 : !tt.ptr<tensor<8x16xf16>, 1>, !tt.ptr<tensor<8x16xf16>, 1> -> !tt.ptr<tensor<8x32xf16, #triton_gpu.warp<{sizePerThread = [8, 32], threadsPerWarp = [1, 1], order = [1, 0]}>>, 1>
    %c4_i32_16 = arith.constant 4 : i32
    %40 = arith.divsi %1, %c4_i32_16 : i32
    %c8_i32_17 = arith.constant 8 : i32
    %41 = arith.remsi %40, %c8_i32_17 : i32
    %c32_i32_18 = arith.constant 32 : i32
    %42 = arith.muli %41, %c32_i32_18 : i32
    %43 = arith.addi %42, %12 : i32
    %c4_i32_19 = arith.constant 4 : i32
    %44 = arith.remsi %1, %c4_i32_19 : i32
    %45 = tt.make_tensor_ptr %arg0, [%c4096_i64, %c4096_i64], [%c4096_i64, %c1_i64], [%43, %c0_i32] {order = array<i32: 1, 0>} : <tensor<32x32xf16>, 1>
    %46 = tt.glue %45 : !tt.ptr<tensor<32x32xf16>, 1> -> !tt.ptr<tensor<32x32xf16, #triton_gpu.dot_op<{opIdx = 0, parent = #triton_gpu.warp<{sizePerThread = [32, 64], threadsPerWarp = [1, 1], order = [1, 0]}>}>>, 1>
    %47 = arith.muli %11, %c256_i32 : i32
    %c8_i32_20 = arith.constant 8 : i32
    %48 = arith.divsi %1, %c8_i32_20 : i32
    %c4_i32_21 = arith.constant 4 : i32
    %49 = arith.remsi %48, %c4_i32_21 : i32
    %c8_i32_22 = arith.constant 8 : i32
    %50 = arith.muli %49, %c8_i32_22 : i32
    %51 = arith.addi %50, %c0_i32 : i32
    %c8_i32_23 = arith.constant 8 : i32
    %52 = arith.remsi %1, %c8_i32_23 : i32
    %c8_i32_24 = arith.constant 8 : i32
    %53 = arith.remsi %52, %c8_i32_24 : i32
    %c32_i32_25 = arith.constant 32 : i32
    %54 = arith.muli %53, %c32_i32_25 : i32
    %55 = arith.addi %54, %47 : i32
    %56 = tt.make_tensor_ptr %arg1, [%c4096_i64, %c4096_i64], [%c4096_i64, %c1_i64], [%51, %55] {order = array<i32: 1, 0>} : <tensor<8x16xf16>, 1>
    %c16_i32_26 = arith.constant 16 : i32
    %57 = arith.addi %55, %c16_i32_26 : i32
    %58 = tt.make_tensor_ptr %arg1, [%c4096_i64, %c4096_i64], [%c4096_i64, %c1_i64], [%51, %57] {order = array<i32: 1, 0>} : <tensor<8x16xf16>, 1>
    %59 = tt.glue %56, %58 : !tt.ptr<tensor<8x16xf16>, 1>, !tt.ptr<tensor<8x16xf16>, 1> -> !tt.ptr<tensor<8x32xf16, #triton_gpu.warp<{sizePerThread = [8, 32], threadsPerWarp = [1, 1], order = [1, 0]}>>, 1>
    %60 = tt.extract %59, 0 : !tt.ptr<tensor<8x32xf16, #triton_gpu.warp<{sizePerThread = [8, 32], threadsPerWarp = [1, 1], order = [1, 0]}>>, 1> -> !tt.ptr<tensor<8x16xf16>, 1>
    tt.prefetch %60 {cache = 1 : i32, evict = 1 : i32, isVolatile = false} : !tt.ptr<tensor<8x16xf16>, 1>
    %61 = tt.extract %59, 1 : !tt.ptr<tensor<8x32xf16, #triton_gpu.warp<{sizePerThread = [8, 32], threadsPerWarp = [1, 1], order = [1, 0]}>>, 1> -> !tt.ptr<tensor<8x16xf16>, 1>
    tt.prefetch %61 {cache = 1 : i32, evict = 1 : i32, isVolatile = false} : !tt.ptr<tensor<8x16xf16>, 1>
    %62 = tt.extract %59, 0 : !tt.ptr<tensor<8x32xf16, #triton_gpu.warp<{sizePerThread = [8, 32], threadsPerWarp = [1, 1], order = [1, 0]}>>, 1> -> !tt.ptr<tensor<8x16xf16>, 1>
    %63 = tt.advance %62, [%c32_i32, %c0_i32] : <tensor<8x16xf16>, 1>
    %64 = tt.extract %59, 1 : !tt.ptr<tensor<8x32xf16, #triton_gpu.warp<{sizePerThread = [8, 32], threadsPerWarp = [1, 1], order = [1, 0]}>>, 1> -> !tt.ptr<tensor<8x16xf16>, 1>
    %65 = tt.advance %64, [%c32_i32, %c0_i32] : <tensor<8x16xf16>, 1>
    %66 = tt.glue %63, %65 : !tt.ptr<tensor<8x16xf16>, 1>, !tt.ptr<tensor<8x16xf16>, 1> -> !tt.ptr<tensor<8x32xf16, #triton_gpu.warp<{sizePerThread = [8, 32], threadsPerWarp = [1, 1], order = [1, 0]}>>, 1>
    %67 = tt.extract %66, 0 : !tt.ptr<tensor<8x32xf16, #triton_gpu.warp<{sizePerThread = [8, 32], threadsPerWarp = [1, 1], order = [1, 0]}>>, 1> -> !tt.ptr<tensor<8x16xf16>, 1>
    tt.prefetch %67 {cache = 1 : i32, evict = 1 : i32, isVolatile = false} : !tt.ptr<tensor<8x16xf16>, 1>
    %68 = tt.extract %66, 1 : !tt.ptr<tensor<8x32xf16, #triton_gpu.warp<{sizePerThread = [8, 32], threadsPerWarp = [1, 1], order = [1, 0]}>>, 1> -> !tt.ptr<tensor<8x16xf16>, 1>
    tt.prefetch %68 {cache = 1 : i32, evict = 1 : i32, isVolatile = false} : !tt.ptr<tensor<8x16xf16>, 1>
    %69 = tt.extract %66, 0 : !tt.ptr<tensor<8x32xf16, #triton_gpu.warp<{sizePerThread = [8, 32], threadsPerWarp = [1, 1], order = [1, 0]}>>, 1> -> !tt.ptr<tensor<8x16xf16>, 1>
    %70 = tt.advance %69, [%c32_i32, %c0_i32] : <tensor<8x16xf16>, 1>
    %71 = tt.extract %66, 1 : !tt.ptr<tensor<8x32xf16, #triton_gpu.warp<{sizePerThread = [8, 32], threadsPerWarp = [1, 1], order = [1, 0]}>>, 1> -> !tt.ptr<tensor<8x16xf16>, 1>
    %72 = tt.advance %71, [%c32_i32, %c0_i32] : <tensor<8x16xf16>, 1>
    %73 = tt.glue %70, %72 : !tt.ptr<tensor<8x16xf16>, 1>, !tt.ptr<tensor<8x16xf16>, 1> -> !tt.ptr<tensor<8x32xf16, #triton_gpu.warp<{sizePerThread = [8, 32], threadsPerWarp = [1, 1], order = [1, 0]}>>, 1>
    %74 = tt.extract %73, 0 : !tt.ptr<tensor<8x32xf16, #triton_gpu.warp<{sizePerThread = [8, 32], threadsPerWarp = [1, 1], order = [1, 0]}>>, 1> -> !tt.ptr<tensor<8x16xf16>, 1>
    tt.prefetch %74 {cache = 1 : i32, evict = 1 : i32, isVolatile = false} : !tt.ptr<tensor<8x16xf16>, 1>
    %75 = tt.extract %73, 1 : !tt.ptr<tensor<8x32xf16, #triton_gpu.warp<{sizePerThread = [8, 32], threadsPerWarp = [1, 1], order = [1, 0]}>>, 1> -> !tt.ptr<tensor<8x16xf16>, 1>
    tt.prefetch %75 {cache = 1 : i32, evict = 1 : i32, isVolatile = false} : !tt.ptr<tensor<8x16xf16>, 1>
    %76 = tt.extract %73, 0 : !tt.ptr<tensor<8x32xf16, #triton_gpu.warp<{sizePerThread = [8, 32], threadsPerWarp = [1, 1], order = [1, 0]}>>, 1> -> !tt.ptr<tensor<8x16xf16>, 1>
    %77 = tt.advance %76, [%c32_i32, %c0_i32] : <tensor<8x16xf16>, 1>
    %78 = tt.extract %73, 1 : !tt.ptr<tensor<8x32xf16, #triton_gpu.warp<{sizePerThread = [8, 32], threadsPerWarp = [1, 1], order = [1, 0]}>>, 1> -> !tt.ptr<tensor<8x16xf16>, 1>
    %79 = tt.advance %78, [%c32_i32, %c0_i32] : <tensor<8x16xf16>, 1>
    %80 = tt.glue %77, %79 : !tt.ptr<tensor<8x16xf16>, 1>, !tt.ptr<tensor<8x16xf16>, 1> -> !tt.ptr<tensor<8x32xf16, #triton_gpu.warp<{sizePerThread = [8, 32], threadsPerWarp = [1, 1], order = [1, 0]}>>, 1>
    %c4_i32_27 = arith.constant 4 : i32
    %81 = arith.divsi %1, %c4_i32_27 : i32
    %c4_i32_28 = arith.constant 4 : i32
    %82 = arith.remsi %1, %c4_i32_28 : i32
    %c4_i32_29 = arith.constant 4 : i32
    %83 = arith.remsi %82, %c4_i32_29 : i32
    %c64_i32_30 = arith.constant 64 : i32
    %84 = arith.muli %83, %c64_i32_30 : i32
    %85 = arith.addi %84, %47 : i32
    %86 = tt.make_tensor_ptr %arg1, [%c4096_i64, %c4096_i64], [%c4096_i64, %c1_i64], [%c0_i32, %85] {order = array<i32: 1, 0>} : <tensor<32x32xf16>, 1>
    %c32_i32_31 = arith.constant 32 : i32
    %87 = arith.addi %85, %c32_i32_31 : i32
    %88 = tt.make_tensor_ptr %arg1, [%c4096_i64, %c4096_i64], [%c4096_i64, %c1_i64], [%c0_i32, %87] {order = array<i32: 1, 0>} : <tensor<32x32xf16>, 1>
    %89 = tt.glue %86, %88 : !tt.ptr<tensor<32x32xf16>, 1>, !tt.ptr<tensor<32x32xf16>, 1> -> !tt.ptr<tensor<32x64xf16, #triton_gpu.dot_op<{opIdx = 1, parent = #triton_gpu.warp<{sizePerThread = [32, 64], threadsPerWarp = [1, 1], order = [1, 0]}>}>>, 1>
    %90:5 = scf.for %arg6 = %c0_i32 to %c4096_i32 step %c32_i32 iter_args(%arg7 = %2, %arg8 = %46, %arg9 = %89, %arg10 = %39, %arg11 = %80) -> (tensor<32x64xf32, #triton_gpu.warp<{sizePerThread = [32, 64], threadsPerWarp = [1, 1], order = [1, 0]}>>, !tt.ptr<tensor<32x32xf16, #triton_gpu.dot_op<{opIdx = 0, parent = #triton_gpu.warp<{sizePerThread = [32, 64], threadsPerWarp = [1, 1], order = [1, 0]}>}>>, 1>, !tt.ptr<tensor<32x64xf16, #triton_gpu.dot_op<{opIdx = 1, parent = #triton_gpu.warp<{sizePerThread = [32, 64], threadsPerWarp = [1, 1], order = [1, 0]}>}>>, 1>, !tt.ptr<tensor<8x32xf16, #triton_gpu.warp<{sizePerThread = [8, 32], threadsPerWarp = [1, 1], order = [1, 0]}>>, 1>, !tt.ptr<tensor<8x32xf16, #triton_gpu.warp<{sizePerThread = [8, 32], threadsPerWarp = [1, 1], order = [1, 0]}>>, 1>)  : i32 {
      gpu.barrier
      %172 = tt.extract %arg8, 0 : !tt.ptr<tensor<32x32xf16, #triton_gpu.dot_op<{opIdx = 0, parent = #triton_gpu.warp<{sizePerThread = [32, 64], threadsPerWarp = [1, 1], order = [1, 0]}>}>>, 1> -> !tt.ptr<tensor<32x32xf16>, 1>
      %173 = tt.load %172 {DotIdx = 0 : i32, boundaryCheck = array<i32: 0, 1>, cache = 1 : i32, evict = 1 : i32, isVolatile = false} : !tt.ptr<tensor<32x32xf16>, 1> -> tensor<32x32xf16>
      %174 = tt.glue %173 : tensor<32x32xf16> -> tensor<32x32xf16, #triton_gpu.dot_op<{opIdx = 0, parent = #triton_gpu.warp<{sizePerThread = [32, 64], threadsPerWarp = [1, 1], order = [1, 0]}>}>>
      %175 = tt.extract %arg9, 0 : !tt.ptr<tensor<32x64xf16, #triton_gpu.dot_op<{opIdx = 1, parent = #triton_gpu.warp<{sizePerThread = [32, 64], threadsPerWarp = [1, 1], order = [1, 0]}>}>>, 1> -> !tt.ptr<tensor<32x32xf16>, 1>
      %176 = tt.load %175 {DotIdx = 1 : i32, boundaryCheck = array<i32: 0, 1>, cache = 1 : i32, evict = 1 : i32, isVolatile = false} : !tt.ptr<tensor<32x32xf16>, 1> -> tensor<32x32xf16>
      %177 = tt.extract %arg9, 1 : !tt.ptr<tensor<32x64xf16, #triton_gpu.dot_op<{opIdx = 1, parent = #triton_gpu.warp<{sizePerThread = [32, 64], threadsPerWarp = [1, 1], order = [1, 0]}>}>>, 1> -> !tt.ptr<tensor<32x32xf16>, 1>
      %178 = tt.load %177 {DotIdx = 1 : i32, boundaryCheck = array<i32: 0, 1>, cache = 1 : i32, evict = 1 : i32, isVolatile = false} : !tt.ptr<tensor<32x32xf16>, 1> -> tensor<32x32xf16>
      %179 = tt.glue %176, %178 : tensor<32x32xf16>, tensor<32x32xf16> -> tensor<32x64xf16, #triton_gpu.dot_op<{opIdx = 1, parent = #triton_gpu.warp<{sizePerThread = [32, 64], threadsPerWarp = [1, 1], order = [1, 0]}>}>>
      %180 = tt.extract %arg7, 0 : tensor<32x64xf32, #triton_gpu.warp<{sizePerThread = [32, 64], threadsPerWarp = [1, 1], order = [1, 0]}>> -> tensor<8x16xf32>
      %181 = tt.extract %180, 0 : tensor<8x16xf32> -> tensor<8x16xf32>
      %182 = tt.extract %174, 0 : tensor<32x32xf16, #triton_gpu.dot_op<{opIdx = 0, parent = #triton_gpu.warp<{sizePerThread = [32, 64], threadsPerWarp = [1, 1], order = [1, 0]}>}>> -> tensor<32x32xf16>
      %183 = tt.extract %182, 0 : tensor<32x32xf16> -> tensor<8x16xf16>
      %184 = tt.extract %179, 0 : tensor<32x64xf16, #triton_gpu.dot_op<{opIdx = 1, parent = #triton_gpu.warp<{sizePerThread = [32, 64], threadsPerWarp = [1, 1], order = [1, 0]}>}>> -> tensor<32x32xf16>
      %185 = tt.extract %184, 0 : tensor<32x32xf16> -> tensor<16x16xf16>
      %186 = tt.dot %183, %185, %181 {allowTF32 = true, maxNumImpreciseAcc = 0 : i32} : tensor<8x16xf16> * tensor<16x16xf16> -> tensor<8x16xf32>
      %187 = tt.extract %174, 0 : tensor<32x32xf16, #triton_gpu.dot_op<{opIdx = 0, parent = #triton_gpu.warp<{sizePerThread = [32, 64], threadsPerWarp = [1, 1], order = [1, 0]}>}>> -> tensor<32x32xf16>
      %188 = tt.extract %187, 4 : tensor<32x32xf16> -> tensor<8x16xf16>
      %189 = tt.extract %179, 0 : tensor<32x64xf16, #triton_gpu.dot_op<{opIdx = 1, parent = #triton_gpu.warp<{sizePerThread = [32, 64], threadsPerWarp = [1, 1], order = [1, 0]}>}>> -> tensor<32x32xf16>
      %190 = tt.extract %189, 1 : tensor<32x32xf16> -> tensor<16x16xf16>
      %191 = tt.dot %188, %190, %186 {allowTF32 = true, maxNumImpreciseAcc = 0 : i32} : tensor<8x16xf16> * tensor<16x16xf16> -> tensor<8x16xf32>
      %192 = tt.glue %191 : tensor<8x16xf32> -> tensor<8x16xf32>
      %193 = tt.extract %arg7, 1 : tensor<32x64xf32, #triton_gpu.warp<{sizePerThread = [32, 64], threadsPerWarp = [1, 1], order = [1, 0]}>> -> tensor<8x16xf32>
      %194 = tt.extract %193, 0 : tensor<8x16xf32> -> tensor<8x16xf32>
      %195 = tt.extract %174, 0 : tensor<32x32xf16, #triton_gpu.dot_op<{opIdx = 0, parent = #triton_gpu.warp<{sizePerThread = [32, 64], threadsPerWarp = [1, 1], order = [1, 0]}>}>> -> tensor<32x32xf16>
      %196 = tt.extract %195, 1 : tensor<32x32xf16> -> tensor<8x16xf16>
      %197 = tt.extract %179, 0 : tensor<32x64xf16, #triton_gpu.dot_op<{opIdx = 1, parent = #triton_gpu.warp<{sizePerThread = [32, 64], threadsPerWarp = [1, 1], order = [1, 0]}>}>> -> tensor<32x32xf16>
      %198 = tt.extract %197, 0 : tensor<32x32xf16> -> tensor<16x16xf16>
      %199 = tt.dot %196, %198, %194 {allowTF32 = true, maxNumImpreciseAcc = 0 : i32} : tensor<8x16xf16> * tensor<16x16xf16> -> tensor<8x16xf32>
      %200 = tt.extract %174, 0 : tensor<32x32xf16, #triton_gpu.dot_op<{opIdx = 0, parent = #triton_gpu.warp<{sizePerThread = [32, 64], threadsPerWarp = [1, 1], order = [1, 0]}>}>> -> tensor<32x32xf16>
      %201 = tt.extract %200, 5 : tensor<32x32xf16> -> tensor<8x16xf16>
      %202 = tt.extract %179, 0 : tensor<32x64xf16, #triton_gpu.dot_op<{opIdx = 1, parent = #triton_gpu.warp<{sizePerThread = [32, 64], threadsPerWarp = [1, 1], order = [1, 0]}>}>> -> tensor<32x32xf16>
      %203 = tt.extract %202, 1 : tensor<32x32xf16> -> tensor<16x16xf16>
      %204 = tt.dot %201, %203, %199 {allowTF32 = true, maxNumImpreciseAcc = 0 : i32} : tensor<8x16xf16> * tensor<16x16xf16> -> tensor<8x16xf32>
      %205 = tt.glue %204 : tensor<8x16xf32> -> tensor<8x16xf32>
      %206 = tt.extract %arg7, 2 : tensor<32x64xf32, #triton_gpu.warp<{sizePerThread = [32, 64], threadsPerWarp = [1, 1], order = [1, 0]}>> -> tensor<8x16xf32>
      %207 = tt.extract %206, 0 : tensor<8x16xf32> -> tensor<8x16xf32>
      %208 = tt.extract %174, 0 : tensor<32x32xf16, #triton_gpu.dot_op<{opIdx = 0, parent = #triton_gpu.warp<{sizePerThread = [32, 64], threadsPerWarp = [1, 1], order = [1, 0]}>}>> -> tensor<32x32xf16>
      %209 = tt.extract %208, 2 : tensor<32x32xf16> -> tensor<8x16xf16>
      %210 = tt.extract %179, 0 : tensor<32x64xf16, #triton_gpu.dot_op<{opIdx = 1, parent = #triton_gpu.warp<{sizePerThread = [32, 64], threadsPerWarp = [1, 1], order = [1, 0]}>}>> -> tensor<32x32xf16>
      %211 = tt.extract %210, 0 : tensor<32x32xf16> -> tensor<16x16xf16>
      %212 = tt.dot %209, %211, %207 {allowTF32 = true, maxNumImpreciseAcc = 0 : i32} : tensor<8x16xf16> * tensor<16x16xf16> -> tensor<8x16xf32>
      %213 = tt.extract %174, 0 : tensor<32x32xf16, #triton_gpu.dot_op<{opIdx = 0, parent = #triton_gpu.warp<{sizePerThread = [32, 64], threadsPerWarp = [1, 1], order = [1, 0]}>}>> -> tensor<32x32xf16>
      %214 = tt.extract %213, 6 : tensor<32x32xf16> -> tensor<8x16xf16>
      %215 = tt.extract %179, 0 : tensor<32x64xf16, #triton_gpu.dot_op<{opIdx = 1, parent = #triton_gpu.warp<{sizePerThread = [32, 64], threadsPerWarp = [1, 1], order = [1, 0]}>}>> -> tensor<32x32xf16>
      %216 = tt.extract %215, 1 : tensor<32x32xf16> -> tensor<16x16xf16>
      %217 = tt.dot %214, %216, %212 {allowTF32 = true, maxNumImpreciseAcc = 0 : i32} : tensor<8x16xf16> * tensor<16x16xf16> -> tensor<8x16xf32>
      %218 = tt.glue %217 : tensor<8x16xf32> -> tensor<8x16xf32>
      %219 = tt.extract %arg7, 3 : tensor<32x64xf32, #triton_gpu.warp<{sizePerThread = [32, 64], threadsPerWarp = [1, 1], order = [1, 0]}>> -> tensor<8x16xf32>
      %220 = tt.extract %219, 0 : tensor<8x16xf32> -> tensor<8x16xf32>
      %221 = tt.extract %174, 0 : tensor<32x32xf16, #triton_gpu.dot_op<{opIdx = 0, parent = #triton_gpu.warp<{sizePerThread = [32, 64], threadsPerWarp = [1, 1], order = [1, 0]}>}>> -> tensor<32x32xf16>
      %222 = tt.extract %221, 3 : tensor<32x32xf16> -> tensor<8x16xf16>
      %223 = tt.extract %179, 0 : tensor<32x64xf16, #triton_gpu.dot_op<{opIdx = 1, parent = #triton_gpu.warp<{sizePerThread = [32, 64], threadsPerWarp = [1, 1], order = [1, 0]}>}>> -> tensor<32x32xf16>
      %224 = tt.extract %223, 0 : tensor<32x32xf16> -> tensor<16x16xf16>
      %225 = tt.dot %222, %224, %220 {allowTF32 = true, maxNumImpreciseAcc = 0 : i32} : tensor<8x16xf16> * tensor<16x16xf16> -> tensor<8x16xf32>
      %226 = tt.extract %174, 0 : tensor<32x32xf16, #triton_gpu.dot_op<{opIdx = 0, parent = #triton_gpu.warp<{sizePerThread = [32, 64], threadsPerWarp = [1, 1], order = [1, 0]}>}>> -> tensor<32x32xf16>
      %227 = tt.extract %226, 7 : tensor<32x32xf16> -> tensor<8x16xf16>
      %228 = tt.extract %179, 0 : tensor<32x64xf16, #triton_gpu.dot_op<{opIdx = 1, parent = #triton_gpu.warp<{sizePerThread = [32, 64], threadsPerWarp = [1, 1], order = [1, 0]}>}>> -> tensor<32x32xf16>
      %229 = tt.extract %228, 1 : tensor<32x32xf16> -> tensor<16x16xf16>
      %230 = tt.dot %227, %229, %225 {allowTF32 = true, maxNumImpreciseAcc = 0 : i32} : tensor<8x16xf16> * tensor<16x16xf16> -> tensor<8x16xf32>
      %231 = tt.glue %230 : tensor<8x16xf32> -> tensor<8x16xf32>
      %232 = tt.extract %arg7, 4 : tensor<32x64xf32, #triton_gpu.warp<{sizePerThread = [32, 64], threadsPerWarp = [1, 1], order = [1, 0]}>> -> tensor<8x16xf32>
      %233 = tt.extract %232, 0 : tensor<8x16xf32> -> tensor<8x16xf32>
      %234 = tt.extract %174, 0 : tensor<32x32xf16, #triton_gpu.dot_op<{opIdx = 0, parent = #triton_gpu.warp<{sizePerThread = [32, 64], threadsPerWarp = [1, 1], order = [1, 0]}>}>> -> tensor<32x32xf16>
      %235 = tt.extract %234, 0 : tensor<32x32xf16> -> tensor<8x16xf16>
      %236 = tt.extract %179, 0 : tensor<32x64xf16, #triton_gpu.dot_op<{opIdx = 1, parent = #triton_gpu.warp<{sizePerThread = [32, 64], threadsPerWarp = [1, 1], order = [1, 0]}>}>> -> tensor<32x32xf16>
      %237 = tt.extract %236, 2 : tensor<32x32xf16> -> tensor<16x16xf16>
      %238 = tt.dot %235, %237, %233 {allowTF32 = true, maxNumImpreciseAcc = 0 : i32} : tensor<8x16xf16> * tensor<16x16xf16> -> tensor<8x16xf32>
      %239 = tt.extract %174, 0 : tensor<32x32xf16, #triton_gpu.dot_op<{opIdx = 0, parent = #triton_gpu.warp<{sizePerThread = [32, 64], threadsPerWarp = [1, 1], order = [1, 0]}>}>> -> tensor<32x32xf16>
      %240 = tt.extract %239, 4 : tensor<32x32xf16> -> tensor<8x16xf16>
      %241 = tt.extract %179, 0 : tensor<32x64xf16, #triton_gpu.dot_op<{opIdx = 1, parent = #triton_gpu.warp<{sizePerThread = [32, 64], threadsPerWarp = [1, 1], order = [1, 0]}>}>> -> tensor<32x32xf16>
      %242 = tt.extract %241, 3 : tensor<32x32xf16> -> tensor<16x16xf16>
      %243 = tt.dot %240, %242, %238 {allowTF32 = true, maxNumImpreciseAcc = 0 : i32} : tensor<8x16xf16> * tensor<16x16xf16> -> tensor<8x16xf32>
      %244 = tt.glue %243 : tensor<8x16xf32> -> tensor<8x16xf32>
      %245 = tt.extract %arg7, 5 : tensor<32x64xf32, #triton_gpu.warp<{sizePerThread = [32, 64], threadsPerWarp = [1, 1], order = [1, 0]}>> -> tensor<8x16xf32>
      %246 = tt.extract %245, 0 : tensor<8x16xf32> -> tensor<8x16xf32>
      %247 = tt.extract %174, 0 : tensor<32x32xf16, #triton_gpu.dot_op<{opIdx = 0, parent = #triton_gpu.warp<{sizePerThread = [32, 64], threadsPerWarp = [1, 1], order = [1, 0]}>}>> -> tensor<32x32xf16>
      %248 = tt.extract %247, 1 : tensor<32x32xf16> -> tensor<8x16xf16>
      %249 = tt.extract %179, 0 : tensor<32x64xf16, #triton_gpu.dot_op<{opIdx = 1, parent = #triton_gpu.warp<{sizePerThread = [32, 64], threadsPerWarp = [1, 1], order = [1, 0]}>}>> -> tensor<32x32xf16>
      %250 = tt.extract %249, 2 : tensor<32x32xf16> -> tensor<16x16xf16>
      %251 = tt.dot %248, %250, %246 {allowTF32 = true, maxNumImpreciseAcc = 0 : i32} : tensor<8x16xf16> * tensor<16x16xf16> -> tensor<8x16xf32>
      %252 = tt.extract %174, 0 : tensor<32x32xf16, #triton_gpu.dot_op<{opIdx = 0, parent = #triton_gpu.warp<{sizePerThread = [32, 64], threadsPerWarp = [1, 1], order = [1, 0]}>}>> -> tensor<32x32xf16>
      %253 = tt.extract %252, 5 : tensor<32x32xf16> -> tensor<8x16xf16>
      %254 = tt.extract %179, 0 : tensor<32x64xf16, #triton_gpu.dot_op<{opIdx = 1, parent = #triton_gpu.warp<{sizePerThread = [32, 64], threadsPerWarp = [1, 1], order = [1, 0]}>}>> -> tensor<32x32xf16>
      %255 = tt.extract %254, 3 : tensor<32x32xf16> -> tensor<16x16xf16>
      %256 = tt.dot %253, %255, %251 {allowTF32 = true, maxNumImpreciseAcc = 0 : i32} : tensor<8x16xf16> * tensor<16x16xf16> -> tensor<8x16xf32>
      %257 = tt.glue %256 : tensor<8x16xf32> -> tensor<8x16xf32>
      %258 = tt.extract %arg7, 6 : tensor<32x64xf32, #triton_gpu.warp<{sizePerThread = [32, 64], threadsPerWarp = [1, 1], order = [1, 0]}>> -> tensor<8x16xf32>
      %259 = tt.extract %258, 0 : tensor<8x16xf32> -> tensor<8x16xf32>
      %260 = tt.extract %174, 0 : tensor<32x32xf16, #triton_gpu.dot_op<{opIdx = 0, parent = #triton_gpu.warp<{sizePerThread = [32, 64], threadsPerWarp = [1, 1], order = [1, 0]}>}>> -> tensor<32x32xf16>
      %261 = tt.extract %260, 2 : tensor<32x32xf16> -> tensor<8x16xf16>
      %262 = tt.extract %179, 0 : tensor<32x64xf16, #triton_gpu.dot_op<{opIdx = 1, parent = #triton_gpu.warp<{sizePerThread = [32, 64], threadsPerWarp = [1, 1], order = [1, 0]}>}>> -> tensor<32x32xf16>
      %263 = tt.extract %262, 2 : tensor<32x32xf16> -> tensor<16x16xf16>
      %264 = tt.dot %261, %263, %259 {allowTF32 = true, maxNumImpreciseAcc = 0 : i32} : tensor<8x16xf16> * tensor<16x16xf16> -> tensor<8x16xf32>
      %265 = tt.extract %174, 0 : tensor<32x32xf16, #triton_gpu.dot_op<{opIdx = 0, parent = #triton_gpu.warp<{sizePerThread = [32, 64], threadsPerWarp = [1, 1], order = [1, 0]}>}>> -> tensor<32x32xf16>
      %266 = tt.extract %265, 6 : tensor<32x32xf16> -> tensor<8x16xf16>
      %267 = tt.extract %179, 0 : tensor<32x64xf16, #triton_gpu.dot_op<{opIdx = 1, parent = #triton_gpu.warp<{sizePerThread = [32, 64], threadsPerWarp = [1, 1], order = [1, 0]}>}>> -> tensor<32x32xf16>
      %268 = tt.extract %267, 3 : tensor<32x32xf16> -> tensor<16x16xf16>
      %269 = tt.dot %266, %268, %264 {allowTF32 = true, maxNumImpreciseAcc = 0 : i32} : tensor<8x16xf16> * tensor<16x16xf16> -> tensor<8x16xf32>
      %270 = tt.glue %269 : tensor<8x16xf32> -> tensor<8x16xf32>
      %271 = tt.extract %arg7, 7 : tensor<32x64xf32, #triton_gpu.warp<{sizePerThread = [32, 64], threadsPerWarp = [1, 1], order = [1, 0]}>> -> tensor<8x16xf32>
      %272 = tt.extract %271, 0 : tensor<8x16xf32> -> tensor<8x16xf32>
      %273 = tt.extract %174, 0 : tensor<32x32xf16, #triton_gpu.dot_op<{opIdx = 0, parent = #triton_gpu.warp<{sizePerThread = [32, 64], threadsPerWarp = [1, 1], order = [1, 0]}>}>> -> tensor<32x32xf16>
      %274 = tt.extract %273, 3 : tensor<32x32xf16> -> tensor<8x16xf16>
      %275 = tt.extract %179, 0 : tensor<32x64xf16, #triton_gpu.dot_op<{opIdx = 1, parent = #triton_gpu.warp<{sizePerThread = [32, 64], threadsPerWarp = [1, 1], order = [1, 0]}>}>> -> tensor<32x32xf16>
      %276 = tt.extract %275, 2 : tensor<32x32xf16> -> tensor<16x16xf16>
      %277 = tt.dot %274, %276, %272 {allowTF32 = true, maxNumImpreciseAcc = 0 : i32} : tensor<8x16xf16> * tensor<16x16xf16> -> tensor<8x16xf32>
      %278 = tt.extract %174, 0 : tensor<32x32xf16, #triton_gpu.dot_op<{opIdx = 0, parent = #triton_gpu.warp<{sizePerThread = [32, 64], threadsPerWarp = [1, 1], order = [1, 0]}>}>> -> tensor<32x32xf16>
      %279 = tt.extract %278, 7 : tensor<32x32xf16> -> tensor<8x16xf16>
      %280 = tt.extract %179, 0 : tensor<32x64xf16, #triton_gpu.dot_op<{opIdx = 1, parent = #triton_gpu.warp<{sizePerThread = [32, 64], threadsPerWarp = [1, 1], order = [1, 0]}>}>> -> tensor<32x32xf16>
      %281 = tt.extract %280, 3 : tensor<32x32xf16> -> tensor<16x16xf16>
      %282 = tt.dot %279, %281, %277 {allowTF32 = true, maxNumImpreciseAcc = 0 : i32} : tensor<8x16xf16> * tensor<16x16xf16> -> tensor<8x16xf32>
      %283 = tt.glue %282 : tensor<8x16xf32> -> tensor<8x16xf32>
      %284 = tt.extract %arg7, 8 : tensor<32x64xf32, #triton_gpu.warp<{sizePerThread = [32, 64], threadsPerWarp = [1, 1], order = [1, 0]}>> -> tensor<8x16xf32>
      %285 = tt.extract %284, 0 : tensor<8x16xf32> -> tensor<8x16xf32>
      %286 = tt.extract %174, 0 : tensor<32x32xf16, #triton_gpu.dot_op<{opIdx = 0, parent = #triton_gpu.warp<{sizePerThread = [32, 64], threadsPerWarp = [1, 1], order = [1, 0]}>}>> -> tensor<32x32xf16>
      %287 = tt.extract %286, 0 : tensor<32x32xf16> -> tensor<8x16xf16>
      %288 = tt.extract %179, 1 : tensor<32x64xf16, #triton_gpu.dot_op<{opIdx = 1, parent = #triton_gpu.warp<{sizePerThread = [32, 64], threadsPerWarp = [1, 1], order = [1, 0]}>}>> -> tensor<32x32xf16>
      %289 = tt.extract %288, 0 : tensor<32x32xf16> -> tensor<16x16xf16>
      %290 = tt.dot %287, %289, %285 {allowTF32 = true, maxNumImpreciseAcc = 0 : i32} : tensor<8x16xf16> * tensor<16x16xf16> -> tensor<8x16xf32>
      %291 = tt.extract %174, 0 : tensor<32x32xf16, #triton_gpu.dot_op<{opIdx = 0, parent = #triton_gpu.warp<{sizePerThread = [32, 64], threadsPerWarp = [1, 1], order = [1, 0]}>}>> -> tensor<32x32xf16>
      %292 = tt.extract %291, 4 : tensor<32x32xf16> -> tensor<8x16xf16>
      %293 = tt.extract %179, 1 : tensor<32x64xf16, #triton_gpu.dot_op<{opIdx = 1, parent = #triton_gpu.warp<{sizePerThread = [32, 64], threadsPerWarp = [1, 1], order = [1, 0]}>}>> -> tensor<32x32xf16>
      %294 = tt.extract %293, 1 : tensor<32x32xf16> -> tensor<16x16xf16>
      %295 = tt.dot %292, %294, %290 {allowTF32 = true, maxNumImpreciseAcc = 0 : i32} : tensor<8x16xf16> * tensor<16x16xf16> -> tensor<8x16xf32>
      %296 = tt.glue %295 : tensor<8x16xf32> -> tensor<8x16xf32>
      %297 = tt.extract %arg7, 9 : tensor<32x64xf32, #triton_gpu.warp<{sizePerThread = [32, 64], threadsPerWarp = [1, 1], order = [1, 0]}>> -> tensor<8x16xf32>
      %298 = tt.extract %297, 0 : tensor<8x16xf32> -> tensor<8x16xf32>
      %299 = tt.extract %174, 0 : tensor<32x32xf16, #triton_gpu.dot_op<{opIdx = 0, parent = #triton_gpu.warp<{sizePerThread = [32, 64], threadsPerWarp = [1, 1], order = [1, 0]}>}>> -> tensor<32x32xf16>
      %300 = tt.extract %299, 1 : tensor<32x32xf16> -> tensor<8x16xf16>
      %301 = tt.extract %179, 1 : tensor<32x64xf16, #triton_gpu.dot_op<{opIdx = 1, parent = #triton_gpu.warp<{sizePerThread = [32, 64], threadsPerWarp = [1, 1], order = [1, 0]}>}>> -> tensor<32x32xf16>
      %302 = tt.extract %301, 0 : tensor<32x32xf16> -> tensor<16x16xf16>
      %303 = tt.dot %300, %302, %298 {allowTF32 = true, maxNumImpreciseAcc = 0 : i32} : tensor<8x16xf16> * tensor<16x16xf16> -> tensor<8x16xf32>
      %304 = tt.extract %174, 0 : tensor<32x32xf16, #triton_gpu.dot_op<{opIdx = 0, parent = #triton_gpu.warp<{sizePerThread = [32, 64], threadsPerWarp = [1, 1], order = [1, 0]}>}>> -> tensor<32x32xf16>
      %305 = tt.extract %304, 5 : tensor<32x32xf16> -> tensor<8x16xf16>
      %306 = tt.extract %179, 1 : tensor<32x64xf16, #triton_gpu.dot_op<{opIdx = 1, parent = #triton_gpu.warp<{sizePerThread = [32, 64], threadsPerWarp = [1, 1], order = [1, 0]}>}>> -> tensor<32x32xf16>
      %307 = tt.extract %306, 1 : tensor<32x32xf16> -> tensor<16x16xf16>
      %308 = tt.dot %305, %307, %303 {allowTF32 = true, maxNumImpreciseAcc = 0 : i32} : tensor<8x16xf16> * tensor<16x16xf16> -> tensor<8x16xf32>
      %309 = tt.glue %308 : tensor<8x16xf32> -> tensor<8x16xf32>
      %310 = tt.extract %arg7, 10 : tensor<32x64xf32, #triton_gpu.warp<{sizePerThread = [32, 64], threadsPerWarp = [1, 1], order = [1, 0]}>> -> tensor<8x16xf32>
      %311 = tt.extract %310, 0 : tensor<8x16xf32> -> tensor<8x16xf32>
      %312 = tt.extract %174, 0 : tensor<32x32xf16, #triton_gpu.dot_op<{opIdx = 0, parent = #triton_gpu.warp<{sizePerThread = [32, 64], threadsPerWarp = [1, 1], order = [1, 0]}>}>> -> tensor<32x32xf16>
      %313 = tt.extract %312, 2 : tensor<32x32xf16> -> tensor<8x16xf16>
      %314 = tt.extract %179, 1 : tensor<32x64xf16, #triton_gpu.dot_op<{opIdx = 1, parent = #triton_gpu.warp<{sizePerThread = [32, 64], threadsPerWarp = [1, 1], order = [1, 0]}>}>> -> tensor<32x32xf16>
      %315 = tt.extract %314, 0 : tensor<32x32xf16> -> tensor<16x16xf16>
      %316 = tt.dot %313, %315, %311 {allowTF32 = true, maxNumImpreciseAcc = 0 : i32} : tensor<8x16xf16> * tensor<16x16xf16> -> tensor<8x16xf32>
      %317 = tt.extract %174, 0 : tensor<32x32xf16, #triton_gpu.dot_op<{opIdx = 0, parent = #triton_gpu.warp<{sizePerThread = [32, 64], threadsPerWarp = [1, 1], order = [1, 0]}>}>> -> tensor<32x32xf16>
      %318 = tt.extract %317, 6 : tensor<32x32xf16> -> tensor<8x16xf16>
      %319 = tt.extract %179, 1 : tensor<32x64xf16, #triton_gpu.dot_op<{opIdx = 1, parent = #triton_gpu.warp<{sizePerThread = [32, 64], threadsPerWarp = [1, 1], order = [1, 0]}>}>> -> tensor<32x32xf16>
      %320 = tt.extract %319, 1 : tensor<32x32xf16> -> tensor<16x16xf16>
      %321 = tt.dot %318, %320, %316 {allowTF32 = true, maxNumImpreciseAcc = 0 : i32} : tensor<8x16xf16> * tensor<16x16xf16> -> tensor<8x16xf32>
      %322 = tt.glue %321 : tensor<8x16xf32> -> tensor<8x16xf32>
      %323 = tt.extract %arg7, 11 : tensor<32x64xf32, #triton_gpu.warp<{sizePerThread = [32, 64], threadsPerWarp = [1, 1], order = [1, 0]}>> -> tensor<8x16xf32>
      %324 = tt.extract %323, 0 : tensor<8x16xf32> -> tensor<8x16xf32>
      %325 = tt.extract %174, 0 : tensor<32x32xf16, #triton_gpu.dot_op<{opIdx = 0, parent = #triton_gpu.warp<{sizePerThread = [32, 64], threadsPerWarp = [1, 1], order = [1, 0]}>}>> -> tensor<32x32xf16>
      %326 = tt.extract %325, 3 : tensor<32x32xf16> -> tensor<8x16xf16>
      %327 = tt.extract %179, 1 : tensor<32x64xf16, #triton_gpu.dot_op<{opIdx = 1, parent = #triton_gpu.warp<{sizePerThread = [32, 64], threadsPerWarp = [1, 1], order = [1, 0]}>}>> -> tensor<32x32xf16>
      %328 = tt.extract %327, 0 : tensor<32x32xf16> -> tensor<16x16xf16>
      %329 = tt.dot %326, %328, %324 {allowTF32 = true, maxNumImpreciseAcc = 0 : i32} : tensor<8x16xf16> * tensor<16x16xf16> -> tensor<8x16xf32>
      %330 = tt.extract %174, 0 : tensor<32x32xf16, #triton_gpu.dot_op<{opIdx = 0, parent = #triton_gpu.warp<{sizePerThread = [32, 64], threadsPerWarp = [1, 1], order = [1, 0]}>}>> -> tensor<32x32xf16>
      %331 = tt.extract %330, 7 : tensor<32x32xf16> -> tensor<8x16xf16>
      %332 = tt.extract %179, 1 : tensor<32x64xf16, #triton_gpu.dot_op<{opIdx = 1, parent = #triton_gpu.warp<{sizePerThread = [32, 64], threadsPerWarp = [1, 1], order = [1, 0]}>}>> -> tensor<32x32xf16>
      %333 = tt.extract %332, 1 : tensor<32x32xf16> -> tensor<16x16xf16>
      %334 = tt.dot %331, %333, %329 {allowTF32 = true, maxNumImpreciseAcc = 0 : i32} : tensor<8x16xf16> * tensor<16x16xf16> -> tensor<8x16xf32>
      %335 = tt.glue %334 : tensor<8x16xf32> -> tensor<8x16xf32>
      %336 = tt.extract %arg7, 12 : tensor<32x64xf32, #triton_gpu.warp<{sizePerThread = [32, 64], threadsPerWarp = [1, 1], order = [1, 0]}>> -> tensor<8x16xf32>
      %337 = tt.extract %336, 0 : tensor<8x16xf32> -> tensor<8x16xf32>
      %338 = tt.extract %174, 0 : tensor<32x32xf16, #triton_gpu.dot_op<{opIdx = 0, parent = #triton_gpu.warp<{sizePerThread = [32, 64], threadsPerWarp = [1, 1], order = [1, 0]}>}>> -> tensor<32x32xf16>
      %339 = tt.extract %338, 0 : tensor<32x32xf16> -> tensor<8x16xf16>
      %340 = tt.extract %179, 1 : tensor<32x64xf16, #triton_gpu.dot_op<{opIdx = 1, parent = #triton_gpu.warp<{sizePerThread = [32, 64], threadsPerWarp = [1, 1], order = [1, 0]}>}>> -> tensor<32x32xf16>
      %341 = tt.extract %340, 2 : tensor<32x32xf16> -> tensor<16x16xf16>
      %342 = tt.dot %339, %341, %337 {allowTF32 = true, maxNumImpreciseAcc = 0 : i32} : tensor<8x16xf16> * tensor<16x16xf16> -> tensor<8x16xf32>
      %343 = tt.extract %174, 0 : tensor<32x32xf16, #triton_gpu.dot_op<{opIdx = 0, parent = #triton_gpu.warp<{sizePerThread = [32, 64], threadsPerWarp = [1, 1], order = [1, 0]}>}>> -> tensor<32x32xf16>
      %344 = tt.extract %343, 4 : tensor<32x32xf16> -> tensor<8x16xf16>
      %345 = tt.extract %179, 1 : tensor<32x64xf16, #triton_gpu.dot_op<{opIdx = 1, parent = #triton_gpu.warp<{sizePerThread = [32, 64], threadsPerWarp = [1, 1], order = [1, 0]}>}>> -> tensor<32x32xf16>
      %346 = tt.extract %345, 3 : tensor<32x32xf16> -> tensor<16x16xf16>
      %347 = tt.dot %344, %346, %342 {allowTF32 = true, maxNumImpreciseAcc = 0 : i32} : tensor<8x16xf16> * tensor<16x16xf16> -> tensor<8x16xf32>
      %348 = tt.glue %347 : tensor<8x16xf32> -> tensor<8x16xf32>
      %349 = tt.extract %arg7, 13 : tensor<32x64xf32, #triton_gpu.warp<{sizePerThread = [32, 64], threadsPerWarp = [1, 1], order = [1, 0]}>> -> tensor<8x16xf32>
      %350 = tt.extract %349, 0 : tensor<8x16xf32> -> tensor<8x16xf32>
      %351 = tt.extract %174, 0 : tensor<32x32xf16, #triton_gpu.dot_op<{opIdx = 0, parent = #triton_gpu.warp<{sizePerThread = [32, 64], threadsPerWarp = [1, 1], order = [1, 0]}>}>> -> tensor<32x32xf16>
      %352 = tt.extract %351, 1 : tensor<32x32xf16> -> tensor<8x16xf16>
      %353 = tt.extract %179, 1 : tensor<32x64xf16, #triton_gpu.dot_op<{opIdx = 1, parent = #triton_gpu.warp<{sizePerThread = [32, 64], threadsPerWarp = [1, 1], order = [1, 0]}>}>> -> tensor<32x32xf16>
      %354 = tt.extract %353, 2 : tensor<32x32xf16> -> tensor<16x16xf16>
      %355 = tt.dot %352, %354, %350 {allowTF32 = true, maxNumImpreciseAcc = 0 : i32} : tensor<8x16xf16> * tensor<16x16xf16> -> tensor<8x16xf32>
      %356 = tt.extract %174, 0 : tensor<32x32xf16, #triton_gpu.dot_op<{opIdx = 0, parent = #triton_gpu.warp<{sizePerThread = [32, 64], threadsPerWarp = [1, 1], order = [1, 0]}>}>> -> tensor<32x32xf16>
      %357 = tt.extract %356, 5 : tensor<32x32xf16> -> tensor<8x16xf16>
      %358 = tt.extract %179, 1 : tensor<32x64xf16, #triton_gpu.dot_op<{opIdx = 1, parent = #triton_gpu.warp<{sizePerThread = [32, 64], threadsPerWarp = [1, 1], order = [1, 0]}>}>> -> tensor<32x32xf16>
      %359 = tt.extract %358, 3 : tensor<32x32xf16> -> tensor<16x16xf16>
      %360 = tt.dot %357, %359, %355 {allowTF32 = true, maxNumImpreciseAcc = 0 : i32} : tensor<8x16xf16> * tensor<16x16xf16> -> tensor<8x16xf32>
      %361 = tt.glue %360 : tensor<8x16xf32> -> tensor<8x16xf32>
      %362 = tt.extract %arg7, 14 : tensor<32x64xf32, #triton_gpu.warp<{sizePerThread = [32, 64], threadsPerWarp = [1, 1], order = [1, 0]}>> -> tensor<8x16xf32>
      %363 = tt.extract %362, 0 : tensor<8x16xf32> -> tensor<8x16xf32>
      %364 = tt.extract %174, 0 : tensor<32x32xf16, #triton_gpu.dot_op<{opIdx = 0, parent = #triton_gpu.warp<{sizePerThread = [32, 64], threadsPerWarp = [1, 1], order = [1, 0]}>}>> -> tensor<32x32xf16>
      %365 = tt.extract %364, 2 : tensor<32x32xf16> -> tensor<8x16xf16>
      %366 = tt.extract %179, 1 : tensor<32x64xf16, #triton_gpu.dot_op<{opIdx = 1, parent = #triton_gpu.warp<{sizePerThread = [32, 64], threadsPerWarp = [1, 1], order = [1, 0]}>}>> -> tensor<32x32xf16>
      %367 = tt.extract %366, 2 : tensor<32x32xf16> -> tensor<16x16xf16>
      %368 = tt.dot %365, %367, %363 {allowTF32 = true, maxNumImpreciseAcc = 0 : i32} : tensor<8x16xf16> * tensor<16x16xf16> -> tensor<8x16xf32>
      %369 = tt.extract %174, 0 : tensor<32x32xf16, #triton_gpu.dot_op<{opIdx = 0, parent = #triton_gpu.warp<{sizePerThread = [32, 64], threadsPerWarp = [1, 1], order = [1, 0]}>}>> -> tensor<32x32xf16>
      %370 = tt.extract %369, 6 : tensor<32x32xf16> -> tensor<8x16xf16>
      %371 = tt.extract %179, 1 : tensor<32x64xf16, #triton_gpu.dot_op<{opIdx = 1, parent = #triton_gpu.warp<{sizePerThread = [32, 64], threadsPerWarp = [1, 1], order = [1, 0]}>}>> -> tensor<32x32xf16>
      %372 = tt.extract %371, 3 : tensor<32x32xf16> -> tensor<16x16xf16>
      %373 = tt.dot %370, %372, %368 {allowTF32 = true, maxNumImpreciseAcc = 0 : i32} : tensor<8x16xf16> * tensor<16x16xf16> -> tensor<8x16xf32>
      %374 = tt.glue %373 : tensor<8x16xf32> -> tensor<8x16xf32>
      %375 = tt.extract %arg7, 15 : tensor<32x64xf32, #triton_gpu.warp<{sizePerThread = [32, 64], threadsPerWarp = [1, 1], order = [1, 0]}>> -> tensor<8x16xf32>
      %376 = tt.extract %375, 0 : tensor<8x16xf32> -> tensor<8x16xf32>
      %377 = tt.extract %174, 0 : tensor<32x32xf16, #triton_gpu.dot_op<{opIdx = 0, parent = #triton_gpu.warp<{sizePerThread = [32, 64], threadsPerWarp = [1, 1], order = [1, 0]}>}>> -> tensor<32x32xf16>
      %378 = tt.extract %377, 3 : tensor<32x32xf16> -> tensor<8x16xf16>
      %379 = tt.extract %179, 1 : tensor<32x64xf16, #triton_gpu.dot_op<{opIdx = 1, parent = #triton_gpu.warp<{sizePerThread = [32, 64], threadsPerWarp = [1, 1], order = [1, 0]}>}>> -> tensor<32x32xf16>
      %380 = tt.extract %379, 2 : tensor<32x32xf16> -> tensor<16x16xf16>
      %381 = tt.dot %378, %380, %376 {allowTF32 = true, maxNumImpreciseAcc = 0 : i32} : tensor<8x16xf16> * tensor<16x16xf16> -> tensor<8x16xf32>
      %382 = tt.extract %174, 0 : tensor<32x32xf16, #triton_gpu.dot_op<{opIdx = 0, parent = #triton_gpu.warp<{sizePerThread = [32, 64], threadsPerWarp = [1, 1], order = [1, 0]}>}>> -> tensor<32x32xf16>
      %383 = tt.extract %382, 7 : tensor<32x32xf16> -> tensor<8x16xf16>
      %384 = tt.extract %179, 1 : tensor<32x64xf16, #triton_gpu.dot_op<{opIdx = 1, parent = #triton_gpu.warp<{sizePerThread = [32, 64], threadsPerWarp = [1, 1], order = [1, 0]}>}>> -> tensor<32x32xf16>
      %385 = tt.extract %384, 3 : tensor<32x32xf16> -> tensor<16x16xf16>
      %386 = tt.dot %383, %385, %381 {allowTF32 = true, maxNumImpreciseAcc = 0 : i32} : tensor<8x16xf16> * tensor<16x16xf16> -> tensor<8x16xf32>
      %387 = tt.glue %386 : tensor<8x16xf32> -> tensor<8x16xf32>
      %388 = tt.glue %192, %205, %218, %231, %244, %257, %270, %283, %296, %309, %322, %335, %348, %361, %374, %387 : tensor<8x16xf32>, tensor<8x16xf32>, tensor<8x16xf32>, tensor<8x16xf32>, tensor<8x16xf32>, tensor<8x16xf32>, tensor<8x16xf32>, tensor<8x16xf32>, tensor<8x16xf32>, tensor<8x16xf32>, tensor<8x16xf32>, tensor<8x16xf32>, tensor<8x16xf32>, tensor<8x16xf32>, tensor<8x16xf32>, tensor<8x16xf32> -> tensor<32x64xf32, #triton_gpu.warp<{sizePerThread = [32, 64], threadsPerWarp = [1, 1], order = [1, 0]}>>
      %389 = tt.extract %arg10, 0 : !tt.ptr<tensor<8x32xf16, #triton_gpu.warp<{sizePerThread = [8, 32], threadsPerWarp = [1, 1], order = [1, 0]}>>, 1> -> !tt.ptr<tensor<8x16xf16>, 1>
      tt.prefetch %389 {cache = 1 : i32, evict = 1 : i32, isVolatile = false} : !tt.ptr<tensor<8x16xf16>, 1>
      %390 = tt.extract %arg10, 1 : !tt.ptr<tensor<8x32xf16, #triton_gpu.warp<{sizePerThread = [8, 32], threadsPerWarp = [1, 1], order = [1, 0]}>>, 1> -> !tt.ptr<tensor<8x16xf16>, 1>
      tt.prefetch %390 {cache = 1 : i32, evict = 1 : i32, isVolatile = false} : !tt.ptr<tensor<8x16xf16>, 1>
      %391 = tt.extract %arg10, 0 : !tt.ptr<tensor<8x32xf16, #triton_gpu.warp<{sizePerThread = [8, 32], threadsPerWarp = [1, 1], order = [1, 0]}>>, 1> -> !tt.ptr<tensor<8x16xf16>, 1>
      %392 = tt.advance %391, [%c0_i32, %c32_i32] : <tensor<8x16xf16>, 1>
      %393 = tt.extract %arg10, 1 : !tt.ptr<tensor<8x32xf16, #triton_gpu.warp<{sizePerThread = [8, 32], threadsPerWarp = [1, 1], order = [1, 0]}>>, 1> -> !tt.ptr<tensor<8x16xf16>, 1>
      %394 = tt.advance %393, [%c0_i32, %c32_i32] : <tensor<8x16xf16>, 1>
      %395 = tt.glue %392, %394 : !tt.ptr<tensor<8x16xf16>, 1>, !tt.ptr<tensor<8x16xf16>, 1> -> !tt.ptr<tensor<8x32xf16, #triton_gpu.warp<{sizePerThread = [8, 32], threadsPerWarp = [1, 1], order = [1, 0]}>>, 1>
      %396 = tt.extract %arg8, 0 : !tt.ptr<tensor<32x32xf16, #triton_gpu.dot_op<{opIdx = 0, parent = #triton_gpu.warp<{sizePerThread = [32, 64], threadsPerWarp = [1, 1], order = [1, 0]}>}>>, 1> -> !tt.ptr<tensor<32x32xf16>, 1>
      %397 = tt.advance %396, [%c0_i32, %c32_i32] : <tensor<32x32xf16>, 1>
      %398 = tt.glue %397 : !tt.ptr<tensor<32x32xf16>, 1> -> !tt.ptr<tensor<32x32xf16, #triton_gpu.dot_op<{opIdx = 0, parent = #triton_gpu.warp<{sizePerThread = [32, 64], threadsPerWarp = [1, 1], order = [1, 0]}>}>>, 1>
      %399 = tt.extract %arg11, 0 : !tt.ptr<tensor<8x32xf16, #triton_gpu.warp<{sizePerThread = [8, 32], threadsPerWarp = [1, 1], order = [1, 0]}>>, 1> -> !tt.ptr<tensor<8x16xf16>, 1>
      tt.prefetch %399 {cache = 1 : i32, evict = 1 : i32, isVolatile = false} : !tt.ptr<tensor<8x16xf16>, 1>
      %400 = tt.extract %arg11, 1 : !tt.ptr<tensor<8x32xf16, #triton_gpu.warp<{sizePerThread = [8, 32], threadsPerWarp = [1, 1], order = [1, 0]}>>, 1> -> !tt.ptr<tensor<8x16xf16>, 1>
      tt.prefetch %400 {cache = 1 : i32, evict = 1 : i32, isVolatile = false} : !tt.ptr<tensor<8x16xf16>, 1>
      %401 = tt.extract %arg11, 0 : !tt.ptr<tensor<8x32xf16, #triton_gpu.warp<{sizePerThread = [8, 32], threadsPerWarp = [1, 1], order = [1, 0]}>>, 1> -> !tt.ptr<tensor<8x16xf16>, 1>
      %402 = tt.advance %401, [%c32_i32, %c0_i32] : <tensor<8x16xf16>, 1>
      %403 = tt.extract %arg11, 1 : !tt.ptr<tensor<8x32xf16, #triton_gpu.warp<{sizePerThread = [8, 32], threadsPerWarp = [1, 1], order = [1, 0]}>>, 1> -> !tt.ptr<tensor<8x16xf16>, 1>
      %404 = tt.advance %403, [%c32_i32, %c0_i32] : <tensor<8x16xf16>, 1>
      %405 = tt.glue %402, %404 : !tt.ptr<tensor<8x16xf16>, 1>, !tt.ptr<tensor<8x16xf16>, 1> -> !tt.ptr<tensor<8x32xf16, #triton_gpu.warp<{sizePerThread = [8, 32], threadsPerWarp = [1, 1], order = [1, 0]}>>, 1>
      %406 = tt.extract %arg9, 0 : !tt.ptr<tensor<32x64xf16, #triton_gpu.dot_op<{opIdx = 1, parent = #triton_gpu.warp<{sizePerThread = [32, 64], threadsPerWarp = [1, 1], order = [1, 0]}>}>>, 1> -> !tt.ptr<tensor<32x32xf16>, 1>
      %407 = tt.advance %406, [%c32_i32, %c0_i32] : <tensor<32x32xf16>, 1>
      %408 = tt.extract %arg9, 1 : !tt.ptr<tensor<32x64xf16, #triton_gpu.dot_op<{opIdx = 1, parent = #triton_gpu.warp<{sizePerThread = [32, 64], threadsPerWarp = [1, 1], order = [1, 0]}>}>>, 1> -> !tt.ptr<tensor<32x32xf16>, 1>
      %409 = tt.advance %408, [%c32_i32, %c0_i32] : <tensor<32x32xf16>, 1>
      %410 = tt.glue %407, %409 : !tt.ptr<tensor<32x32xf16>, 1>, !tt.ptr<tensor<32x32xf16>, 1> -> !tt.ptr<tensor<32x64xf16, #triton_gpu.dot_op<{opIdx = 1, parent = #triton_gpu.warp<{sizePerThread = [32, 64], threadsPerWarp = [1, 1], order = [1, 0]}>}>>, 1>
      scf.yield %388, %398, %410, %395, %405 : tensor<32x64xf32, #triton_gpu.warp<{sizePerThread = [32, 64], threadsPerWarp = [1, 1], order = [1, 0]}>>, !tt.ptr<tensor<32x32xf16, #triton_gpu.dot_op<{opIdx = 0, parent = #triton_gpu.warp<{sizePerThread = [32, 64], threadsPerWarp = [1, 1], order = [1, 0]}>}>>, 1>, !tt.ptr<tensor<32x64xf16, #triton_gpu.dot_op<{opIdx = 1, parent = #triton_gpu.warp<{sizePerThread = [32, 64], threadsPerWarp = [1, 1], order = [1, 0]}>}>>, 1>, !tt.ptr<tensor<8x32xf16, #triton_gpu.warp<{sizePerThread = [8, 32], threadsPerWarp = [1, 1], order = [1, 0]}>>, 1>, !tt.ptr<tensor<8x32xf16, #triton_gpu.warp<{sizePerThread = [8, 32], threadsPerWarp = [1, 1], order = [1, 0]}>>, 1>
    }
    %c4_i32_32 = arith.constant 4 : i32
    %91 = arith.divsi %1, %c4_i32_32 : i32
    %c8_i32_33 = arith.constant 8 : i32
    %92 = arith.remsi %91, %c8_i32_33 : i32
    %c32_i32_34 = arith.constant 32 : i32
    %93 = arith.muli %92, %c32_i32_34 : i32
    %94 = arith.addi %93, %12 : i32
    %c4_i32_35 = arith.constant 4 : i32
    %95 = arith.remsi %1, %c4_i32_35 : i32
    %c4_i32_36 = arith.constant 4 : i32
    %96 = arith.remsi %95, %c4_i32_36 : i32
    %c64_i32_37 = arith.constant 64 : i32
    %97 = arith.muli %96, %c64_i32_37 : i32
    %98 = arith.addi %97, %47 : i32
    %99 = tt.make_tensor_ptr %arg2, [%c4096_i64, %c4096_i64], [%c4096_i64, %c1_i64], [%94, %98] {order = array<i32: 1, 0>} : <tensor<8x16xf32>, 1>
    %c8_i32_38 = arith.constant 8 : i32
    %100 = arith.addi %94, %c8_i32_38 : i32
    %101 = tt.make_tensor_ptr %arg2, [%c4096_i64, %c4096_i64], [%c4096_i64, %c1_i64], [%100, %98] {order = array<i32: 1, 0>} : <tensor<8x16xf32>, 1>
    %c16_i32_39 = arith.constant 16 : i32
    %102 = arith.addi %94, %c16_i32_39 : i32
    %103 = tt.make_tensor_ptr %arg2, [%c4096_i64, %c4096_i64], [%c4096_i64, %c1_i64], [%102, %98] {order = array<i32: 1, 0>} : <tensor<8x16xf32>, 1>
    %c24_i32 = arith.constant 24 : i32
    %104 = arith.addi %94, %c24_i32 : i32
    %105 = tt.make_tensor_ptr %arg2, [%c4096_i64, %c4096_i64], [%c4096_i64, %c1_i64], [%104, %98] {order = array<i32: 1, 0>} : <tensor<8x16xf32>, 1>
    %c16_i32_40 = arith.constant 16 : i32
    %106 = arith.addi %98, %c16_i32_40 : i32
    %107 = tt.make_tensor_ptr %arg2, [%c4096_i64, %c4096_i64], [%c4096_i64, %c1_i64], [%94, %106] {order = array<i32: 1, 0>} : <tensor<8x16xf32>, 1>
    %c8_i32_41 = arith.constant 8 : i32
    %108 = arith.addi %94, %c8_i32_41 : i32
    %c16_i32_42 = arith.constant 16 : i32
    %109 = arith.addi %98, %c16_i32_42 : i32
    %110 = tt.make_tensor_ptr %arg2, [%c4096_i64, %c4096_i64], [%c4096_i64, %c1_i64], [%108, %109] {order = array<i32: 1, 0>} : <tensor<8x16xf32>, 1>
    %c16_i32_43 = arith.constant 16 : i32
    %111 = arith.addi %94, %c16_i32_43 : i32
    %c16_i32_44 = arith.constant 16 : i32
    %112 = arith.addi %98, %c16_i32_44 : i32
    %113 = tt.make_tensor_ptr %arg2, [%c4096_i64, %c4096_i64], [%c4096_i64, %c1_i64], [%111, %112] {order = array<i32: 1, 0>} : <tensor<8x16xf32>, 1>
    %c24_i32_45 = arith.constant 24 : i32
    %114 = arith.addi %94, %c24_i32_45 : i32
    %c16_i32_46 = arith.constant 16 : i32
    %115 = arith.addi %98, %c16_i32_46 : i32
    %116 = tt.make_tensor_ptr %arg2, [%c4096_i64, %c4096_i64], [%c4096_i64, %c1_i64], [%114, %115] {order = array<i32: 1, 0>} : <tensor<8x16xf32>, 1>
    %c32_i32_47 = arith.constant 32 : i32
    %117 = arith.addi %98, %c32_i32_47 : i32
    %118 = tt.make_tensor_ptr %arg2, [%c4096_i64, %c4096_i64], [%c4096_i64, %c1_i64], [%94, %117] {order = array<i32: 1, 0>} : <tensor<8x16xf32>, 1>
    %c8_i32_48 = arith.constant 8 : i32
    %119 = arith.addi %94, %c8_i32_48 : i32
    %c32_i32_49 = arith.constant 32 : i32
    %120 = arith.addi %98, %c32_i32_49 : i32
    %121 = tt.make_tensor_ptr %arg2, [%c4096_i64, %c4096_i64], [%c4096_i64, %c1_i64], [%119, %120] {order = array<i32: 1, 0>} : <tensor<8x16xf32>, 1>
    %c16_i32_50 = arith.constant 16 : i32
    %122 = arith.addi %94, %c16_i32_50 : i32
    %c32_i32_51 = arith.constant 32 : i32
    %123 = arith.addi %98, %c32_i32_51 : i32
    %124 = tt.make_tensor_ptr %arg2, [%c4096_i64, %c4096_i64], [%c4096_i64, %c1_i64], [%122, %123] {order = array<i32: 1, 0>} : <tensor<8x16xf32>, 1>
    %c24_i32_52 = arith.constant 24 : i32
    %125 = arith.addi %94, %c24_i32_52 : i32
    %c32_i32_53 = arith.constant 32 : i32
    %126 = arith.addi %98, %c32_i32_53 : i32
    %127 = tt.make_tensor_ptr %arg2, [%c4096_i64, %c4096_i64], [%c4096_i64, %c1_i64], [%125, %126] {order = array<i32: 1, 0>} : <tensor<8x16xf32>, 1>
    %c48_i32 = arith.constant 48 : i32
    %128 = arith.addi %98, %c48_i32 : i32
    %129 = tt.make_tensor_ptr %arg2, [%c4096_i64, %c4096_i64], [%c4096_i64, %c1_i64], [%94, %128] {order = array<i32: 1, 0>} : <tensor<8x16xf32>, 1>
    %c8_i32_54 = arith.constant 8 : i32
    %130 = arith.addi %94, %c8_i32_54 : i32
    %c48_i32_55 = arith.constant 48 : i32
    %131 = arith.addi %98, %c48_i32_55 : i32
    %132 = tt.make_tensor_ptr %arg2, [%c4096_i64, %c4096_i64], [%c4096_i64, %c1_i64], [%130, %131] {order = array<i32: 1, 0>} : <tensor<8x16xf32>, 1>
    %c16_i32_56 = arith.constant 16 : i32
    %133 = arith.addi %94, %c16_i32_56 : i32
    %c48_i32_57 = arith.constant 48 : i32
    %134 = arith.addi %98, %c48_i32_57 : i32
    %135 = tt.make_tensor_ptr %arg2, [%c4096_i64, %c4096_i64], [%c4096_i64, %c1_i64], [%133, %134] {order = array<i32: 1, 0>} : <tensor<8x16xf32>, 1>
    %c24_i32_58 = arith.constant 24 : i32
    %136 = arith.addi %94, %c24_i32_58 : i32
    %c48_i32_59 = arith.constant 48 : i32
    %137 = arith.addi %98, %c48_i32_59 : i32
    %138 = tt.make_tensor_ptr %arg2, [%c4096_i64, %c4096_i64], [%c4096_i64, %c1_i64], [%136, %137] {order = array<i32: 1, 0>} : <tensor<8x16xf32>, 1>
    %139 = tt.glue %99, %101, %103, %105, %107, %110, %113, %116, %118, %121, %124, %127, %129, %132, %135, %138 : !tt.ptr<tensor<8x16xf32>, 1>, !tt.ptr<tensor<8x16xf32>, 1>, !tt.ptr<tensor<8x16xf32>, 1>, !tt.ptr<tensor<8x16xf32>, 1>, !tt.ptr<tensor<8x16xf32>, 1>, !tt.ptr<tensor<8x16xf32>, 1>, !tt.ptr<tensor<8x16xf32>, 1>, !tt.ptr<tensor<8x16xf32>, 1>, !tt.ptr<tensor<8x16xf32>, 1>, !tt.ptr<tensor<8x16xf32>, 1>, !tt.ptr<tensor<8x16xf32>, 1>, !tt.ptr<tensor<8x16xf32>, 1>, !tt.ptr<tensor<8x16xf32>, 1>, !tt.ptr<tensor<8x16xf32>, 1>, !tt.ptr<tensor<8x16xf32>, 1>, !tt.ptr<tensor<8x16xf32>, 1> -> !tt.ptr<tensor<32x64xf32, #triton_gpu.warp<{sizePerThread = [32, 64], threadsPerWarp = [1, 1], order = [1, 0]}>>, 1>
    %140 = tt.extract %139, 0 : !tt.ptr<tensor<32x64xf32, #triton_gpu.warp<{sizePerThread = [32, 64], threadsPerWarp = [1, 1], order = [1, 0]}>>, 1> -> !tt.ptr<tensor<8x16xf32>, 1>
    %141 = tt.extract %90#0, 0 : tensor<32x64xf32, #triton_gpu.warp<{sizePerThread = [32, 64], threadsPerWarp = [1, 1], order = [1, 0]}>> -> tensor<8x16xf32>
    tt.store %140, %141 {boundaryCheck = array<i32: 0, 1>, cache = 1 : i32, evict = 1 : i32} : !tt.ptr<tensor<8x16xf32>, 1>, tensor<8x16xf32>
    %142 = tt.extract %139, 1 : !tt.ptr<tensor<32x64xf32, #triton_gpu.warp<{sizePerThread = [32, 64], threadsPerWarp = [1, 1], order = [1, 0]}>>, 1> -> !tt.ptr<tensor<8x16xf32>, 1>
    %143 = tt.extract %90#0, 1 : tensor<32x64xf32, #triton_gpu.warp<{sizePerThread = [32, 64], threadsPerWarp = [1, 1], order = [1, 0]}>> -> tensor<8x16xf32>
    tt.store %142, %143 {boundaryCheck = array<i32: 0, 1>, cache = 1 : i32, evict = 1 : i32} : !tt.ptr<tensor<8x16xf32>, 1>, tensor<8x16xf32>
    %144 = tt.extract %139, 2 : !tt.ptr<tensor<32x64xf32, #triton_gpu.warp<{sizePerThread = [32, 64], threadsPerWarp = [1, 1], order = [1, 0]}>>, 1> -> !tt.ptr<tensor<8x16xf32>, 1>
    %145 = tt.extract %90#0, 2 : tensor<32x64xf32, #triton_gpu.warp<{sizePerThread = [32, 64], threadsPerWarp = [1, 1], order = [1, 0]}>> -> tensor<8x16xf32>
    tt.store %144, %145 {boundaryCheck = array<i32: 0, 1>, cache = 1 : i32, evict = 1 : i32} : !tt.ptr<tensor<8x16xf32>, 1>, tensor<8x16xf32>
    %146 = tt.extract %139, 3 : !tt.ptr<tensor<32x64xf32, #triton_gpu.warp<{sizePerThread = [32, 64], threadsPerWarp = [1, 1], order = [1, 0]}>>, 1> -> !tt.ptr<tensor<8x16xf32>, 1>
    %147 = tt.extract %90#0, 3 : tensor<32x64xf32, #triton_gpu.warp<{sizePerThread = [32, 64], threadsPerWarp = [1, 1], order = [1, 0]}>> -> tensor<8x16xf32>
    tt.store %146, %147 {boundaryCheck = array<i32: 0, 1>, cache = 1 : i32, evict = 1 : i32} : !tt.ptr<tensor<8x16xf32>, 1>, tensor<8x16xf32>
    %148 = tt.extract %139, 4 : !tt.ptr<tensor<32x64xf32, #triton_gpu.warp<{sizePerThread = [32, 64], threadsPerWarp = [1, 1], order = [1, 0]}>>, 1> -> !tt.ptr<tensor<8x16xf32>, 1>
    %149 = tt.extract %90#0, 4 : tensor<32x64xf32, #triton_gpu.warp<{sizePerThread = [32, 64], threadsPerWarp = [1, 1], order = [1, 0]}>> -> tensor<8x16xf32>
    tt.store %148, %149 {boundaryCheck = array<i32: 0, 1>, cache = 1 : i32, evict = 1 : i32} : !tt.ptr<tensor<8x16xf32>, 1>, tensor<8x16xf32>
    %150 = tt.extract %139, 5 : !tt.ptr<tensor<32x64xf32, #triton_gpu.warp<{sizePerThread = [32, 64], threadsPerWarp = [1, 1], order = [1, 0]}>>, 1> -> !tt.ptr<tensor<8x16xf32>, 1>
    %151 = tt.extract %90#0, 5 : tensor<32x64xf32, #triton_gpu.warp<{sizePerThread = [32, 64], threadsPerWarp = [1, 1], order = [1, 0]}>> -> tensor<8x16xf32>
    tt.store %150, %151 {boundaryCheck = array<i32: 0, 1>, cache = 1 : i32, evict = 1 : i32} : !tt.ptr<tensor<8x16xf32>, 1>, tensor<8x16xf32>
    %152 = tt.extract %139, 6 : !tt.ptr<tensor<32x64xf32, #triton_gpu.warp<{sizePerThread = [32, 64], threadsPerWarp = [1, 1], order = [1, 0]}>>, 1> -> !tt.ptr<tensor<8x16xf32>, 1>
    %153 = tt.extract %90#0, 6 : tensor<32x64xf32, #triton_gpu.warp<{sizePerThread = [32, 64], threadsPerWarp = [1, 1], order = [1, 0]}>> -> tensor<8x16xf32>
    tt.store %152, %153 {boundaryCheck = array<i32: 0, 1>, cache = 1 : i32, evict = 1 : i32} : !tt.ptr<tensor<8x16xf32>, 1>, tensor<8x16xf32>
    %154 = tt.extract %139, 7 : !tt.ptr<tensor<32x64xf32, #triton_gpu.warp<{sizePerThread = [32, 64], threadsPerWarp = [1, 1], order = [1, 0]}>>, 1> -> !tt.ptr<tensor<8x16xf32>, 1>
    %155 = tt.extract %90#0, 7 : tensor<32x64xf32, #triton_gpu.warp<{sizePerThread = [32, 64], threadsPerWarp = [1, 1], order = [1, 0]}>> -> tensor<8x16xf32>
    tt.store %154, %155 {boundaryCheck = array<i32: 0, 1>, cache = 1 : i32, evict = 1 : i32} : !tt.ptr<tensor<8x16xf32>, 1>, tensor<8x16xf32>
…
    llvm.br ^bb1(%341, %269, %273, %277, %281, %285, %287, %289, %291, %295, %297, %299, %301, %305, %307, %309, %311, %324, %337, %340, %318, %321, %331, %334 : i32, vector<8xf32>, vector<8xf32>, vector<8xf32>, vector<8xf32>, vector<8xf32>, vector<8xf32>, vector<8xf32>, vector<8xf32>, vector<8xf32>, vector<8xf32>, vector<8xf32>, vector<8xf32>, vector<8xf32>, vector<8xf32>, vector<8xf32>, vector<8xf32>, vector<2xi32>, vector<2xi32>, vector<2xi32>, vector<2xi32>, vector<2xi32>, vector<2xi32>, vector<2xi32>) loc(#loc)
  ^bb3:  // pred: ^bb1
    %342 = llvm.mlir.undef : vector<2xi32> loc(#loc)
    %343 = llvm.insertelement %212, %342[%7 : i32] : vector<2xi32> loc(#loc)
    %344 = llvm.insertelement %117, %343[%1 : i32] : vector<2xi32> loc(#loc)
    %345 = llvm.mul %4, %9  : i32 loc(#loc)
    %346 = llvm.sub %345, %1  : i32 loc(#loc)
    %347 = llvm.sub %4, %1  : i32 loc(#loc)
    %348 = llvm.mul %4, %9  : i32 loc(#loc)
    %349 = llvm.sub %348, %1  : i32 loc(#loc)
    %350 = llvm.add %117, %10  : i32 loc(#loc)
    %351 = llvm.mlir.undef : vector<2xi32> loc(#loc)
    %352 = llvm.insertelement %212, %351[%7 : i32] : vector<2xi32> loc(#loc)
    %353 = llvm.insertelement %350, %352[%1 : i32] : vector<2xi32> loc(#loc)
    %354 = llvm.mul %4, %9  : i32 loc(#loc)
    %355 = llvm.sub %354, %1  : i32 loc(#loc)
    %356 = llvm.sub %4, %1  : i32 loc(#loc)
    %357 = llvm.mul %4, %9  : i32 loc(#loc)
    %358 = llvm.sub %357, %1  : i32 loc(#loc)
    %359 = llvm.add %117, %3  : i32 loc(#loc)
    %360 = llvm.mlir.undef : vector<2xi32> loc(#loc)
    %361 = llvm.insertelement %212, %360[%7 : i32] : vector<2xi32> loc(#loc)
    %362 = llvm.insertelement %359, %361[%1 : i32] : vector<2xi32> loc(#loc)
    %363 = llvm.mul %4, %9  : i32 loc(#loc)
    %364 = llvm.sub %363, %1  : i32 loc(#loc)
    %365 = llvm.sub %4, %1  : i32 loc(#loc)
    %366 = llvm.mul %4, %9  : i32 loc(#loc)
    %367 = llvm.sub %366, %1  : i32 loc(#loc)
    %368 = llvm.add %117, %11  : i32 loc(#loc)
    %369 = llvm.mlir.undef : vector<2xi32> loc(#loc)
    %370 = llvm.insertelement %212, %369[%7 : i32] : vector<2xi32> loc(#loc)
    %371 = llvm.insertelement %368, %370[%1 : i32] : vector<2xi32> loc(#loc)
    %372 = llvm.mul %4, %9  : i32 loc(#loc)
    %373 = llvm.sub %372, %1  : i32 loc(#loc)
    %374 = llvm.sub %4, %1  : i32 loc(#loc)
    %375 = llvm.mul %4, %9  : i32 loc(#loc)
    %376 = llvm.sub %375, %1  : i32 loc(#loc)
    %377 = llvm.add %212, %3  : i32 loc(#loc)
    %378 = llvm.mlir.undef : vector<2xi32> loc(#loc)
    %379 = llvm.insertelement %377, %378[%7 : i32] : vector<2xi32> loc(#loc)
    %380 = llvm.insertelement %117, %379[%1 : i32] : vector<2xi32> loc(#loc)
    %381 = llvm.mul %4, %9  : i32 loc(#loc)
    %382 = llvm.sub %381, %1  : i32 loc(#loc)
    %383 = llvm.sub %4, %1  : i32 loc(#loc)
    %384 = llvm.mul %4, %9  : i32 loc(#loc)
    %385 = llvm.sub %384, %1  : i32 loc(#loc)
    %386 = llvm.mlir.undef : vector<2xi32> loc(#loc)
    %387 = llvm.insertelement %377, %386[%7 : i32] : vector<2xi32> loc(#loc)
    %388 = llvm.insertelement %350, %387[%1 : i32] : vector<2xi32> loc(#loc)
    %389 = llvm.mul %4, %9  : i32 loc(#loc)
    %390 = llvm.sub %389, %1  : i32 loc(#loc)
    %391 = llvm.sub %4, %1  : i32 loc(#loc)
    %392 = llvm.mul %4, %9  : i32 loc(#loc)
    %393 = llvm.sub %392, %1  : i32 loc(#loc)
    %394 = llvm.mlir.undef : vector<2xi32> loc(#loc)
    %395 = llvm.insertelement %377, %394[%7 : i32] : vector<2xi32> loc(#loc)
    %396 = llvm.insertelement %359, %395[%1 : i32] : vector<2xi32> loc(#loc)
    %397 = llvm.mul %4, %9  : i32 loc(#loc)
    %398 = llvm.sub %397, %1  : i32 loc(#loc)
    %399 = llvm.sub %4, %1  : i32 loc(#loc)
    %400 = llvm.mul %4, %9  : i32 loc(#loc)
    %401 = llvm.sub %400, %1  : i32 loc(#loc)
    %402 = llvm.mlir.undef : vector<2xi32> loc(#loc)
    %403 = llvm.insertelement %377, %402[%7 : i32] : vector<2xi32> loc(#loc)
    %404 = llvm.insertelement %368, %403[%1 : i32] : vector<2xi32> loc(#loc)
    %405 = llvm.mul %4, %9  : i32 loc(#loc)
    %406 = llvm.sub %405, %1  : i32 loc(#loc)
    %407 = llvm.sub %4, %1  : i32 loc(#loc)
    %408 = llvm.mul %4, %9  : i32 loc(#loc)
    %409 = llvm.sub %408, %1  : i32 loc(#loc)
    %410 = llvm.mlir.undef : vector<2xi32> loc(#loc)
    %411 = llvm.insertelement %221, %410[%7 : i32] : vector<2xi32> loc(#loc)
    %412 = llvm.insertelement %117, %411[%1 : i32] : vector<2xi32> loc(#loc)
    %413 = llvm.mul %4, %9  : i32 loc(#loc)
    %414 = llvm.sub %413, %1  : i32 loc(#loc)
    %415 = llvm.sub %4, %1  : i32 loc(#loc)
    %416 = llvm.mul %4, %9  : i32 loc(#loc)
    %417 = llvm.sub %416, %1  : i32 loc(#loc)
    %418 = llvm.mlir.undef : vector<2xi32> loc(#loc)
    %419 = llvm.insertelement %221, %418[%7 : i32] : vector<2xi32> loc(#loc)
    %420 = llvm.insertelement %350, %419[%1 : i32] : vector<2xi32> loc(#loc)
    %421 = llvm.mul %4, %9  : i32 loc(#loc)
    %422 = llvm.sub %421, %1  : i32 loc(#loc)
    %423 = llvm.sub %4, %1  : i32 loc(#loc)
    %424 = llvm.mul %4, %9  : i32 loc(#loc)
    %425 = llvm.sub %424, %1  : i32 loc(#loc)
    %426 = llvm.mlir.undef : vector<2xi32> loc(#loc)
    %427 = llvm.insertelement %221, %426[%7 : i32] : vector<2xi32> loc(#loc)
    %428 = llvm.insertelement %359, %427[%1 : i32] : vector<2xi32> loc(#loc)
    %429 = llvm.mul %4, %9  : i32 loc(#loc)
    %430 = llvm.sub %429, %1  : i32 loc(#loc)
    %431 = llvm.sub %4, %1  : i32 loc(#loc)
    %432 = llvm.mul %4, %9  : i32 loc(#loc)
    %433 = llvm.sub %432, %1  : i32 loc(#loc)
    %434 = llvm.mlir.undef : vector<2xi32> loc(#loc)
    %435 = llvm.insertelement %221, %434[%7 : i32] : vector<2xi32> loc(#loc)
    %436 = llvm.insertelement %368, %435[%1 : i32] : vector<2xi32> loc(#loc)
    %437 = llvm.mul %4, %9  : i32 loc(#loc)
    %438 = llvm.sub %437, %1  : i32 loc(#loc)
    %439 = llvm.sub %4, %1  : i32 loc(#loc)
    %440 = llvm.mul %4, %9  : i32 loc(#loc)
    %441 = llvm.sub %440, %1  : i32 loc(#loc)
    %442 = llvm.add %212, %12  : i32 loc(#loc)
    %443 = llvm.mlir.undef : vector<2xi32> loc(#loc)
    %444 = llvm.insertelement %442, %443[%7 : i32] : vector<2xi32> loc(#loc)
    %445 = llvm.insertelement %117, %444[%1 : i32] : vector<2xi32> loc(#loc)
    %446 = llvm.mul %4, %9  : i32 loc(#loc)
    %447 = llvm.sub %446, %1  : i32 loc(#loc)
    %448 = llvm.sub %4, %1  : i32 loc(#loc)
    %449 = llvm.mul %4, %9  : i32 loc(#loc)
    %450 = llvm.sub %449, %1  : i32 loc(#loc)
    %451 = llvm.mlir.undef : vector<2xi32> loc(#loc)
    %452 = llvm.insertelement %442, %451[%7 : i32] : vector<2xi32> loc(#loc)
    %453 = llvm.insertelement %350, %452[%1 : i32] : vector<2xi32> loc(#loc)
    %454 = llvm.mul %4, %9  : i32 loc(#loc)
    %455 = llvm.sub %454, %1  : i32 loc(#loc)
    %456 = llvm.sub %4, %1  : i32 loc(#loc)
    %457 = llvm.mul %4, %9  : i32 loc(#loc)
    %458 = llvm.sub %457, %1  : i32 loc(#loc)
    %459 = llvm.mlir.undef : vector<2xi32> loc(#loc)
    %460 = llvm.insertelement %442, %459[%7 : i32] : vector<2xi32> loc(#loc)
    %461 = llvm.insertelement %359, %460[%1 : i32] : vector<2xi32> loc(#loc)
    %462 = llvm.mul %4, %9  : i32 loc(#loc)
    %463 = llvm.sub %462, %1  : i32 loc(#loc)
    %464 = llvm.sub %4, %1  : i32 loc(#loc)
    %465 = llvm.mul %4, %9  : i32 loc(#loc)
    %466 = llvm.sub %465, %1  : i32 loc(#loc)
    %467 = llvm.mlir.undef : vector<2xi32> loc(#loc)
    %468 = llvm.insertelement %442, %467[%7 : i32] : vector<2xi32> loc(#loc)
    %469 = llvm.insertelement %368, %468[%1 : i32] : vector<2xi32> loc(#loc)
    %470 = llvm.mul %4, %9  : i32 loc(#loc)
    %471 = llvm.sub %470, %1  : i32 loc(#loc)
    %472 = llvm.sub %4, %1  : i32 loc(#loc)
    %473 = llvm.mul %4, %9  : i32 loc(#loc)
    %474 = llvm.sub %473, %1  : i32 loc(#loc)
    %475 = llvm.extractelement %344[%7 : i32] : vector<2xi32> loc(#loc)
    %476 = llvm.extractelement %344[%1 : i32] : vector<2xi32> loc(#loc)
    %477 = llvm.bitcast %231 : vector<8xf32> to vector<8xi32> loc(#loc)
    genx.matrix.2Dblockstore %arg2, %346, %347, %349, %475, %476, %477 {elem_size_in_bits = 32 : i32, tile_height = 8 : i32, tile_width = 16 : i32, transpose = false, v_blocks = 1 : i32, vnni_transform = false} : (!llvm.ptr<1>, i32, i32, i32, i32, i32, vector<8xi32>) loc(#loc)
    %478 = llvm.extractelement %353[%7 : i32] : vector<2xi32> loc(#loc)
    %479 = llvm.extractelement %353[%1 : i32] : vector<2xi32> loc(#loc)
    %480 = llvm.bitcast %232 : vector<8xf32> to vector<8xi32> loc(#loc)
    genx.matrix.2Dblockstore %arg2, %355, %356, %358, %478, %479, %480 {elem_size_in_bits = 32 : i32, tile_height = 8 : i32, tile_width = 16 : i32, transpose = false, v_blocks = 1 : i32, vnni_transform = false} : (!llvm.ptr<1>, i32, i32, i32, i32, i32, vector<8xi32>) loc(#loc)
    %481 = llvm.extractelement %362[%7 : i32] : vector<2xi32> loc(#loc)
    %482 = llvm.extractelement %362[%1 : i32] : vector<2xi32> loc(#loc)
    %483 = llvm.bitcast %233 : vector<8xf32> to vector<8xi32> loc(#loc)
    genx.matrix.2Dblockstore %arg2, %364, %365, %367, %481, %482, %483 {elem_size_in_bits = 32 : i32, tile_height = 8 : i32, tile_width = 16 : i32, transpose = false, v_blocks = 1 : i32, vnni_transform = false} : (!llvm.ptr<1>, i32, i32, i32, i32, i32, vector<8xi32>) loc(#loc)
    %484 = llvm.extractelement %371[%7 : i32] : vector<2xi32> loc(#loc)
    %485 = llvm.extractelement %371[%1 : i32] : vector<2xi32> loc(#loc)
    %486 = llvm.bitcast %234 : vector<8xf32> to vector<8xi32> loc(#loc)
    genx.matrix.2Dblockstore %arg2, %373, %374, %376, %484, %485, %486 {elem_size_in_bits = 32 : i32, tile_height = 8 : i32, tile_width = 16 : i32, transpose = false, v_blocks = 1 : i32, vnni_transform = false} : (!llvm.ptr<1>, i32, i32, i32, i32, i32, vector<8xi32>) loc(#loc)
    %487 = llvm.extractelement %380[%7 : i32] : vector<2xi32> loc(#loc)
    %488 = llvm.extractelement %380[%1 : i32] : vector<2xi32> loc(#loc)
    %489 = llvm.bitcast %235 : vector<8xf32> to vector<8xi32> loc(#loc)
    genx.matrix.2Dblockstore %arg2, %382, %383, %385, %487, %488, %489 {elem_size_in_bits = 32 : i32, tile_height = 8 : i32, tile_width = 16 : i32, transpose = false, v_blocks = 1 : i32, vnni_transform = false} : (!llvm.ptr<1>, i32, i32, i32, i32, i32, vector<8xi32>) loc(#loc)
    %490 = llvm.extractelement %388[%7 : i32] : vector<2xi32> loc(#loc)
    %491 = llvm.extractelement %388[%1 : i32] : vector<2xi32> loc(#loc)
    %492 = llvm.bitcast %236 : vector<8xf32> to vector<8xi32> loc(#loc)
    genx.matrix.2Dblockstore %arg2, %390, %391, %393, %490, %491, %492 {elem_size_in_bits = 32 : i32, tile_height = 8 : i32, tile_width = 16 : i32, transpose = false, v_blocks = 1 : i32, vnni_transform = false} : (!llvm.ptr<1>, i32, i32, i32, i32, i32, vector<8xi32>) loc(#loc)
    %493 = llvm.extractelement %396[%7 : i32] : vector<2xi32> loc(#loc)
    %494 = llvm.extractelement %396[%1 : i32] : vector<2xi32> loc(#loc)
    %495 = llvm.bitcast %237 : vector<8xf32> to vector<8xi32> loc(#loc)
    genx.matrix.2Dblockstore %arg2, %398, %399, %401, %493, %494, %495 {elem_size_in_bits = 32 : i32, tile_height = 8 : i32, tile_width = 16 : i32, transpose = false, v_blocks = 1 : i32, vnni_transform = false} : (!llvm.ptr<1>, i32, i32, i32, i32, i32, vector<8xi32>) loc(#loc)
    %496 = llvm.extractelement %404[%7 : i32] : vector<2xi32> loc(#loc)
    %497 = llvm.extractelement %404[%1 : i32] : vector<2xi32> loc(#loc)
    %498 = llvm.bitcast %238 : vector<8xf32> to vector<8xi32> loc(#loc)
    genx.matrix.2Dblockstore %arg2, %406, %407, %409, %496, %497, %498 {elem_size_in_bits = 32 : i32, tile_height = 8 : i32, tile_width = 16 : i32, transpose = false, v_blocks = 1 : i32, vnni_transform = false} : (!llvm.ptr<1>, i32, i32, i32, i32, i32, vector<8xi32>) loc(#loc)
    %499 = llvm.extractelement %412[%7 : i32] : vector<2xi32> loc(#loc)
    %500 = llvm.extractelement %412[%1 : i32] : vector<2xi32> loc(#loc)
    %501 = llvm.bitcast %239 : vector<8xf32> to vector<8xi32> loc(#loc)
    genx.matrix.2Dblockstore %arg2, %414, %415, %417, %499, %500, %501 {elem_size_in_bits = 32 : i32, tile_height = 8 : i32, tile_width = 16 : i32, transpose = false, v_blocks = 1 : i32, vnni_transform = false} : (!llvm.ptr<1>, i32, i32, i32, i32, i32, vector<8xi32>) loc(#loc)
    %502 = llvm.extractelement %420[%7 : i32] : vector<2xi32> loc(#loc)
    %503 = llvm.extractelement %420[%1 : i32] : vector<2xi32> loc(#loc)
    %504 = llvm.bitcast %240 : vector<8xf32> to vector<8xi32> loc(#loc)
    genx.matrix.2Dblockstore %arg2, %422, %423, %425, %502, %503, %504 {elem_size_in_bits = 32 : i32, tile_height = 8 : i32, tile_width = 16 : i32, transpose = false, v_blocks = 1 : i32, vnni_transform = false} : (!llvm.ptr<1>, i32, i32, i32, i32, i32, vector<8xi32>) loc(#loc)
    %505 = llvm.extractelement %428[%7 : i32] : vector<2xi32> loc(#loc)
    %506 = llvm.extractelement %428[%1 : i32] : vector<2xi32> loc(#loc)
    %507 = llvm.bitcast %241 : vector<8xf32> to vector<8xi32> loc(#loc)
    genx.matrix.2Dblockstore %arg2, %430, %431, %433, %505, %506, %507 {elem_size_in_bits = 32 : i32, tile_height = 8 : i32, tile_width = 16 : i32, transpose = false, v_blocks = 1 : i32, vnni_transform = false} : (!llvm.ptr<1>, i32, i32, i32, i32, i32, vector<8xi32>) loc(#loc)
    %508 = llvm.extractelement %436[%7 : i32] : vector<2xi32> loc(#loc)
    %509 = llvm.extractelement %436[%1 : i32] : vector<2xi32> loc(#loc)
    %510 = llvm.bitcast %242 : vector<8xf32> to vector<8xi32> loc(#loc)
    genx.matrix.2Dblockstore %arg2, %438, %439, %441, %508, %509, %510 {elem_size_in_bits = 32 : i32, tile_height = 8 : i32, tile_width = 16 : i32, transpose = false, v_blocks = 1 : i32, vnni_transform = false} : (!llvm.ptr<1>, i32, i32, i32, i32, i32, vector<8xi32>) loc(#loc)
    %511 = llvm.extractelement %445[%7 : i32] : vector<2xi32> loc(#loc)
    %512 = llvm.extractelement %445[%1 : i32] : vector<2xi32> loc(#loc)
    %513 = llvm.bitcast %243 : vector<8xf32> to vector<8xi32> loc(#loc)
    genx.matrix.2Dblockstore %arg2, %447, %448, %450, %511, %512, %513 {elem_size_in_bits = 32 : i32, tile_height = 8 : i32, tile_width = 16 : i32, transpose = false, v_blocks = 1 : i32, vnni_transform = false} : (!llvm.ptr<1>, i32, i32, i32, i32, i32, vector<8xi32>) loc(#loc)
    %514 = llvm.extractelement %453[%7 : i32] : vector<2xi32> loc(#loc)
    %515 = llvm.extractelement %453[%1 : i32] : vector<2xi32> loc(#loc)
    %516 = llvm.bitcast %244 : vector<8xf32> to vector<8xi32> loc(#loc)
    genx.matrix.2Dblockstore %arg2, %455, %456, %458, %514, %515, %516 {elem_size_in_bits = 32 : i32, tile_height = 8 : i32, tile_width = 16 : i32, transpose = false, v_blocks = 1 : i32, vnni_transform = false} : (!llvm.ptr<1>, i32, i32, i32, i32, i32, vector<8xi32>) loc(#loc)
    %517 = llvm.extractelement %461[%7 : i32] : vector<2xi32> loc(#loc)
    %518 = llvm.extractelement %461[%1 : i32] : vector<2xi32> loc(#loc)
    %519 = llvm.bitcast %245 : vector<8xf32> to vector<8xi32> loc(#loc)
    genx.matrix.2Dblockstore %arg2, %463, %464, %466, %517, %518, %519 {elem_size_in_bits = 32 : i32, tile_height = 8 : i32, tile_width = 16 : i32, transpose = false, v_blocks = 1 : i32, vnni_transform = false} : (!llvm.ptr<1>, i32, i32, i32, i32, i32, vector<8xi32>) loc(#loc)
    %520 = llvm.extractelement %469[%7 : i32] : vector<2xi32> loc(#loc)
    %521 = llvm.extractelement %469[%1 : i32] : vector<2xi32> loc(#loc)
    %522 = llvm.bitcast %246 : vector<8xf32> to vector<8xi32> loc(#loc)
    genx.matrix.2Dblockstore %arg2, %471, %472, %474, %520, %521, %522 {elem_size_in_bits = 32 : i32, tile_height = 8 : i32, tile_width = 16 : i32, transpose = false, v_blocks = 1 : i32, vnni_transform = false} : (!llvm.ptr<1>, i32, i32, i32, i32, i32, vector<8xi32>) loc(#loc)
    llvm.return loc(#loc)
  } loc(#loc)
} loc(#loc)


// -----// IR Dump Before SymbolDCE (symbol-dce) ('builtin.module' operation) //----- //
#loc = loc(unknown)
module attributes {"triton_gpu.compute-capability" = 90 : i32, "triton_gpu.num-ctas" = 1 : i32, "triton_gpu.num-warps" = 32 : i32, triton_gpu.shared = 0 : i32, "triton_gpu.threads-per-warp" = 16 : i32} {
  llvm.func @matmul_kernel_with_block_pointers_0d1d2d3d4d5d(%arg0: !llvm.ptr<1> {tt.divisibility = 16 : i32} loc(unknown), %arg1: !llvm.ptr<1> {tt.divisibility = 16 : i32} loc(unknown), %arg2: !llvm.ptr<1> {tt.divisibility = 16 : i32} loc(unknown), %arg3: i32 {tt.divisibility = 16 : i32} loc(unknown), %arg4: i32 {tt.divisibility = 16 : i32} loc(unknown), %arg5: i32 {tt.divisibility = 16 : i32} loc(unknown)) attributes {genx.intel_reqd_sub_group_size = [16 : i32], genx.kernel = 1 : i32, genx.max_work_group_size = [512 : i32, 1 : i32, 1 : i32], noinline = false} {
    %0 = llvm.mlir.constant(2 : i32) : i32 loc(#loc)
    %1 = llvm.mlir.constant(1 : i32) : i32 loc(#loc)
    %2 = llvm.mlir.constant(64 : i32) : i32 loc(#loc)
    %3 = llvm.mlir.constant(16 : i32) : i32 loc(#loc)
    %4 = llvm.mlir.constant(4096 : i32) : i32 loc(#loc)
    %5 = llvm.mlir.constant(dense<0.000000e+00> : vector<8xf32>) : vector<8xf32> loc(#loc)
    %6 = llvm.mlir.constant(32 : i32) : i32 loc(#loc)
    %7 = llvm.mlir.constant(0 : i32) : i32 loc(#loc)
    %8 = llvm.mlir.constant(256 : i32) : i32 loc(#loc)
    %9 = llvm.mlir.constant(4 : i32) : i32 loc(#loc)
    %10 = llvm.mlir.constant(8 : i32) : i32 loc(#loc)
    %11 = llvm.mlir.constant(24 : i32) : i32 loc(#loc)
    %12 = llvm.mlir.constant(48 : i32) : i32 loc(#loc)
    %13 = llvm.mlir.constant(63 : i32) : i32 loc(#loc)
    %14 = llvm.mlir.constant(7 : i32) : i32 loc(#loc)
    %15 = llvm.mlir.constant(3 : i32) : i32 loc(#loc)
    %16 = genx.workitem.id.x : i32 loc(#loc)
    %17 = genx.workitem.id.y : i32 loc(#loc)
    %18 = genx.workitem.id.z : i32 loc(#loc)
    %19 = genx.workgroup.dim.x : i32 loc(#loc)
    %20 = genx.workgroup.dim.y : i32 loc(#loc)
    %21 = llvm.mul %18, %20  : i32 loc(#loc)
    %22 = llvm.add %21, %17  : i32 loc(#loc)
    %23 = llvm.mul %22, %19  : i32 loc(#loc)
    %24 = llvm.add %23, %16  : i32 loc(#loc)
    %25 = llvm.udiv %24, %3  : i32 loc(#loc)
    %26 = genx.workgroup.id.x : i32 loc(#loc)
    %27 = llvm.sdiv %26, %2  : i32 loc(#loc)
    %28 = llvm.mul %27, %9  : i32 loc(#loc)
    %29 = llvm.sub %3, %28  : i32 loc(#loc)
    %30 = llvm.intr.smin(%29, %9)  : (i32, i32) -> i32 loc(#loc)
    %31 = llvm.srem %26, %30  : i32 loc(#loc)
    %32 = llvm.add %28, %31  : i32 loc(#loc)
    %33 = llvm.and %26, %13  : i32 loc(#loc)
    %34 = llvm.sdiv %33, %30  : i32 loc(#loc)
    %35 = llvm.mul %32, %8  : i32 loc(#loc)
    %36 = llvm.mul %25, %10  : i32 loc(#loc)
    %37 = llvm.add %36, %35  : i32 loc(#loc)
    %38 = llvm.mlir.undef : vector<2xi32> loc(#loc)
    %39 = llvm.insertelement %7, %38[%7 : i32] : vector<2xi32> loc(#loc)
    %40 = llvm.insertelement %37, %39[%1 : i32] : vector<2xi32> loc(#loc)
    %41 = llvm.mul %4, %0  : i32 loc(#loc)
    %42 = llvm.sub %41, %1  : i32 loc(#loc)
    %43 = llvm.sub %4, %1  : i32 loc(#loc)
    %44 = llvm.insertelement %3, %38[%7 : i32] : vector<2xi32> loc(#loc)
    %45 = llvm.insertelement %37, %44[%1 : i32] : vector<2xi32> loc(#loc)
    %46 = llvm.extractelement %40[%7 : i32] : vector<2xi32> loc(#loc)
    %47 = llvm.extractelement %40[%1 : i32] : vector<2xi32> loc(#loc)
    genx.matrix.2Dblockprefetch %arg0, %42, %43, %42, %46, %47 {elem_size_in_bits = 16 : i32, tile_height = 8 : i32, tile_width = 16 : i32, transpose = false, v_blocks = 1 : i32, vnni_transform = false} : (!llvm.ptr<1>, i32, i32, i32, i32, i32) loc(#loc)
    %48 = llvm.extractelement %45[%7 : i32] : vector<2xi32> loc(#loc)
    %49 = llvm.extractelement %45[%1 : i32] : vector<2xi32> loc(#loc)
    genx.matrix.2Dblockprefetch %arg0, %42, %43, %42, %48, %49 {elem_size_in_bits = 16 : i32, tile_height = 8 : i32, tile_width = 16 : i32, transpose = false, v_blocks = 1 : i32, vnni_transform = false} : (!llvm.ptr<1>, i32, i32, i32, i32, i32) loc(#loc)
    %50 = llvm.add %46, %6  : i32 loc(#loc)
    %51 = llvm.insertelement %50, %40[%7 : i32] : vector<2xi32> loc(#loc)
    %52 = llvm.add %48, %6  : i32 loc(#loc)
    %53 = llvm.insertelement %52, %45[%7 : i32] : vector<2xi32> loc(#loc)
    %54 = llvm.extractelement %51[%7 : i32] : vector<2xi32> loc(#loc)
    %55 = llvm.extractelement %51[%1 : i32] : vector<2xi32> loc(#loc)
    genx.matrix.2Dblockprefetch %arg0, %42, %43, %42, %54, %55 {elem_size_in_bits = 16 : i32, tile_height = 8 : i32, tile_width = 16 : i32, transpose = false, v_blocks = 1 : i32, vnni_transform = false} : (!llvm.ptr<1>, i32, i32, i32, i32, i32) loc(#loc)
    %56 = llvm.extractelement %53[%7 : i32] : vector<2xi32> loc(#loc)
    %57 = llvm.extractelement %53[%1 : i32] : vector<2xi32> loc(#loc)
    genx.matrix.2Dblockprefetch %arg0, %42, %43, %42, %56, %57 {elem_size_in_bits = 16 : i32, tile_height = 8 : i32, tile_width = 16 : i32, transpose = false, v_blocks = 1 : i32, vnni_transform = false} : (!llvm.ptr<1>, i32, i32, i32, i32, i32) loc(#loc)
    %58 = llvm.add %54, %6  : i32 loc(#loc)
    %59 = llvm.insertelement %58, %51[%7 : i32] : vector<2xi32> loc(#loc)
    %60 = llvm.add %56, %6  : i32 loc(#loc)
    %61 = llvm.insertelement %60, %53[%7 : i32] : vector<2xi32> loc(#loc)
    %62 = llvm.extractelement %59[%7 : i32] : vector<2xi32> loc(#loc)
    %63 = llvm.extractelement %59[%1 : i32] : vector<2xi32> loc(#loc)
    genx.matrix.2Dblockprefetch %arg0, %42, %43, %42, %62, %63 {elem_size_in_bits = 16 : i32, tile_height = 8 : i32, tile_width = 16 : i32, transpose = false, v_blocks = 1 : i32, vnni_transform = false} : (!llvm.ptr<1>, i32, i32, i32, i32, i32) loc(#loc)
    %64 = llvm.extractelement %61[%7 : i32] : vector<2xi32> loc(#loc)
    %65 = llvm.extractelement %61[%1 : i32] : vector<2xi32> loc(#loc)
    genx.matrix.2Dblockprefetch %arg0, %42, %43, %42, %64, %65 {elem_size_in_bits = 16 : i32, tile_height = 8 : i32, tile_width = 16 : i32, transpose = false, v_blocks = 1 : i32, vnni_transform = false} : (!llvm.ptr<1>, i32, i32, i32, i32, i32) loc(#loc)
    %66 = llvm.add %62, %6  : i32 loc(#loc)
    %67 = llvm.insertelement %66, %59[%7 : i32] : vector<2xi32> loc(#loc)
    %68 = llvm.add %64, %6  : i32 loc(#loc)
    %69 = llvm.insertelement %68, %61[%7 : i32] : vector<2xi32> loc(#loc)
    %70 = llvm.sdiv %25, %9  : i32 loc(#loc)
    %71 = llvm.and %70, %14  : i32 loc(#loc)
    %72 = llvm.mul %71, %6  : i32 loc(#loc)
    %73 = llvm.add %72, %35  : i32 loc(#loc)
    %74 = llvm.insertelement %73, %39[%1 : i32] : vector<2xi32> loc(#loc)
    %75 = llvm.mul %34, %8  : i32 loc(#loc)
    %76 = llvm.sdiv %25, %10  : i32 loc(#loc)
    %77 = llvm.and %76, %15  : i32 loc(#loc)
    %78 = llvm.mul %77, %10  : i32 loc(#loc)
    %79 = llvm.and %25, %14  : i32 loc(#loc)
    %80 = llvm.mul %79, %6  : i32 loc(#loc)
    %81 = llvm.add %80, %75  : i32 loc(#loc)
    %82 = llvm.insertelement %81, %38[%7 : i32] : vector<2xi32> loc(#loc)
    %83 = llvm.insertelement %78, %82[%1 : i32] : vector<2xi32> loc(#loc)
    %84 = llvm.add %81, %3  : i32 loc(#loc)
    %85 = llvm.insertelement %84, %38[%7 : i32] : vector<2xi32> loc(#loc)
    %86 = llvm.insertelement %78, %85[%1 : i32] : vector<2xi32> loc(#loc)
    %87 = llvm.extractelement %83[%7 : i32] : vector<2xi32> loc(#loc)
    %88 = llvm.extractelement %83[%1 : i32] : vector<2xi32> loc(#loc)
    genx.matrix.2Dblockprefetch %arg1, %42, %43, %42, %87, %88 {elem_size_in_bits = 16 : i32, tile_height = 8 : i32, tile_width = 16 : i32, transpose = false, v_blocks = 1 : i32, vnni_transform = false} : (!llvm.ptr<1>, i32, i32, i32, i32, i32) loc(#loc)
    %89 = llvm.extractelement %86[%7 : i32] : vector<2xi32> loc(#loc)
    %90 = llvm.extractelement %86[%1 : i32] : vector<2xi32> loc(#loc)
    genx.matrix.2Dblockprefetch %arg1, %42, %43, %42, %89, %90 {elem_size_in_bits = 16 : i32, tile_height = 8 : i32, tile_width = 16 : i32, transpose = false, v_blocks = 1 : i32, vnni_transform = false} : (!llvm.ptr<1>, i32, i32, i32, i32, i32) loc(#loc)
    %91 = llvm.add %88, %6  : i32 loc(#loc)
    %92 = llvm.insertelement %91, %83[%1 : i32] : vector<2xi32> loc(#loc)
    %93 = llvm.add %90, %6  : i32 loc(#loc)
    %94 = llvm.insertelement %93, %86[%1 : i32] : vector<2xi32> loc(#loc)
    %95 = llvm.extractelement %92[%7 : i32] : vector<2xi32> loc(#loc)
    %96 = llvm.extractelement %92[%1 : i32] : vector<2xi32> loc(#loc)
    genx.matrix.2Dblockprefetch %arg1, %42, %43, %42, %95, %96 {elem_size_in_bits = 16 : i32, tile_height = 8 : i32, tile_width = 16 : i32, transpose = false, v_blocks = 1 : i32, vnni_transform = false} : (!llvm.ptr<1>, i32, i32, i32, i32, i32) loc(#loc)
    %97 = llvm.extractelement %94[%7 : i32] : vector<2xi32> loc(#loc)
    %98 = llvm.extractelement %94[%1 : i32] : vector<2xi32> loc(#loc)
    genx.matrix.2Dblockprefetch %arg1, %42, %43, %42, %97, %98 {elem_size_in_bits = 16 : i32, tile_height = 8 : i32, tile_width = 16 : i32, transpose = false, v_blocks = 1 : i32, vnni_transform = false} : (!llvm.ptr<1>, i32, i32, i32, i32, i32) loc(#loc)
    %99 = llvm.add %96, %6  : i32 loc(#loc)
    %100 = llvm.insertelement %99, %92[%1 : i32] : vector<2xi32> loc(#loc)
    %101 = llvm.add %98, %6  : i32 loc(#loc)
    %102 = llvm.insertelement %101, %94[%1 : i32] : vector<2xi32> loc(#loc)
    %103 = llvm.extractelement %100[%7 : i32] : vector<2xi32> loc(#loc)
    %104 = llvm.extractelement %100[%1 : i32] : vector<2xi32> loc(#loc)
    genx.matrix.2Dblockprefetch %arg1, %42, %43, %42, %103, %104 {elem_size_in_bits = 16 : i32, tile_height = 8 : i32, tile_width = 16 : i32, transpose = false, v_blocks = 1 : i32, vnni_transform = false} : (!llvm.ptr<1>, i32, i32, i32, i32, i32) loc(#loc)
    %105 = llvm.extractelement %102[%7 : i32] : vector<2xi32> loc(#loc)
    %106 = llvm.extractelement %102[%1 : i32] : vector<2xi32> loc(#loc)
    genx.matrix.2Dblockprefetch %arg1, %42, %43, %42, %105, %106 {elem_size_in_bits = 16 : i32, tile_height = 8 : i32, tile_width = 16 : i32, transpose = false, v_blocks = 1 : i32, vnni_transform = false} : (!llvm.ptr<1>, i32, i32, i32, i32, i32) loc(#loc)
    %107 = llvm.add %104, %6  : i32 loc(#loc)
    %108 = llvm.insertelement %107, %100[%1 : i32] : vector<2xi32> loc(#loc)
    %109 = llvm.add %106, %6  : i32 loc(#loc)
    %110 = llvm.insertelement %109, %102[%1 : i32] : vector<2xi32> loc(#loc)
    %111 = llvm.and %25, %15  : i32 loc(#loc)
    %112 = llvm.mul %111, %2  : i32 loc(#loc)
    %113 = llvm.add %112, %75  : i32 loc(#loc)
    %114 = llvm.insertelement %113, %38[%7 : i32] : vector<2xi32> loc(#loc)
    %115 = llvm.insertelement %7, %114[%1 : i32] : vector<2xi32> loc(#loc)
    %116 = llvm.add %113, %6  : i32 loc(#loc)
    %117 = llvm.insertelement %116, %38[%7 : i32] : vector<2xi32> loc(#loc)
    %118 = llvm.insertelement %7, %117[%1 : i32] : vector<2xi32> loc(#loc)
    llvm.br ^bb1(%7, %5, %5, %5, %5, %5, %5, %5, %5, %5, %5, %5, %5, %5, %5, %5, %5, %74, %115, %118, %67, %69, %108, %110 : i32, vector<8xf32>, vector<8xf32>, vector<8xf32>, vector<8xf32>, vector<8xf32>, vector<8xf32>, vector<8xf32>, vector<8xf32>, vector<8xf32>, vector<8xf32>, vector<8xf32>, vector<8xf32>, vector<8xf32>, vector<8xf32>, vector<8xf32>, vector<8xf32>, vector<2xi32>, vector<2xi32>, vector<2xi32>, vector<2xi32>, vector<2xi32>, vector<2xi32>, vector<2xi32>) loc(#loc)
  ^bb1(%119: i32 loc(unknown), %120: vector<8xf32> loc(unknown), %121: vector<8xf32> loc(unknown), %122: vector<8xf32> loc(unknown), %123: vector<8xf32> loc(unknown), %124: vector<8xf32> loc(unknown), %125: vector<8xf32> loc(unknown), %126: vector<8xf32> loc(unknown), %127: vector<8xf32> loc(unknown), %128: vector<8xf32> loc(unknown), %129: vector<8xf32> loc(unknown), %130: vector<8xf32> loc(unknown), %131: vector<8xf32> loc(unknown), %132: vector<8xf32> loc(unknown), %133: vector<8xf32> loc(unknown), %134: vector<8xf32> loc(unknown), %135: vector<8xf32> loc(unknown), %136: vector<2xi32> loc(unknown), %137: vector<2xi32> loc(unknown), %138: vector<2xi32> loc(unknown), %139: vector<2xi32> loc(unknown), %140: vector<2xi32> loc(unknown), %141: vector<2xi32> loc(unknown), %142: vector<2xi32> loc(unknown)):  // 2 preds: ^bb0, ^bb2
    %143 = llvm.icmp "slt" %119, %4 : i32 loc(#loc)
    llvm.cond_br %143, ^bb2, ^bb3 loc(#loc)
  ^bb2:  // pred: ^bb1
    genx.barrier loc(#loc)
    %144 = llvm.extractelement %136[%7 : i32] : vector<2xi32> loc(#loc)
    %145 = llvm.extractelement %136[%1 : i32] : vector<2xi32> loc(#loc)
    %146 = genx.matrix.2Dblockload %arg0, %42, %43, %42, %144, %145 {elem_size_in_bits = 16 : i32, tile_height = 32 : i32, tile_width = 16 : i32, transpose = false, v_blocks = 2 : i32, vnni_transform = false} : (!llvm.ptr<1>, i32, i32, i32, i32, i32) -> vector<64xi16> loc(#loc)
    %147 = llvm.extractelement %137[%7 : i32] : vector<2xi32> loc(#loc)
    %148 = llvm.extractelement %137[%1 : i32] : vector<2xi32> loc(#loc)
    %149 = genx.matrix.2Dblockload %arg1, %42, %43, %42, %147, %148 {elem_size_in_bits = 16 : i32, tile_height = 32 : i32, tile_width = 16 : i32, transpose = false, v_blocks = 2 : i32, vnni_transform = true} : (!llvm.ptr<1>, i32, i32, i32, i32, i32) -> vector<32xi32> loc(#loc)
    %150 = llvm.extractelement %138[%7 : i32] : vector<2xi32> loc(#loc)
    %151 = llvm.extractelement %138[%1 : i32] : vector<2xi32> loc(#loc)
    %152 = genx.matrix.2Dblockload %arg1, %42, %43, %42, %150, %151 {elem_size_in_bits = 16 : i32, tile_height = 32 : i32, tile_width = 16 : i32, transpose = false, v_blocks = 2 : i32, vnni_transform = true} : (!llvm.ptr<1>, i32, i32, i32, i32, i32) -> vector<32xi32> loc(#loc)
    %153 = llvm.shufflevector %146, %146 [0, 1, 2, 3, 4, 5, 6, 7] : vector<64xi16>  loc(#loc)
    %154 = llvm.shufflevector %149, %149 [0, 1, 2, 3, 4, 5, 6, 7] : vector<32xi32>  loc(#loc)
    %155 = genx.matrix.dpas %120, %153, %154 {pa = #genx.precision_type<FP16>, pb = #genx.precision_type<FP16>, rc = 8 : i32} : (vector<8xf32>, vector<8xi16>, vector<8xi32>) -> vector<8xf32> loc(#loc)
    %156 = llvm.shufflevector %146, %146 [32, 33, 34, 35, 36, 37, 38, 39] : vector<64xi16>  loc(#loc)
    %157 = llvm.shufflevector %149, %149 [8, 9, 10, 11, 12, 13, 14, 15] : vector<32xi32>  loc(#loc)
    %158 = genx.matrix.dpas %155, %156, %157 {pa = #genx.precision_type<FP16>, pb = #genx.precision_type<FP16>, rc = 8 : i32} : (vector<8xf32>, vector<8xi16>, vector<8xi32>) -> vector<8xf32> loc(#loc)
    %159 = llvm.shufflevector %146, %146 [8, 9, 10, 11, 12, 13, 14, 15] : vector<64xi16>  loc(#loc)
    %160 = genx.matrix.dpas %121, %159, %154 {pa = #genx.precision_type<FP16>, pb = #genx.precision_type<FP16>, rc = 8 : i32} : (vector<8xf32>, vector<8xi16>, vector<8xi32>) -> vector<8xf32> loc(#loc)
    %161 = llvm.shufflevector %146, %146 [40, 41, 42, 43, 44, 45, 46, 47] : vector<64xi16>  loc(#loc)
    %162 = genx.matrix.dpas %160, %161, %157 {pa = #genx.precision_type<FP16>, pb = #genx.precision_type<FP16>, rc = 8 : i32} : (vector<8xf32>, vector<8xi16>, vector<8xi32>) -> vector<8xf32> loc(#loc)
    %163 = llvm.shufflevector %146, %146 [16, 17, 18, 19, 20, 21, 22, 23] : vector<64xi16>  loc(#loc)
    %164 = genx.matrix.dpas %122, %163, %154 {pa = #genx.precision_type<FP16>, pb = #genx.precision_type<FP16>, rc = 8 : i32} : (vector<8xf32>, vector<8xi16>, vector<8xi32>) -> vector<8xf32> loc(#loc)
    %165 = llvm.shufflevector %146, %146 [48, 49, 50, 51, 52, 53, 54, 55] : vector<64xi16>  loc(#loc)
    %166 = genx.matrix.dpas %164, %165, %157 {pa = #genx.precision_type<FP16>, pb = #genx.precision_type<FP16>, rc = 8 : i32} : (vector<8xf32>, vector<8xi16>, vector<8xi32>) -> vector<8xf32> loc(#loc)
    %167 = llvm.shufflevector %146, %146 [24, 25, 26, 27, 28, 29, 30, 31] : vector<64xi16>  loc(#loc)
    %168 = genx.matrix.dpas %123, %167, %154 {pa = #genx.precision_type<FP16>, pb = #genx.precision_type<FP16>, rc = 8 : i32} : (vector<8xf32>, vector<8xi16>, vector<8xi32>) -> vector<8xf32> loc(#loc)
    %169 = llvm.shufflevector %146, %146 [56, 57, 58, 59, 60, 61, 62, 63] : vector<64xi16>  loc(#loc)
    %170 = genx.matrix.dpas %168, %169, %157 {pa = #genx.precision_type<FP16>, pb = #genx.precision_type<FP16>, rc = 8 : i32} : (vector<8xf32>, vector<8xi16>, vector<8xi32>) -> vector<8xf32> loc(#loc)
    %171 = llvm.shufflevector %149, %149 [16, 17, 18, 19, 20, 21, 22, 23] : vector<32xi32>  loc(#loc)
    %172 = genx.matrix.dpas %124, %153, %171 {pa = #genx.precision_type<FP16>, pb = #genx.precision_type<FP16>, rc = 8 : i32} : (vector<8xf32>, vector<8xi16>, vector<8xi32>) -> vector<8xf32> loc(#loc)
    %173 = llvm.shufflevector %149, %149 [24, 25, 26, 27, 28, 29, 30, 31] : vector<32xi32>  loc(#loc)
    %174 = genx.matrix.dpas %172, %156, %173 {pa = #genx.precision_type<FP16>, pb = #genx.precision_type<FP16>, rc = 8 : i32} : (vector<8xf32>, vector<8xi16>, vector<8xi32>) -> vector<8xf32> loc(#loc)
    %175 = genx.matrix.dpas %125, %159, %171 {pa = #genx.precision_type<FP16>, pb = #genx.precision_type<FP16>, rc = 8 : i32} : (vector<8xf32>, vector<8xi16>, vector<8xi32>) -> vector<8xf32> loc(#loc)
    %176 = genx.matrix.dpas %175, %161, %173 {pa = #genx.precision_type<FP16>, pb = #genx.precision_type<FP16>, rc = 8 : i32} : (vector<8xf32>, vector<8xi16>, vector<8xi32>) -> vector<8xf32> loc(#loc)
    %177 = genx.matrix.dpas %126, %163, %171 {pa = #genx.precision_type<FP16>, pb = #genx.precision_type<FP16>, rc = 8 : i32} : (vector<8xf32>, vector<8xi16>, vector<8xi32>) -> vector<8xf32> loc(#loc)
    %178 = genx.matrix.dpas %177, %165, %173 {pa = #genx.precision_type<FP16>, pb = #genx.precision_type<FP16>, rc = 8 : i32} : (vector<8xf32>, vector<8xi16>, vector<8xi32>) -> vector<8xf32> loc(#loc)
    %179 = genx.matrix.dpas %127, %167, %171 {pa = #genx.precision_type<FP16>, pb = #genx.precision_type<FP16>, rc = 8 : i32} : (vector<8xf32>, vector<8xi16>, vector<8xi32>) -> vector<8xf32> loc(#loc)
    %180 = genx.matrix.dpas %179, %169, %173 {pa = #genx.precision_type<FP16>, pb = #genx.precision_type<FP16>, rc = 8 : i32} : (vector<8xf32>, vector<8xi16>, vector<8xi32>) -> vector<8xf32> loc(#loc)
    %181 = llvm.shufflevector %152, %152 [0, 1, 2, 3, 4, 5, 6, 7] : vector<32xi32>  loc(#loc)
    %182 = genx.matrix.dpas %128, %153, %181 {pa = #genx.precision_type<FP16>, pb = #genx.precision_type<FP16>, rc = 8 : i32} : (vector<8xf32>, vector<8xi16>, vector<8xi32>) -> vector<8xf32> loc(#loc)
    %183 = llvm.shufflevector %152, %152 [8, 9, 10, 11, 12, 13, 14, 15] : vector<32xi32>  loc(#loc)
    %184 = genx.matrix.dpas %182, %156, %183 {pa = #genx.precision_type<FP16>, pb = #genx.precision_type<FP16>, rc = 8 : i32} : (vector<8xf32>, vector<8xi16>, vector<8xi32>) -> vector<8xf32> loc(#loc)
    %185 = genx.matrix.dpas %129, %159, %181 {pa = #genx.precision_type<FP16>, pb = #genx.precision_type<FP16>, rc = 8 : i32} : (vector<8xf32>, vector<8xi16>, vector<8xi32>) -> vector<8xf32> loc(#loc)
    %186 = genx.matrix.dpas %185, %161, %183 {pa = #genx.precision_type<FP16>, pb = #genx.precision_type<FP16>, rc = 8 : i32} : (vector<8xf32>, vector<8xi16>, vector<8xi32>) -> vector<8xf32> loc(#loc)
    %187 = genx.matrix.dpas %130, %163, %181 {pa = #genx.precision_type<FP16>, pb = #genx.precision_type<FP16>, rc = 8 : i32} : (vector<8xf32>, vector<8xi16>, vector<8xi32>) -> vector<8xf32> loc(#loc)
    %188 = genx.matrix.dpas %187, %165, %183 {pa = #genx.precision_type<FP16>, pb = #genx.precision_type<FP16>, rc = 8 : i32} : (vector<8xf32>, vector<8xi16>, vector<8xi32>) -> vector<8xf32> loc(#loc)
    %189 = genx.matrix.dpas %131, %167, %181 {pa = #genx.precision_type<FP16>, pb = #genx.precision_type<FP16>, rc = 8 : i32} : (vector<8xf32>, vector<8xi16>, vector<8xi32>) -> vector<8xf32> loc(#loc)
    %190 = genx.matrix.dpas %189, %169, %183 {pa = #genx.precision_type<FP16>, pb = #genx.precision_type<FP16>, rc = 8 : i32} : (vector<8xf32>, vector<8xi16>, vector<8xi32>) -> vector<8xf32> loc(#loc)
    %191 = llvm.shufflevector %152, %152 [16, 17, 18, 19, 20, 21, 22, 23] : vector<32xi32>  loc(#loc)
    %192 = genx.matrix.dpas %132, %153, %191 {pa = #genx.precision_type<FP16>, pb = #genx.precision_type<FP16>, rc = 8 : i32} : (vector<8xf32>, vector<8xi16>, vector<8xi32>) -> vector<8xf32> loc(#loc)
    %193 = llvm.shufflevector %152, %152 [24, 25, 26, 27, 28, 29, 30, 31] : vector<32xi32>  loc(#loc)
    %194 = genx.matrix.dpas %192, %156, %193 {pa = #genx.precision_type<FP16>, pb = #genx.precision_type<FP16>, rc = 8 : i32} : (vector<8xf32>, vector<8xi16>, vector<8xi32>) -> vector<8xf32> loc(#loc)
    %195 = genx.matrix.dpas %133, %159, %191 {pa = #genx.precision_type<FP16>, pb = #genx.precision_type<FP16>, rc = 8 : i32} : (vector<8xf32>, vector<8xi16>, vector<8xi32>) -> vector<8xf32> loc(#loc)
    %196 = genx.matrix.dpas %195, %161, %193 {pa = #genx.precision_type<FP16>, pb = #genx.precision_type<FP16>, rc = 8 : i32} : (vector<8xf32>, vector<8xi16>, vector<8xi32>) -> vector<8xf32> loc(#loc)
    %197 = genx.matrix.dpas %134, %163, %191 {pa = #genx.precision_type<FP16>, pb = #genx.precision_type<FP16>, rc = 8 : i32} : (vector<8xf32>, vector<8xi16>, vector<8xi32>) -> vector<8xf32> loc(#loc)
    %198 = genx.matrix.dpas %197, %165, %193 {pa = #genx.precision_type<FP16>, pb = #genx.precision_type<FP16>, rc = 8 : i32} : (vector<8xf32>, vector<8xi16>, vector<8xi32>) -> vector<8xf32> loc(#loc)
    %199 = genx.matrix.dpas %135, %167, %191 {pa = #genx.precision_type<FP16>, pb = #genx.precision_type<FP16>, rc = 8 : i32} : (vector<8xf32>, vector<8xi16>, vector<8xi32>) -> vector<8xf32> loc(#loc)
    %200 = genx.matrix.dpas %199, %169, %193 {pa = #genx.precision_type<FP16>, pb = #genx.precision_type<FP16>, rc = 8 : i32} : (vector<8xf32>, vector<8xi16>, vector<8xi32>) -> vector<8xf32> loc(#loc)
    %201 = llvm.extractelement %139[%7 : i32] : vector<2xi32> loc(#loc)
    %202 = llvm.extractelement %139[%1 : i32] : vector<2xi32> loc(#loc)
    genx.matrix.2Dblockprefetch %arg0, %42, %43, %42, %201, %202 {elem_size_in_bits = 16 : i32, tile_height = 8 : i32, tile_width = 16 : i32, transpose = false, v_blocks = 1 : i32, vnni_transform = false} : (!llvm.ptr<1>, i32, i32, i32, i32, i32) loc(#loc)
    %203 = llvm.extractelement %140[%7 : i32] : vector<2xi32> loc(#loc)
    %204 = llvm.extractelement %140[%1 : i32] : vector<2xi32> loc(#loc)
    genx.matrix.2Dblockprefetch %arg0, %42, %43, %42, %203, %204 {elem_size_in_bits = 16 : i32, tile_height = 8 : i32, tile_width = 16 : i32, transpose = false, v_blocks = 1 : i32, vnni_transform = false} : (!llvm.ptr<1>, i32, i32, i32, i32, i32) loc(#loc)
    %205 = llvm.add %201, %6  : i32 loc(#loc)
    %206 = llvm.insertelement %205, %139[%7 : i32] : vector<2xi32> loc(#loc)
    %207 = llvm.add %203, %6  : i32 loc(#loc)
    %208 = llvm.insertelement %207, %140[%7 : i32] : vector<2xi32> loc(#loc)
    %209 = llvm.add %144, %6  : i32 loc(#loc)
    %210 = llvm.insertelement %209, %136[%7 : i32] : vector<2xi32> loc(#loc)
    %211 = llvm.extractelement %141[%7 : i32] : vector<2xi32> loc(#loc)
    %212 = llvm.extractelement %141[%1 : i32] : vector<2xi32> loc(#loc)
    genx.matrix.2Dblockprefetch %arg1, %42, %43, %42, %211, %212 {elem_size_in_bits = 16 : i32, tile_height = 8 : i32, tile_width = 16 : i32, transpose = false, v_blocks = 1 : i32, vnni_transform = false} : (!llvm.ptr<1>, i32, i32, i32, i32, i32) loc(#loc)
    %213 = llvm.extractelement %142[%7 : i32] : vector<2xi32> loc(#loc)
    %214 = llvm.extractelement %142[%1 : i32] : vector<2xi32> loc(#loc)
    genx.matrix.2Dblockprefetch %arg1, %42, %43, %42, %213, %214 {elem_size_in_bits = 16 : i32, tile_height = 8 : i32, tile_width = 16 : i32, transpose = false, v_blocks = 1 : i32, vnni_transform = false} : (!llvm.ptr<1>, i32, i32, i32, i32, i32) loc(#loc)
    %215 = llvm.add %212, %6  : i32 loc(#loc)
    %216 = llvm.insertelement %215, %141[%1 : i32] : vector<2xi32> loc(#loc)
    %217 = llvm.add %214, %6  : i32 loc(#loc)
    %218 = llvm.insertelement %217, %142[%1 : i32] : vector<2xi32> loc(#loc)
    %219 = llvm.add %148, %6  : i32 loc(#loc)
    %220 = llvm.insertelement %219, %137[%1 : i32] : vector<2xi32> loc(#loc)
    %221 = llvm.add %151, %6  : i32 loc(#loc)
    %222 = llvm.insertelement %221, %138[%1 : i32] : vector<2xi32> loc(#loc)
    %223 = llvm.add %119, %6  : i32 loc(#loc)
    llvm.br ^bb1(%223, %158, %162, %166, %170, %174, %176, %178, %180, %184, %186, %188, %190, %194, %196, %198, %200, %210, %220, %222, %206, %208, %216, %218 : i32, vector<8xf32>, vector<8xf32>, vector<8xf32>, vector<8xf32>, vector<8xf32>, vector<8xf32>, vector<8xf32>, vector<8xf32>, vector<8xf32>, vector<8xf32>, vector<8xf32>, vector<8xf32>, vector<8xf32>, vector<8xf32>, vector<8xf32>, vector<8xf32>, vector<2xi32>, vector<2xi32>, vector<2xi32>, vector<2xi32>, vector<2xi32>, vector<2xi32>, vector<2xi32>) loc(#loc)
  ^bb3:  // pred: ^bb1
    %224 = llvm.insertelement %73, %114[%1 : i32] : vector<2xi32> loc(#loc)
    %225 = llvm.mul %4, %9  : i32 loc(#loc)
    %226 = llvm.sub %225, %1  : i32 loc(#loc)
    %227 = llvm.add %73, %10  : i32 loc(#loc)
    %228 = llvm.insertelement %227, %114[%1 : i32] : vector<2xi32> loc(#loc)
    %229 = llvm.add %73, %3  : i32 loc(#loc)
    %230 = llvm.insertelement %229, %114[%1 : i32] : vector<2xi32> loc(#loc)
    %231 = llvm.add %73, %11  : i32 loc(#loc)
    %232 = llvm.insertelement %231, %114[%1 : i32] : vector<2xi32> loc(#loc)
    %233 = llvm.add %113, %3  : i32 loc(#loc)
    %234 = llvm.insertelement %233, %38[%7 : i32] : vector<2xi32> loc(#loc)
    %235 = llvm.insertelement %73, %234[%1 : i32] : vector<2xi32> loc(#loc)
    %236 = llvm.insertelement %227, %234[%1 : i32] : vector<2xi32> loc(#loc)
    %237 = llvm.insertelement %229, %234[%1 : i32] : vector<2xi32> loc(#loc)
    %238 = llvm.insertelement %231, %234[%1 : i32] : vector<2xi32> loc(#loc)
    %239 = llvm.insertelement %73, %117[%1 : i32] : vector<2xi32> loc(#loc)
    %240 = llvm.insertelement %227, %117[%1 : i32] : vector<2xi32> loc(#loc)
    %241 = llvm.insertelement %229, %117[%1 : i32] : vector<2xi32> loc(#loc)
    %242 = llvm.insertelement %231, %117[%1 : i32] : vector<2xi32> loc(#loc)
    %243 = llvm.add %113, %12  : i32 loc(#loc)
    %244 = llvm.insertelement %243, %38[%7 : i32] : vector<2xi32> loc(#loc)
    %245 = llvm.insertelement %73, %244[%1 : i32] : vector<2xi32> loc(#loc)
    %246 = llvm.insertelement %227, %244[%1 : i32] : vector<2xi32> loc(#loc)
    %247 = llvm.insertelement %229, %244[%1 : i32] : vector<2xi32> loc(#loc)
    %248 = llvm.insertelement %231, %244[%1 : i32] : vector<2xi32> loc(#loc)
    %249 = llvm.extractelement %224[%7 : i32] : vector<2xi32> loc(#loc)
    %250 = llvm.extractelement %224[%1 : i32] : vector<2xi32> loc(#loc)
    %251 = llvm.bitcast %120 : vector<8xf32> to vector<8xi32> loc(#loc)
    genx.matrix.2Dblockstore %arg2, %226, %43, %226, %249, %250, %251 {elem_size_in_bits = 32 : i32, tile_height = 8 : i32, tile_width = 16 : i32, transpose = false, v_blocks = 1 : i32, vnni_transform = false} : (!llvm.ptr<1>, i32, i32, i32, i32, i32, vector<8xi32>) loc(#loc)
    %252 = llvm.extractelement %228[%7 : i32] : vector<2xi32> loc(#loc)
    %253 = llvm.extractelement %228[%1 : i32] : vector<2xi32> loc(#loc)
    %254 = llvm.bitcast %121 : vector<8xf32> to vector<8xi32> loc(#loc)
    genx.matrix.2Dblockstore %arg2, %226, %43, %226, %252, %253, %254 {elem_size_in_bits = 32 : i32, tile_height = 8 : i32, tile_width = 16 : i32, transpose = false, v_blocks = 1 : i32, vnni_transform = false} : (!llvm.ptr<1>, i32, i32, i32, i32, i32, vector<8xi32>) loc(#loc)
    %255 = llvm.extractelement %230[%7 : i32] : vector<2xi32> loc(#loc)
    %256 = llvm.extractelement %230[%1 : i32] : vector<2xi32> loc(#loc)
    %257 = llvm.bitcast %122 : vector<8xf32> to vector<8xi32> loc(#loc)
    genx.matrix.2Dblockstore %arg2, %226, %43, %226, %255, %256, %257 {elem_size_in_bits = 32 : i32, tile_height = 8 : i32, tile_width = 16 : i32, transpose = false, v_blocks = 1 : i32, vnni_transform = false} : (!llvm.ptr<1>, i32, i32, i32, i32, i32, vector<8xi32>) loc(#loc)
    %258 = llvm.extractelement %232[%7 : i32] : vector<2xi32> loc(#loc)
    %259 = llvm.extractelement %232[%1 : i32] : vector<2xi32> loc(#loc)
    %260 = llvm.bitcast %123 : vector<8xf32> to vector<8xi32> loc(#loc)
    genx.matrix.2Dblockstore %arg2, %226, %43, %226, %258, %259, %260 {elem_size_in_bits = 32 : i32, tile_height = 8 : i32, tile_width = 16 : i32, transpose = false, v_blocks = 1 : i32, vnni_transform = false} : (!llvm.ptr<1>, i32, i32, i32, i32, i32, vector<8xi32>) loc(#loc)
    %261 = llvm.extractelement %235[%7 : i32] : vector<2xi32> loc(#loc)
    %262 = llvm.extractelement %235[%1 : i32] : vector<2xi32> loc(#loc)
    %263 = llvm.bitcast %124 : vector<8xf32> to vector<8xi32> loc(#loc)
    genx.matrix.2Dblockstore %arg2, %226, %43, %226, %261, %262, %263 {elem_size_in_bits = 32 : i32, tile_height = 8 : i32, tile_width = 16 : i32, transpose = false, v_blocks = 1 : i32, vnni_transform = false} : (!llvm.ptr<1>, i32, i32, i32, i32, i32, vector<8xi32>) loc(#loc)
    %264 = llvm.extractelement %236[%7 : i32] : vector<2xi32> loc(#loc)
    %265 = llvm.extractelement %236[%1 : i32] : vector<2xi32> loc(#loc)
    %266 = llvm.bitcast %125 : vector<8xf32> to vector<8xi32> loc(#loc)
    genx.matrix.2Dblockstore %arg2, %226, %43, %226, %264, %265, %266 {elem_size_in_bits = 32 : i32, tile_height = 8 : i32, tile_width = 16 : i32, transpose = false, v_blocks = 1 : i32, vnni_transform = false} : (!llvm.ptr<1>, i32, i32, i32, i32, i32, vector<8xi32>) loc(#loc)
    %267 = llvm.extractelement %237[%7 : i32] : vector<2xi32> loc(#loc)
    %268 = llvm.extractelement %237[%1 : i32] : vector<2xi32> loc(#loc)
    %269 = llvm.bitcast %126 : vector<8xf32> to vector<8xi32> loc(#loc)
    genx.matrix.2Dblockstore %arg2, %226, %43, %226, %267, %268, %269 {elem_size_in_bits = 32 : i32, tile_height = 8 : i32, tile_width = 16 : i32, transpose = false, v_blocks = 1 : i32, vnni_transform = false} : (!llvm.ptr<1>, i32, i32, i32, i32, i32, vector<8xi32>) loc(#loc)
    %270 = llvm.extractelement %238[%7 : i32] : vector<2xi32> loc(#loc)
    %271 = llvm.extractelement %238[%1 : i32] : vector<2xi32> loc(#loc)
    %272 = llvm.bitcast %127 : vector<8xf32> to vector<8xi32> loc(#loc)
    genx.matrix.2Dblockstore %arg2, %226, %43, %226, %270, %271, %272 {elem_size_in_bits = 32 : i32, tile_height = 8 : i32, tile_width = 16 : i32, transpose = false, v_blocks = 1 : i32, vnni_transform = false} : (!llvm.ptr<1>, i32, i32, i32, i32, i32, vector<8xi32>) loc(#loc)
    %273 = llvm.extractelement %239[%7 : i32] : vector<2xi32> loc(#loc)
    %274 = llvm.extractelement %239[%1 : i32] : vector<2xi32> loc(#loc)
    %275 = llvm.bitcast %128 : vector<8xf32> to vector<8xi32> loc(#loc)
    genx.matrix.2Dblockstore %arg2, %226, %43, %226, %273, %274, %275 {elem_size_in_bits = 32 : i32, tile_height = 8 : i32, tile_width = 16 : i32, transpose = false, v_blocks = 1 : i32, vnni_transform = false} : (!llvm.ptr<1>, i32, i32, i32, i32, i32, vector<8xi32>) loc(#loc)
    %276 = llvm.extractelement %240[%7 : i32] : vector<2xi32> loc(#loc)
    %277 = llvm.extractelement %240[%1 : i32] : vector<2xi32> loc(#loc)
    %278 = llvm.bitcast %129 : vector<8xf32> to vector<8xi32> loc(#loc)
    genx.matrix.2Dblockstore %arg2, %226, %43, %226, %276, %277, %278 {elem_size_in_bits = 32 : i32, tile_height = 8 : i32, tile_width = 16 : i32, transpose = false, v_blocks = 1 : i32, vnni_transform = false} : (!llvm.ptr<1>, i32, i32, i32, i32, i32, vector<8xi32>) loc(#loc)
    %279 = llvm.extractelement %241[%7 : i32] : vector<2xi32> loc(#loc)
    %280 = llvm.extractelement %241[%1 : i32] : vector<2xi32> loc(#loc)
    %281 = llvm.bitcast %130 : vector<8xf32> to vector<8xi32> loc(#loc)
    genx.matrix.2Dblockstore %arg2, %226, %43, %226, %279, %280, %281 {elem_size_in_bits = 32 : i32, tile_height = 8 : i32, tile_width = 16 : i32, transpose = false, v_blocks = 1 : i32, vnni_transform = false} : (!llvm.ptr<1>, i32, i32, i32, i32, i32, vector<8xi32>) loc(#loc)
    %282 = llvm.extractelement %242[%7 : i32] : vector<2xi32> loc(#loc)
    %283 = llvm.extractelement %242[%1 : i32] : vector<2xi32> loc(#loc)
    %284 = llvm.bitcast %131 : vector<8xf32> to vector<8xi32> loc(#loc)
    genx.matrix.2Dblockstore %arg2, %226, %43, %226, %282, %283, %284 {elem_size_in_bits = 32 : i32, tile_height = 8 : i32, tile_width = 16 : i32, transpose = false, v_blocks = 1 : i32, vnni_transform = false} : (!llvm.ptr<1>, i32, i32, i32, i32, i32, vector<8xi32>) loc(#loc)
    %285 = llvm.extractelement %245[%7 : i32] : vector<2xi32> loc(#loc)
    %286 = llvm.extractelement %245[%1 : i32] : vector<2xi32> loc(#loc)
    %287 = llvm.bitcast %132 : vector<8xf32> to vector<8xi32> loc(#loc)
    genx.matrix.2Dblockstore %arg2, %226, %43, %226, %285, %286, %287 {elem_size_in_bits = 32 : i32, tile_height = 8 : i32, tile_width = 16 : i32, transpose = false, v_blocks = 1 : i32, vnni_transform = false} : (!llvm.ptr<1>, i32, i32, i32, i32, i32, vector<8xi32>) loc(#loc)
    %288 = llvm.extractelement %246[%7 : i32] : vector<2xi32> loc(#loc)
    %289 = llvm.extractelement %246[%1 : i32] : vector<2xi32> loc(#loc)
    %290 = llvm.bitcast %133 : vector<8xf32> to vector<8xi32> loc(#loc)
    genx.matrix.2Dblockstore %arg2, %226, %43, %226, %288, %289, %290 {elem_size_in_bits = 32 : i32, tile_height = 8 : i32, tile_width = 16 : i32, transpose = false, v_blocks = 1 : i32, vnni_transform = false} : (!llvm.ptr<1>, i32, i32, i32, i32, i32, vector<8xi32>) loc(#loc)
    %291 = llvm.extractelement %247[%7 : i32] : vector<2xi32> loc(#loc)
    %292 = llvm.extractelement %247[%1 : i32] : vector<2xi32> loc(#loc)
    %293 = llvm.bitcast %134 : vector<8xf32> to vector<8xi32> loc(#loc)
    genx.matrix.2Dblockstore %arg2, %226, %43, %226, %291, %292, %293 {elem_size_in_bits = 32 : i32, tile_height = 8 : i32, tile_width = 16 : i32, transpose = false, v_blocks = 1 : i32, vnni_transform = false} : (!llvm.ptr<1>, i32, i32, i32, i32, i32, vector<8xi32>) loc(#loc)
    %294 = llvm.extractelement %248[%7 : i32] : vector<2xi32> loc(#loc)
    %295 = llvm.extractelement %248[%1 : i32] : vector<2xi32> loc(#loc)
    %296 = llvm.bitcast %135 : vector<8xf32> to vector<8xi32> loc(#loc)
    genx.matrix.2Dblockstore %arg2, %226, %43, %226, %294, %295, %296 {elem_size_in_bits = 32 : i32, tile_height = 8 : i32, tile_width = 16 : i32, transpose = false, v_blocks = 1 : i32, vnni_transform = false} : (!llvm.ptr<1>, i32, i32, i32, i32, i32, vector<8xi32>) loc(#loc)
    llvm.return loc(#loc)
  } loc(#loc)
} loc(#loc)


python: /home/jovyan/igc-llvm-update/igc/IGC/GenISAIntrinsics/LlvmTypesMapping.cpp:174: llvm::Type* IGC::PointerType::GetType(llvm::LLVMContext&) const: Assertion `pElementType != nullptr' failed.
